sRGB_noise_modeling/experiments/basler/our_model/saved_models/epoch_340_noise_model_net.pth (torch, 500346 bytes, 1152 tensors)

model.2.log_scale f4 [25, 3]
0.10444989 0.16420956 0.099691615 0.58807313 0.6443701 0.08714643 0.27319384 0.2594387
0.3568359 0.5078023 0.4323613 0.3580212 0.15243262 0.28406566 0.14233007 0.077350475
0.14631973 -0.0019196003 0.0 0.0 0.0 -0.12243125 -0.05800544 0.062458694
0.0 0.0 0.0 0.0 0.0 0.0 -0.03493146 0.046300534
0.020528065 -0.043930646 0.20245619 0.05056443 -0.33140382 -0.31818447 -0.09855378 -0.024976406
0.083315596 -0.037388027 -0.13161115 -0.15950796 -0.08090453 0.06389197 0.084122784 0.085848056
0.0 0.0 0.0 -0.4082127 -0.4424633 -0.20497607 0.0 0.0
0.0 0.0 0.0 0.0 0.0 0.0 0.0 0.0
0.0 0.0 -0.6331127 -0.67981374 -0.30233866 0.0 0.0 0.0
0.0 0.0 0.0
00000000: d3e9 d53d 8d26 283e 1e2b cc3d f68b 163f
00000010: 70f5 243f d479 b23d 10e0 8b3e 26d5 843e
00000020: 32b3 b63e 55ff 013f 765e dd3e 8e4e b73e
00000030: 4c17 1c3e 0e71 913e f9be 113e ed69 9e3d
00000040: d7d4 153e 199b fbba 0000 0000 0000 0000
00000050: 0000 0000 3cbd fabd 1d97 6dbd b0d4 7f3d
00000060: 0000 0000 0000 0000 0000 0000 0000 0000
00000070: 0000 0000 0000 0000 4a14 0fbd a1a5 3d3d
00000080: 792a a83c 9ff0 33bd ad50 4f3e a61c 4f3d
00000090: c3ad a9be 13e9 a2be 90d6 c9bd 529b ccbc
000000a0: 5ea1 aa3d 3024 19bd 13c5 06be 0e56 23be
000000b0: 46b1 a5bd cbd9 823d 9148 ac3d 1bd1 af3d
000000c0: 0000 0000 0000 0000 0000 0000 4101 d1be
000000d0: 8d8a e2be 3fe5 51be 0000 0000 0000 0000
000000e0: 0000 0000 0000 0000 0000 0000 0000 0000
000000f0: 0000 0000 0000 0000 0000 0000 0000 0000
00000100: 0000 0000 0000 0000 ad13 22bf 4608 2ebf
00000110: 22cc 9abe 0000 0000 0000 0000 0000 0000
00000120: 0000 0000 0000 0000 0000 0000

model.2.bias f4 [25, 3]
0.026700158 -0.012183771 -0.0011151022 0.012689278 -0.021715924 -0.0069937864 0.016135952 -0.013111112
0.004248913 0.029181037 -0.01719907 0.01116378 0.024149112 -0.016292507 0.013436874 0.012992582
-0.013080236 -0.011288315 0.0 0.0 0.0 0.025261058 -0.008674951 -0.0037449978
0.0 0.0 0.0 0.0 0.0 0.0 0.018153848 -0.008286522
-0.01533247 0.030991908 -0.015449329 0.009800514 0.023154778 -0.017420813 0.002801015 0.040515132
-0.017602589 0.0041798116 0.029204497 -0.019737374 0.013911223 0.019714689 -0.020978345 -0.000365469
0.0 0.0 0.0 0.019772204 -0.014158519 -0.005622006 0.0 0.0
0.0 0.0 0.0 0.0 0.0 0.0 0.0 0.0
0.0 0.0 0.014472374 -0.021316858 -0.023282772 0.0 0.0 0.0
0.0 0.0 0.0
00000000: 4aba da3c 709e 47bc 9f28 92ba b1e6 4f3c
00000010: 98e5 b1bc 222c e5bb 8b2f 843c fdcf 56bc
00000020: 773a 8b3b 120d ef3c 10e5 8cbc 49e8 363c
00000030: 5cd4 c53c dd77 85bc 5626 5c3c d7de 543c
00000040: 7c4e 56bc a0f2 38bc 0000 0000 0000 0000
00000050: 0000 0000 47f0 ce3c 6221 0ebc a36e 75bb
00000060: 0000 0000 0000 0000 0000 0000 0000 0000
00000070: 0000 0000 0000 0000 61b7 943c 31c4 07bc
00000080: 0a35 7bbc bee2 fd3c 2f1f 7dbc 5692 203c
00000090: 17af bd3c 18b6 8ebc 3c91 373b 32f3 253d
000000a0: 4e33 90bc cdf6 883b 453e ef3c 46b0 a1bc
000000b0: e6eb 633c b380 a13c c7da abbc 6b9c bfb9
000000c0: 0000 0000 0000 0000 0000 0000 51f9 a13c
000000d0: 22f9 67bc ce38 b8bb 0000 0000 0000 0000
000000e0: 0000 0000 0000 0000 0000 0000 0000 0000
000000f0: 0000 0000 0000 0000 0000 0000 0000 0000
00000100: 0000 0000 0000 0000 891d 6d3c b1a0 aebc
00000110: 83bb bebc 0000 0000 0000 0000 0000 0000
00000120: 0000 0000 0000 0000 0000 0000

model.3.log_s f4 [3]
-0.08809879 0.49537092 0.41501126
00000000: 236d b4bd 42a1 fd3e 5b7c d43e

model.3.u f4 [3, 3]
0.0 -0.4699674 -0.105248466 0.0 0.0 0.13480015 0.0 0.0
0.0
00000000: 0000 0000 919f f0be 828c d7bd 0000 0000
00000010: 0000 0000 0d09 0a3e 0000 0000 0000 0000
00000020: 0000 0000

model.3.sign_s f4 [3]
-1.0 1.0 1.0
00000000: 0000 80bf 0000 803f 0000 803f

model.4._shift_and_log_scale.logs f4 [1, 4, 1, 1]
-0.2639616 -0.6638184 0.14693435 0.66263974
00000000: fa25 87be 01f0 29bf f575 163e c2a2 293f

model.4._shift_and_log_scale.conv2d_1.weight f4 [4, 4, 3, 3]
-0.002398332 -0.007016967 -0.0030724688 -0.009580599 0.12830989 -0.008556159 0.001195751 -0.010954101
-0.003518561 -0.0004667287 -0.0002947392 0.0013673337 0.0026875923 -0.019736363 -0.0008182702 -0.0010547752
-0.0010627236 0.0021208392 0.005826369 -0.015175672 0.007999839 -0.011003637 0.040622458 -0.020068623
0.0048436252 -0.01525988 0.009832587 -0.00076198025 -0.0020597752 0.0022833773 -0.0011142021 0.0026504886
-0.0033788872 0.000726746 -0.0040027886 0.002777169 0.0061485255 0.009561758 0.007791057 0.009394769
-0.1203379 0.00870972 -0.0037754246 0.013819971 0.0032438268 -0.00040588103 -0.0059217657 -0.00045181374
-0.007428305 0.024104867 -0.011613568 0.00066377147 -0.0056614326 7.345374e-06 -0.0059730294 0.011635536
-0.004506962 0.010325906 -0.0065073823 0.0111708585 -0.0020661477 0.009478734 -0.0071245655 -7.404105e-05
-0.00010471239 0.0018906754 -0.0017373414 0.00034775696 -0.0022516265 0.0022164227 -0.0016087845 0.0017066123
-0.0015096219 0.0017748198 9.4641924e-05 0.00057517935 0.006699595 -0.0005663911 -0.0027009116 0.0030188826
-0.0043874113 -0.022270419 0.058818895 -0.03518792 0.03653665 -0.1284611 0.098154634 -0.010558511
0.048548296 -0.033879478 -0.011235205 0.0436754 -0.034152474 0.01870373 -0.017175853 -0.001706864
-0.013451933 0.041546088 -0.033512026 0.00030888055 0.0052408436 -0.007980724 -0.0041866847 0.006905641
-0.010407846 -0.001880861 0.0018380999 -0.0041340035 -0.0071621677 -0.004945961 -0.0058907475 -0.013547872
0.18143092 -0.012509776 0.00450349 -0.0042703603 -0.009328579 0.024166154 -0.09496996 0.039783824
-0.08542798 0.3245596 -0.11578026 0.022192577 -0.08607177 0.030840231 0.045843065 -0.09064692
0.052367993 -0.08606995 0.17157091 -0.12611592 0.05193585 -0.10113712 0.060135733 -0.008282654
-0.0024350032 0.0051982664 0.0037935586 0.012745137 -0.01313839 0.0017721775 -0.010163167 0.005950247
00000000: 562d 1dbb 96ee e5bb 795b 49bb f2f7 1cbc
00000010: ab63 033e 222f 0cbc bfba 9c3a d478 33bc
00000020: a897 66bb 44b3 f4b9 3a87 9ab9 1b38 b33a
00000030: 5122 303b 27ae a1bc 2f81 56ba 6240 8aba
00000040: 164b 8bba c7fd 0a3b 20eb be3b 62a3 78bc
00000050: c211 033c 9948 34bc bc63 263d f466 a4bc
00000060: 46b7 9e3b 9304 7abc dc18 213c a1bf 47ba
00000070: 4bfd 06bb b7a4 153b 6b0a 92ba d2b3 2d3b
00000080: 5270 5dbb 1983 3e3a d329 83bb 2a01 363b
00000090: 9279 c93b eba8 1c3c 204c ff3b 84ec 193c
000000a0: b873 f6bd 37b3 0e3c 1d6d 77bb 296d 623c
000000b0: 6296 543b 6ecc d4b9 5f0b c2bb 6ae1 ecb9
000000c0: 2469 f3bb 9277 c53c d646 3ebc f300 2e3a
000000d0: 8a83 b9bb 4878 f636 67b9 c3bb faa2 3e3c
000000e0: 23af 93bb fd2d 293c e13b d5bb fa05 373c
000000f0: 3568 07bb b14c 1b3c 3075 e9bb 7c46 9bb8
00000100: 0999 dbb8 8ad0 f73a 81b7 e3ba 2653 b639
00000110: 0690 13bb 6741 113b dadd d2ba 68b0 df3a
00000120: 81de c5ba 12a1 e83a 7f7a c638 a2c7 163a
00000130: 4788 db3b dd79 14ba c701 31bb 72d8 453b
00000140: 46c4 8fbb 7470 b6bc 15ec 703d 3521 10bd
00000150: 74a7 153d 4e8b 03be 4c05 c93d 9bfd 2cbc
00000160: 94da 463d 35c5 0abd de13 38bc fae4 323d
00000170: 77e3 0bbd 9138 993c 60b4 8cbc dab8 dfba
00000180: 7f65 5cbc 3b2c 2a3d e843 09bd 3ff1 a139
00000190: 62bb ab3b 95c1 02bc 7530 89bb b748 e23b
000001a0: ac85 2abc 3987 f6ba 66ec f03a 8976 87bb
000001b0: 9eb0 eabb ba11 a2bb 2c07 c1bb e5f7 5dbc
000001c0: 07c9 393e cef5 4cbc 0392 933b 61ee 8bbb
000001d0: e5d6 18bc 19f8 c53c 9c7f c2bd 5df4 223d
000001e0: ddf4 aebd ad2c a63e 331e edbd 35cd b53c
000001f0: 6546 b0bd a7a4 fc3c f0c5 3b3d 18a5 b9bd
00000200: d27f 563d 7145 b0bd 49b0 2f3e 8824 01be
00000210: b0ba 543d fa20 cfbd e350 763d f8b3 07bc
00000220: 9394 1fbb 3856 aa3b 5a9d 783b fbd0 503c
00000230: 6742 57bc 6948 e83a 6983 26bc 4afa c23b

model.4._shift_and_log_scale.conv2d_1.bias f4 [4]
-0.023487467 -0.029443447 0.08793101 0.11431015
00000000: ca68 c0bc 6233 f1bc 2c15 b43d 711b ea3d

model.4._shift_and_log_scale.conv2d_2.weight f4 [4, 4, 1, 1]
0.11466692 -0.033326104 0.0068070274 -0.024254534 -0.037546325 0.027082749 0.023516895 -0.1173761
-0.031798936 0.011197813 -0.11448537 0.04961893 -0.1522762 0.06871364 -0.016984684 0.028905718
00000000: 7dd6 ea3d f480 08bd 7c0d df3b 72b1 c6bc
00000010: 2dca 19bd a4dc dd3c 81a6 c03c e162 f0bd
00000020: 9a3f 02bd 0877 373c 4e77 eabd 383d 4b3d
00000030: 4bee 1bbe bdb9 8c3d 7723 8bbc afcb ec3c

model.4._shift_and_log_scale.conv2d_2.bias f4 [4]
0.010701144 0.10512371 0.079826 0.16294183
00000000: da53 2f3c 1a4b d73d d07b a33d 39da 263e

model.4._shift_and_log_scale.net.0.weight f4 [4, 4, 3, 3]
-0.002398332 -0.007016967 -0.0030724688 -0.009580599 0.12830989 -0.008556159 0.001195751 -0.010954101
-0.003518561 -0.0004667287 -0.0002947392 0.0013673337 0.0026875923 -0.019736363 -0.0008182702 -0.0010547752
-0.0010627236 0.0021208392 0.005826369 -0.015175672 0.007999839 -0.011003637 0.040622458 -0.020068623
0.0048436252 -0.01525988 0.009832587 -0.00076198025 -0.0020597752 0.0022833773 -0.0011142021 0.0026504886
-0.0033788872 0.000726746 -0.0040027886 0.002777169 0.0061485255 0.009561758 0.007791057 0.009394769
-0.1203379 0.00870972 -0.0037754246 0.013819971 0.0032438268 -0.00040588103 -0.0059217657 -0.00045181374
-0.007428305 0.024104867 -0.011613568 0.00066377147 -0.0056614326 7.345374e-06 -0.0059730294 0.011635536
-0.004506962 0.010325906 -0.0065073823 0.0111708585 -0.0020661477 0.009478734 -0.0071245655 -7.404105e-05
-0.00010471239 0.0018906754 -0.0017373414 0.00034775696 -0.0022516265 0.0022164227 -0.0016087845 0.0017066123
-0.0015096219 0.0017748198 9.4641924e-05 0.00057517935 0.006699595 -0.0005663911 -0.0027009116 0.0030188826
-0.0043874113 -0.022270419 0.058818895 -0.03518792 0.03653665 -0.1284611 0.098154634 -0.010558511
0.048548296 -0.033879478 -0.011235205 0.0436754 -0.034152474 0.01870373 -0.017175853 -0.001706864
-0.013451933 0.041546088 -0.033512026 0.00030888055 0.0052408436 -0.007980724 -0.0041866847 0.006905641
-0.010407846 -0.001880861 0.0018380999 -0.0041340035 -0.0071621677 -0.004945961 -0.0058907475 -0.013547872
0.18143092 -0.012509776 0.00450349 -0.0042703603 -0.009328579 0.024166154 -0.09496996 0.039783824
-0.08542798 0.3245596 -0.11578026 0.022192577 -0.08607177 0.030840231 0.045843065 -0.09064692
0.052367993 -0.08606995 0.17157091 -0.12611592 0.05193585 -0.10113712 0.060135733 -0.008282654
-0.0024350032 0.0051982664 0.0037935586 0.012745137 -0.01313839 0.0017721775 -0.010163167 0.005950247
00000000: 562d 1dbb 96ee e5bb 795b 49bb f2f7 1cbc
00000010: ab63 033e 222f 0cbc bfba 9c3a d478 33bc
00000020: a897 66bb 44b3 f4b9 3a87 9ab9 1b38 b33a
00000030: 5122 303b 27ae a1bc 2f81 56ba 6240 8aba
00000040: 164b 8bba c7fd 0a3b 20eb be3b 62a3 78bc
00000050: c211 033c 9948 34bc bc63 263d f466 a4bc
00000060: 46b7 9e3b 9304 7abc dc18 213c a1bf 47ba
00000070: 4bfd 06bb b7a4 153b 6b0a 92ba d2b3 2d3b
00000080: 5270 5dbb 1983 3e3a d329 83bb 2a01 363b
00000090: 9279 c93b eba8 1c3c 204c ff3b 84ec 193c
000000a0: b873 f6bd 37b3 0e3c 1d6d 77bb 296d 623c
000000b0: 6296 543b 6ecc d4b9 5f0b c2bb 6ae1 ecb9
000000c0: 2469 f3bb 9277 c53c d646 3ebc f300 2e3a
000000d0: 8a83 b9bb 4878 f636 67b9 c3bb faa2 3e3c
000000e0: 23af 93bb fd2d 293c e13b d5bb fa05 373c
000000f0: 3568 07bb b14c 1b3c 3075 e9bb 7c46 9bb8
00000100: 0999 dbb8 8ad0 f73a 81b7 e3ba 2653 b639
00000110: 0690 13bb 6741 113b dadd d2ba 68b0 df3a
00000120: 81de c5ba 12a1 e83a 7f7a c638 a2c7 163a
00000130: 4788 db3b dd79 14ba c701 31bb 72d8 453b
00000140: 46c4 8fbb 7470 b6bc 15ec 703d 3521 10bd
00000150: 74a7 153d 4e8b 03be 4c05 c93d 9bfd 2cbc
00000160: 94da 463d 35c5 0abd de13 38bc fae4 323d
00000170: 77e3 0bbd 9138 993c 60b4 8cbc dab8 dfba
00000180: 7f65 5cbc 3b2c 2a3d e843 09bd 3ff1 a139
00000190: 62bb ab3b 95c1 02bc 7530 89bb b748 e23b
000001a0: ac85 2abc 3987 f6ba 66ec f03a 8976 87bb
000001b0: 9eb0 eabb ba11 a2bb 2c07 c1bb e5f7 5dbc
000001c0: 07c9 393e cef5 4cbc 0392 933b 61ee 8bbb
000001d0: e5d6 18bc 19f8 c53c 9c7f c2bd 5df4 223d
000001e0: ddf4 aebd ad2c a63e 331e edbd 35cd b53c
000001f0: 6546 b0bd a7a4 fc3c f0c5 3b3d 18a5 b9bd
00000200: d27f 563d 7145 b0bd 49b0 2f3e 8824 01be
00000210: b0ba 543d fa20 cfbd e350 763d f8b3 07bc
00000220: 9394 1fbb 3856 aa3b 5a9d 783b fbd0 503c
00000230: 6742 57bc 6948 e83a 6983 26bc 4afa c23b

model.4._shift_and_log_scale.net.0.bias f4 [4]
-0.023487467 -0.029443447 0.08793101 0.11431015
00000000: ca68 c0bc 6233 f1bc 2c15 b43d 711b ea3d

model.4._shift_and_log_scale.net.1.weight f4 [4]
0.7452945 1.0484748 1.0106404 0.54127955
00000000: 9fcb 3e3f 6c34 863f aa5c 813f 4c91 0a3f

model.4._shift_and_log_scale.net.1.bias f4 [4]
0.8551391 -0.048013058 -0.3790477 6.9040995
00000000: 65ea 5a3f 57a9 44bd 8a12 c2be 62ee dc40

model.4._shift_and_log_scale.net.1.running_mean f4 [4]
-0.028634392 -0.022186797 0.08461232 0.1163555
00000000: ac92 eabc 16c1 b5bc 3949 ad3d cb4b ee3d

model.4._shift_and_log_scale.net.1.running_var f4 [4]
2.0101656e-05 1.9171379e-05 4.898273e-05 0.00016423523
00000000: fa9f a837 39d2 a037 ce72 4d38 8f36 2c39

model.4._shift_and_log_scale.net.3.weight f4 [4, 4, 1, 1]
0.11466692 -0.033326104 0.0068070274 -0.024254534 -0.037546325 0.027082749 0.023516895 -0.1173761
-0.031798936 0.011197813 -0.11448537 0.04961893 -0.1522762 0.06871364 -0.016984684 0.028905718
00000000: 7dd6 ea3d f480 08bd 7c0d df3b 72b1 c6bc
00000010: 2dca 19bd a4dc dd3c 81a6 c03c e162 f0bd
00000020: 9a3f 02bd 0877 373c 4e77 eabd 383d 4b3d
00000030: 4bee 1bbe bdb9 8c3d 7723 8bbc afcb ec3c

model.4._shift_and_log_scale.net.3.bias f4 [4]
0.010701144 0.10512371 0.079826 0.16294183
00000000: da53 2f3c 1a4b d73d d07b a33d 39da 263e

model.4._shift_and_log_scale.net.4.weight f4 [4]
1.0606773 0.5373936 0.84779453 0.92903024
00000000: 46c4 873f a192 093f 1009 593f edd4 6d3f

model.4._shift_and_log_scale.net.4.bias f4 [4]
-0.1820374 0.6472875 0.14401346 0.19428512
00000000: 0368 3abe a2b4 253f 4478 133e aef2 463e

model.4._shift_and_log_scale.net.4.running_mean f4 [4]
-0.0653127 -0.72817564 0.38218963 0.24857567
00000000: aac2 85bd b869 3abf 5cae c33e 9f8a 7e3e

model.4._shift_and_log_scale.net.4.running_var f4 [4]
0.0051641064 0.0053877067 0.0051761717 0.010912686
00000000: aa37 a93b 5c8b b03b e09c a93b 1fcb 323c

model.4._shift_and_log_scale.conv2d_3.weight f4 [4, 5, 3, 3]
-0.0031003582 -0.0053904466 -0.0022391358 -0.008760852 -0.054532193 -0.008347973 -0.002402096 -0.005579011
-0.0033112473 0.00051380583 0.0063645374 0.0019788975 0.0057978737 0.037949402 0.007369747 0.0007229526
0.0060471203 0.0008295602 -0.006313387 0.0023895316 -0.0046993876 0.002327264 -0.033513036 -0.005382683
-0.006688611 0.003100091 -0.0056855227 0.0026447529 0.0030341665 0.0016878659 0.005792388 0.03758796
0.006996448 0.002193898 0.0030450902 0.0022858784 -0.084965065 -0.024873978 0.062089197 -0.027245114
0.0 0.00252952 0.061441213 0.026955003 -0.026112478 -0.010915248 -0.010899975 0.0014395075
0.013514628 0.038263537 0.010231111 -0.0005662361 -0.0010476866 -0.0015345084 0.0076523274 -0.002117651
-0.0077249315 -0.016158022 -0.020526133 -0.016179701 -0.0025410168 -0.012203986 0.0040573 0.010779299
-0.010911012 0.0038198575 -0.003962594 -0.0036508085 -0.015252993 0.0062453104 -0.007601427 -0.0054549943
0.00773154 0.009025838 -0.0006188595 -0.014239774 -0.021414302 -0.0016195932 -0.0019971717 -0.000830218
0.007842334 0.11051342 0.10256293 -0.05242655 0.025409393 0.0 -0.23090984 -0.04527874
-0.08076107 0.026919775 -0.012936913 -0.0364704 -0.015037018 -0.032919567 -0.14993696 -0.039176762
-0.01613809 -0.03642607 -0.013955481 -0.023545982 -0.051123288 -0.018114537 -0.050293013 -0.1646225
-0.05392848 -0.013252505 -0.034237634 -0.016700571 -0.037149172 -0.04147214 -0.031228391 -0.028213527
-0.019023445 -0.025884442 -0.023846608 -0.023985496 -0.01633947 0.004047317 0.018265367 0.004745504
0.015930112 0.081729196 0.022710908 0.0055030677 0.013499964 0.00060459663 0.05283437 -0.14299197
-0.022681741 -0.26227987 0.0 -0.0908468 0.11790518 -0.20846817 0.02629549 0.48346573
0.45813558 0.4560753 0.44543216 0.48166725 0.4258193 0.44685227 0.41896665 0.46524402
0.40320936 0.31798068 0.4231389 0.3160089 0.37161046 0.2731968 0.38926232 0.27942386
0.4148392 0.43879116 0.42264065 0.43810526 0.41209102 0.42482066 0.40653178 0.4516846
0.3954353 0.40946537 0.2632778 0.40532786 0.31959713 0.37794206 0.2975877 0.37396792
0.30103013 0.39702824 0.26133335 0.21804269 0.18731765 0.20604852 0.23220728 0.0
0.19913498 0.25396925 0.25949338 0.24193695
00000000: 612f 4bbb 58a2 b0bb 77be 12bb ad89 0fbc
00000010: 265d 5fbd f0c5 08bc 7c6c 1dbb 23d0 b6bb
00000020: 8301 59bb edb0 063a 9c8d d03b 64b0 013b
00000030: 17fc bd3b d570 1b3d eb7d f13b 8784 3d3a
00000040: ec26 c63b d876 593a 87e0 cebb b099 1c3b
00000050: 52fd 99bb 0385 183b f744 09bd 3861 b0bb
00000060: 232c dbbb e52a 4b3b 9f4d babb 9753 2d3b
00000070: ded8 463b 623b dd3a 13ce bd3b d5f5 193d
00000080: 7642 e53b 80c7 0f3b 2390 473b adce 153b
00000090: 2a02 aebd 83c4 cbbc 3e51 7e3d 2531 dfbc
000000a0: 0000 0000 4ec6 253b c8a9 7b3d bdd0 dc3c
000000b0: d6e9 d5bc ded5 32bc cf95 32bc dbad bc3a
000000c0: 756c 5d3c 3aba 1c3d 64a0 273c 766f 14ba
000000d0: 8752 89ba 8f21 c9ba 60c0 fa3b 4ac8 0abb
000000e0: 6c21 fdbb d45d 84bc 6c26 a8bc 4b8b 84bc
000000f0: 3087 26bb 3af3 47bc 19f3 843b a89b 303c
00000100: 1ac4 32bc 9356 7a3b a6d8 81bb 6742 6fbb
00000110: b1e7 79bc 76a5 cc3b 6415 f9bb cfbf b2bb
00000120: dc58 fd3b 1ce1 133c f53a 22ba f14d 69bc
00000130: 0c6d afbc 8848 d4ba fbe2 02bb fda2 59ba
00000140: 227d 003c dc54 e23d 830c d23d 39bd 56bd
00000150: 5c27 d03c 0000 0000 a173 6cbe 3376 39bd
00000160: 0f66 a5bd dc86 dc3c 59f5 53bc fc61 15bd
00000170: d35d 76bc abd6 06bd 1389 19be d077 20bd
00000180: 0734 84bc 8133 15bd 88a5 64bc 81e3 c0bc
00000190: a766 51bd f064 94bc 0c00 4ebd cd92 28be
000001a0: 1ce4 5cbd 0921 59bc c33c 0cbd a3cf 88bc
000001b0: bb29 18bd b1de 29bd afd2 ffbc 0e20 e7bc
000001c0: 0ed7 9bbc 9c0b d4bc f659 c3bc 3b7d c4bc
000001d0: 5ada 85bc 5b9f 843b 40a1 953c 2c80 9b3b
000001e0: de7f 823c a361 a73d 3a0c ba3c 1453 b43b
000001f0: f42e 5d3c cb7d 1e3a da68 583d 7d6c 12be
00000200: 0fcf b9bc 8c49 86be 0000 0000 e30d babd
00000210: 4578 f13d ae78 55be a469 d73c d288 f73e
00000220: bf90 ea3e b482 e93e af0f e43e 179d f63e
00000230: fd04 da3e d2c9 e43e cc82 d63e 7734 ee3e
00000240: 7571 ce3e 5dce a23e a9a5 d83e ebcb a13e
00000250: ba43 be3e 73e0 8b3e 644d c73e a510 8f3e
00000260: ce65 d43e 3ca9 e03e 5b64 d83e 554f e03e
00000270: 98fd d23e 1882 d93e ef24 d03e 3443 e73e
00000280: 7f76 ca3e 72a5 d13e 59cc 863e 2287 cf3e
00000290: 3ca2 a33e 9f81 c13e 6a5d 983e b978 bf3e
000002a0: 9f20 9a3e 4947 cb3e 7ccd 853e 9546 5f3e
000002b0: 33d0 3f3e 62fe 523e bfc7 6d3e 0000 0000
000002c0: 0aea 4b3e 4208 823e 51dc 843e 52be 773e

model.4._shift_and_log_scale.conv2d_3.bias f4 [4]
-0.016361147 0.0037537082 0.5338286 0.597914
00000000: d007 86bc c600 763b fea8 083f e410 193f

model.4._encoder.initial_layer.weight f4 [5, 10]
0.42953172 0.21346149 0.04508662 0.08643186 -0.109302565 -0.0660994 0.2827439 -0.004640715
0.1458571 -0.060253114 -0.5536856 -0.27933913 0.09339719 -0.13842529 0.30683887 -0.13023303
0.117062554 0.26004928 -0.27928126 -0.42673573 0.09891307 0.088736415 0.11926025 -0.14329664
-0.40050936 0.01868553 0.010343512 0.14910673 -0.0380963 0.015012417 0.41419196 0.3738804
0.003234398 0.089526154 -0.4120301 0.29719365 -0.09354843 -0.21592182 0.35005665 -0.031647958
0.40243894 0.0667384 0.13235772 -0.008800245 -0.08652954 -0.023507603 -0.12905517 -0.10985797
-0.07322574 0.32734516
00000000: 95eb db3e a695 5a3e bfac 383d 3003 b13d
00000010: 06da dfbd 1f5f 87bd cfc3 903e 2411 98bb
00000020: 905b 153e f8cb 76bd 57be 0dbf 8a05 8fbe
00000030: 0747 bf3d 5cbf 0dbe fc19 9d3e cf5b 05be
00000040: 7ebe ef3d 2e25 853e f4fd 8ebe 1b7d dabe
00000050: f092 ca3d 70bb b53d b83e f43d 5bbc 12be
00000060: 900f cdbe 6612 993c d577 293c 6faf 183e
00000070: de0a 1cbd a4f6 753c f810 d43e 406d bf3e
00000080: 32f8 533b 7d59 b73d 9cf5 d2be c429 983e
00000090: 5296 bfbd 9c1a 5dbe a03a b33e 4aa1 01bd
000000a0: 7a0c ce3e 24ae 883d c888 073e e72e 10bc
000000b0: 6636 b1bd 0493 c0bc 0a27 04be 37fd e0bd
000000c0: 60f7 95bd c999 a73e

model.4._encoder.initial_layer.bias f4 [5]
0.1015726 -0.0007112838 0.22886896 0.2761718 0.548994
00000000: 4c05 d03d 7375 3aba a05c 6a3e 6466 8d3e
00000010: df8a 0c3f

model.4._encoder.blocks.0.batch_norm_layers.0.weight f4 [5]
1.0 1.0 1.0 1.0 1.0
00000000: 0000 803f 0000 803f 0000 803f 0000 803f
00000010: 0000 803f

model.4._encoder.blocks.0.batch_norm_layers.0.bias f4 [5]
0.0 0.0 0.0 0.0 0.0
00000000: 0000 0000 0000 0000 0000 0000 0000 0000
00000010: 0000 0000

model.4._encoder.blocks.0.batch_norm_layers.0.running_mean f4 [5]
0.8138017 -0.43738517 0.33825973 0.5967949 0.82248896
00000000: 4f55 503f f3f0 dfbe 6130 ad3e 8dc7 183f
00000010: a38e 523f

model.4._encoder.blocks.0.batch_norm_layers.0.running_var f4 [5]
6e-45 6e-45 6e-45 6e-45 6e-45
00000000: 0400 0000 0400 0000 0400 0000 0400 0000
00000010: 0400 0000

model.4._encoder.blocks.0.batch_norm_layers.1.weight f4 [5]
1.0 1.0 1.0 1.0 1.0
00000000: 0000 803f 0000 803f 0000 803f 0000 803f
00000010: 0000 803f

model.4._encoder.blocks.0.batch_norm_layers.1.bias f4 [5]
0.0 0.0 0.0 0.0 0.0
00000000: 0000 0000 0000 0000 0000 0000 0000 0000
00000010: 0000 0000

model.4._encoder.blocks.0.batch_norm_layers.1.running_mean f4 [5]
0.19775379 0.19494611 -0.38696265 0.4140622 0.42358375
00000000: f87f 4a3e f49f 473e f81f c6be f6ff d33e
00000010: f8df d83e

model.4._encoder.blocks.0.batch_norm_layers.1.running_var f4 [5]
6e-45 6e-45 6e-45 6e-45 6e-45
00000000: 0400 0000 0400 0000 0400 0000 0400 0000
00000010: 0400 0000

model.4._encoder.blocks.0.linear_layers.0.weight f4 [5, 5]
0.22477299 0.37929094 0.25868818 -0.13566399 -0.2967139 -0.033274055 0.37013075 -0.15009373
-0.41473246 0.18332557 0.43534964 -0.12731421 -0.3703034 -0.40564942 0.11207145 -0.033862885
-0.22583716 0.09039612 0.16983332 0.35567746 0.34720868 -0.06694059 -0.39433825 -0.40411252
0.41755867
00000000: e42a 663e 6c32 c23e c772 843e 80eb 0abe
00000010: e2ea 97be 604a 08bd c781 bd3e 2cb2 19be
00000020: d057 d4be b3b9 3b3e 26e6 de3e a85e 02be
00000030: 6898 bdbe 48b1 cfbe b785 e53d cfb3 0abd
00000040: db41 67be 9a21 b93d c9e8 2d3e 5b1b b63e
00000050: 56c5 b13e 2618 89bd b4e6 c9be d6e7 cebe
00000060: 40ca d53e

model.4._encoder.blocks.0.linear_layers.0.bias f4 [5]
0.19769311 0.1949437 -0.3869386 0.4141268 0.42366472
00000000: 1070 4a3e 529f 473e d11c c6be 6e08 d43e
00000010: 95ea d83e

model.4._encoder.blocks.0.linear_layers.1.weight f4 [5, 5]
-6.286335e-05 0.00062801293 0.00025980044 0.00031620444 9.287322e-05 0.00037281873 -0.000243652 -0.00039780024
-0.0009347085 -0.00075333694 0.00043340257 -0.0005921134 0.00014346647 0.00031919146 7.0803886e-05 -0.0006483498
0.0009563284 -0.0005814995 0.0008225006 -0.0007955083 -0.0002405485 0.0005439688 -0.00040858067 0.000840043
-0.0006881565
00000000: 81d5 83b8 3ca1 243a d335 8839 3ec8 a539
00000010: eec4 c238 e276 c339 d67c 7fb9 d88f d0b9
00000020: 3a07 75ba 967b 45ba 4f3a e339 0f38 1bba
00000030: 7d6f 1639 2759 a739 8c7c 9438 05f6 29ba
00000040: 1db2 7a3a c56f 18ba 159d 573a a989 50ba
00000050: bf3b 7cb9 2199 0e3a c536 d6b9 5536 5c3a
00000060: 6765 34ba

model.4._encoder.blocks.0.linear_layers.1.bias f4 [5]
0.30537197 -0.299336 0.29945993 0.33387673 0.3007372
00000000: b759 9c3e 9142 99be d052 993e e4f1 aa3e
00000010: 3afa 993e

model.4._encoder.blocks.1.batch_norm_layers.0.weight f4 [5]
1.0 1.0 1.0 1.0 1.0
00000000: 0000 803f 0000 803f 0000 803f 0000 803f
00000010: 0000 803f

model.4._encoder.blocks.1.batch_norm_layers.0.bias f4 [5]
0.0 0.0 0.0 0.0 0.0
00000000: 0000 0000 0000 0000 0000 0000 0000 0000
00000010: 0000 0000

model.4._encoder.blocks.1.batch_norm_layers.0.running_mean f4 [5]
1.1193237 -0.736656 0.6377552 0.9307797 1.1232702
00000000: 0046 8f3f 7d95 3cbf ed43 233f 9447 6e3f
00000010: 51c7 8f3f

model.4._encoder.blocks.1.batch_norm_layers.0.running_var f4 [5]
6e-45 6e-45 6e-45 6e-45 6e-45
00000000: 0400 0000 0400 0000 0400 0000 0400 0000
00000010: 0400 0000

model.4._encoder.blocks.1.batch_norm_layers.1.weight f4 [5]
1.0 1.0 1.0 1.0 1.0
00000000: 0000 803f 0000 803f 0000 803f 0000 803f
00000010: 0000 803f

model.4._encoder.blocks.1.batch_norm_layers.1.bias f4 [5]
0.0 0.0 0.0 0.0 0.0
00000000: 0000 0000 0000 0000 0000 0000 0000 0000
00000010: 0000 0000

model.4._encoder.blocks.1.batch_norm_layers.1.running_mean f4 [5]
0.19958484 0.30566373 -0.07086175 -0.37060538 0.2215575
00000000: f85f 4c3e f57f 9c3e f71f 91bd fdbf bdbe
00000010: f8df 623e

model.4._encoder.blocks.1.batch_norm_layers.1.running_var f4 [5]
6e-45 6e-45 6e-45 6e-45 6e-45
00000000: 0400 0000 0400 0000 0400 0000 0400 0000
00000010: 0400 0000

model.4._encoder.blocks.1.linear_layers.0.weight f4 [5, 5]
0.1599362 -0.11211959 -0.096983775 0.32883766 -0.34658423 0.047500044 0.42056376 -0.061452597
0.34723368 -0.13772248 0.35999003 -0.43260327 -0.064454064 -0.07855147 0.14493522 0.17545415
0.34337816 -0.06662855 -0.017734295 0.3062569 -0.121003985 0.3920425 -0.29776025 -0.048392914
-0.024020262
00000000: 51c6 233e f59e e5bd 6e9f c6bd 695d a83e
00000010: 7d73 b1be 688f 423d 2254 d73e b8b5 7bbd
00000020: 9dc8 b13e 1f07 0dbe 9d50 b83e 2d7e ddbe
00000030: 7e00 84bd 98df a0bd e669 143e 41aa 333e
00000040: 43cf af3e 8d74 88bd 8347 91bc b4cd 9c3e
00000050: f0d0 f7bd cbb9 c83e 0874 98be a637 46bd
00000060: 24c6 c4bc

model.4._encoder.blocks.1.linear_layers.0.bias f4 [5]
0.19955114 0.30574927 -0.07088504 -0.37050778 0.22159086
00000000: 2257 4c3e 2b8b 9c3e 2d2c 91bd 32b3 bdbe
00000010: b7e8 623e

model.4._encoder.blocks.1.linear_layers.1.weight f4 [5, 5]
0.0008534742 0.0008110172 -0.0007408832 -0.00016021682 -0.0005917377 -0.0005713518 0.00023720706 0.000938648
-0.000801104 0.0006052045 -0.00051846675 -0.00019477429 0.00079377095 -0.00022617032 9.105576e-05 -0.00069903256
0.00085124094 -0.00012926984 -0.0007313905 0.00029281032 -0.0007110174 -0.0007935074 6.091917e-05 0.00079284364
-0.00028298402
00000000: afbb 5f3a 719a 543a d437 42ba e0ff 27b9
00000010: d81e 1bba c5c6 15ba c9ba 7839 9a0f 763a
00000020: 2e01 52ba 96a6 1e3a b7e9 07ba 533c 4cb9
00000030: 1115 503a 2228 6db9 30f5 be38 483f 37ba
00000040: d025 5f3a 9c8c 07b9 c9ba 3fba 5684 9939
00000050: 9263 3aba 6103 50ba 7683 7f38 d6d6 4f3a
00000060: 795d 94b9

model.4._encoder.blocks.1.linear_layers.1.bias f4 [5]
0.30668202 -0.29802656 0.29996127 0.33243003 0.30110472
00000000: 6d05 9d3e f096 98be 8694 993e 4534 aa3e
00000010: 662a 9a3e

model.4._encoder.blocks.2.batch_norm_layers.0.weight f4 [5]
1.0 1.0 1.0 1.0 1.0
00000000: 0000 803f 0000 803f 0000 803f 0000 803f
00000010: 0000 803f

model.4._encoder.blocks.2.batch_norm_layers.0.bias f4 [5]
0.0 0.0 0.0 0.0 0.0
00000000: 0000 0000 0000 0000 0000 0000 0000 0000
00000010: 0000 0000

model.4._encoder.blocks.2.batch_norm_layers.0.running_mean f4 [5]
1.4259646 -1.0346541 0.93760985 1.2636795 1.4242753
00000000: 0286 b63f 8c6f 84bf 3307 703f 40c0 a13f
00000010: a74e b63f

model.4._encoder.blocks.2.batch_norm_layers.0.running_var f4 [5]
6e-45 6e-45 6e-45 6e-45 6e-45
00000000: 0400 0000 0400 0000 0400 0000 0400 0000
00000010: 0400 0000

model.4._encoder.blocks.2.batch_norm_layers.1.weight f4 [5]
1.0 1.0 1.0 1.0 1.0
00000000: 0000 803f 0000 803f 0000 803f 0000 803f
00000010: 0000 803f

model.4._encoder.blocks.2.batch_norm_layers.1.bias f4 [5]
0.0 0.0 0.0 0.0 0.0
00000000: 0000 0000 0000 0000 0000 0000 0000 0000
00000010: 0000 0000

model.4._encoder.blocks.2.batch_norm_layers.1.running_mean f4 [5]
0.27734357 -0.28515616 0.44531232 -0.26513654 0.44653302
00000000: faff 8d3e fdff 91be faff e33e fabf 87be
00000010: fa9f e43e

model.4._encoder.blocks.2.batch_norm_layers.1.running_var f4 [5]
6e-45 6e-45 6e-45 6e-45 6e-45
00000000: 0400 0000 0400 0000 0400 0000 0400 0000
00000010: 0400 0000

model.4._encoder.blocks.2.linear_layers.0.weight f4 [5, 5]
-0.14073135 -0.3596147 0.00018477945 0.33649918 0.3767844 0.04172534 0.1015725 -0.19360845
0.3375758 -0.18608937 -0.31065816 0.06886798 0.2680533 -0.403204 0.40426654 0.16087663
-0.31332356 -0.09633316 0.38799354 -0.34311777 -0.13071035 0.14667724 -0.39179713 0.2451617
0.23279597
00000000: e11b 10be 6b1f b8be 5bc1 4139 9f49 ac3e
00000010: e3e9 c03e 31e8 2a3d 3e05 d03d 4b41 46be
00000020: bcd6 ac3e 368e 3ebe 960e 9fbe a80a 8d3d
00000030: 483e 893e c170 cebe 06fc ce3e d8bc 243e
00000040: f26b a0be 524a c5bd 17a7 c63e 22ad afbe
00000050: efd8 05be 8f32 163e a299 c8be ab0b 7b3e
00000060: 1162 6e3e

model.4._encoder.blocks.2.linear_layers.0.bias f4 [5]
0.27736434 -0.28511974 0.44542518 -0.265091 0.44647142
00000000: b302 8e3e 37fb 91be c50e e43e 02ba 87be
00000010: e797 e43e

model.4._encoder.blocks.2.linear_layers.1.weight f4 [5, 5]
0.000118122705 -0.0004688517 -0.0003454949 0.000270854 -0.00069536525 0.00016499568 0.00043272474 -0.00039407017
0.0008306412 -6.581045e-05 0.0004537127 0.0009903064 -0.00030566836 0.00054340815 -0.00028602924 -0.00014607298
-0.00016947115 -6.2125923e-06 -0.00037776842 0.00023438693 3.768039e-05 0.0006338898 -0.00020240534 0.00010028017
-0.00037199035
00000000: a5b8 f738 36d0 f5b9 8a23 b5b9 6901 8e39
00000010: 2c49 36ba b102 2d39 55df e239 349b ceb9
00000020: 63bf 593a b703 8ab8 4ae0 ed39 2bcd 813a
00000030: 1d42 a0b9 8173 0e3a 32f6 95b9 2b2b 19b9
00000040: 11b4 31b9 c375 d0b6 380f c6b9 c3c5 7539
00000050: 030b 1e38 a02b 263a c53c 54b9 824d d238
00000060: b307 c3b9

model.4._encoder.blocks.2.linear_layers.1.bias f4 [5]
0.3053743 -0.29848102 0.29942614 0.33255455 0.30087635
00000000: 055a 9c3e 81d2 98be 624e 993e 9744 aa3e
00000010: 770c 9a3e

model.4._encoder.final_layer.weight f4 [1, 5]
0.3766263 -0.25000387 0.5072451 0.25553656 0.46076182
00000000: 2ad5 c03e 8200 80be d1da 013f b0d5 823e
00000010: f9e8 eb3e

model.5.log_s f4 [3]
0.20541573 0.17832993 -0.10386594
00000000: 8058 523e 1f9c 363e aab7 d4bd

model.5.u f4 [3, 3]
0.0 0.1313361 0.4536241 0.0 0.0 -0.6145972 0.0 0.0
0.0
00000000: 0000 0000 f87c 063e 6b41 e83e 0000 0000
00000010: 0000 0000 3e56 1dbf 0000 0000 0000 0000
00000020: 0000 0000

model.5.sign_s f4 [3]
-1.0 1.0 -1.0
00000000: 0000 80bf 0000 803f 0000 80bf

model.6._shift_and_log_scale.logs f4 [1, 4, 1, 1]
-0.28323275 -0.100103095 0.12783793 -0.06045378
00000000: e203 91be da02 cdbd f2e7 023e 629e 77bd

model.6._shift_and_log_scale.conv2d_1.weight f4 [4, 4, 3, 3]
-0.0095670605 -0.0020561847 -0.0012648853 0.042482615 -0.002486048 -0.0012882715 -0.010434603 0.0014624315
0.00096699886 -0.0009530704 0.006840335 0.00050690933 0.022710083 -0.009134929 -0.002059946 -0.00028501486
0.003932439 -0.0011605357 -0.018676614 0.01582601 0.00575628 -0.057889197 -0.0014463796 -0.00083584577
-0.023030702 0.00274588 0.008201452 0.003941162 -0.004336634 -0.0053113354 0.0089442525 -0.003092218
-0.010428248 0.0032842632 -0.00607015 0.006503509 -0.014725578 0.016038524 -0.000976059 0.017140863
-0.016678225 -0.0010200714 -0.0023889767 0.00044884128 0.0015809326 -0.008872132 0.0072101913 0.0012947337
0.00764685 -0.008314689 0.0007839201 0.0007618175 0.0003182059 -0.0010109717 -0.0045471606 -0.0025969357
0.007019478 -0.008028082 -0.004656291 0.020386772 0.013671168 0.002533927 -0.024390442 0.0011112111
-0.0070330184 0.006594679 -0.009250573 -0.08116422 0.08709399 0.007863487 0.08910012 -0.09312467
0.0073301564 -0.004710393 0.0042107934 -0.021352254 0.008199597 -0.004947261 0.0031678448 -0.0046472233
0.0021541875 0.00027843422 6.591543e-05 -0.0005732089 0.0018560215 0.002385149 -0.0047894088 -0.0003431884
-0.0066080727 0.005520449 -0.004301352 0.010293742 -0.005423058 0.033011273 -0.020574437 -0.0062349886
0.0088706715 0.004989725 0.013026668 -0.011220136 0.006088961 0.002622863 -0.0057936762 0.043066997
-0.037268136 -0.029913444 -0.048578132 0.03300687 0.22336732 -0.21256076 -0.046749678 -0.2131804
0.20236234 0.045113243 -0.04793537 0.046400446 -0.010151395 0.080127686 -0.07070425 -0.010623644
-0.066175506 0.053480852 0.011535845 -0.013143944 0.014510233 0.0009362279 0.017595341 0.0041053914
-0.021512378 -0.0023851523 -0.014585305 0.027437592 -0.016879559 0.004756779 7.699955e-05 0.012214472
-0.013332439 0.0046713674 -0.019302497 0.016529815 -0.008541477 0.0098448545 -0.004127763 0.004012367
00000000: 29bf 1cbc 0ec1 06bb 82ca a5ba 4002 2e3d
00000010: f7ec 22bb 38db a8ba e6f5 2abc 0faf bf3a
00000020: 327e 7d3a 79d7 79ba e424 e03b 1ce2 043a
00000030: 7f0a ba3c abaa 15bc 2900 07bb 0c6e 95b9
00000040: b0db 803b 1e1d 98ba b3ff 98bc 8ca5 813c
00000050: 2d9f bc3b 391d 6dbd 7294 bdba a91c 5bba
00000060: e2aa bcbc 39f4 333b 625f 063c dd24 813b
00000070: 531a 8ebb b60a aebb ea8a 123c cfa6 4abb
00000080: 3edb 2abc cb3c 573b 1ce8 c6bb 631b d53b
00000090: 8d43 71bc 3963 833c 36de 7fba ff6a 8c3c
000000a0: c6a0 88bc ebb3 85ba 6190 1cbb 7552 eb39
000000b0: 4c37 cf3a 6b5c 11bc 7843 ec3b 0eb4 a93a
000000c0: 6d92 fa3b 553a 08bc fd7f 4d3a b5b4 473a
000000d0: dfd4 a639 9582 84ba 5900 95bb 5a31 2abb
000000e0: a603 e63b 3788 03bc cd93 98bb 2902 a73c
000000f0: 09fd 5f3c 3e10 263b 77ce c7bc 0fa6 913a
00000100: 3c75 e6bb 2d18 d83b b78f 17bc 6d39 a6bd
00000110: 555e b23d dbd5 003c 207a b63d 26b8 bebd
00000120: cf31 f03b a459 9abb b2fa 893b ecea aebc
00000130: 9a57 063c a21c a2bb 9e9b 4f3b bc47 98bb
00000140: 452d 0d3b cffa 9139 143c 8a38 6643 16ba
00000150: bf45 f33a 2950 1c3b 79f0 9cbb f8ed b3b9
00000160: 8888 d8bb e2e4 b43b 5bf2 8cbb 15a7 283c
00000170: e8b3 b1bb d436 073d b98b a8bc e04e ccbb
00000180: 4b56 113c d980 a33b ce6d 553c a9d4 37bc
00000190: e885 c73b 57e4 2b3b e1d8 bdbb 0567 303d
000001a0: 79a6 18bd 0a0d f5bc ddf9 46bd 3632 073d
000001b0: 67ba 643e 87a9 59be 977c 3fbd f64b 5abe
000001c0: 1338 4f3e aac8 383d e157 44bd 650e 3e3d
000001d0: 0952 26bc fc19 a43d 64cd 90bd cb0e 2ebc
000001e0: 0687 87bd bd0e 5b3d d700 3d3c b259 57bc
000001f0: 54bc 6d3c 316d 753a 1b24 903c 8586 863b
00000200: ba3a b0bc 3750 1cbb 34f7 6ebc cdc4 e03c
00000210: 0047 8abc c1de 9b3b d27a a138 351f 483c
00000220: 4d70 5abc 4512 993b 4520 9ebc 8969 873c
00000230: 8df1 0bbc 504c 213c 3042 87bb 2d7a 833b

model.6._shift_and_log_scale.conv2d_1.bias f4 [4]
-0.025913808 -0.03809443 0.059417628 -0.110234156
00000000: 3249 d4bc e808 1cbd e65f 733d 72c2 e1bd

model.6._shift_and_log_scale.conv2d_2.weight f4 [4, 4, 1, 1]
0.27303824 -0.002997969 -0.04607531 -0.01609731 -0.0014495039 -0.00033460226 -0.003726047 -7.163186e-05
0.041696824 0.007015579 0.0015020802 0.031073907 0.00035388075 -0.010901799 -0.0019785014 -0.0048403083
00000000: abcb 8b3e 9379 44bb 77b9 3cbd 82de 83bc
00000010: 48fd bdba 8e6d afb9 b230 74bb 1039 96b8
00000020: 4aca 2a3d f1e2 e53b 73e1 c43a b58e fe3c
00000030: 1289 b939 769d 32bc bfa9 01bb 739b 9ebb

model.6._shift_and_log_scale.conv2d_2.bias f4 [4]
-0.070029296 0.0012188614 0.047661178 -0.12648974
00000000: 856b 8fbd 34c2 9f3a 5e38 433d 8786 01be

model.6._shift_and_log_scale.net.0.weight f4 [4, 4, 3, 3]
-0.0095670605 -0.0020561847 -0.0012648853 0.042482615 -0.002486048 -0.0012882715 -0.010434603 0.0014624315
0.00096699886 -0.0009530704 0.006840335 0.00050690933 0.022710083 -0.009134929 -0.002059946 -0.00028501486
0.003932439 -0.0011605357 -0.018676614 0.01582601 0.00575628 -0.057889197 -0.0014463796 -0.00083584577
-0.023030702 0.00274588 0.008201452 0.003941162 -0.004336634 -0.0053113354 0.0089442525 -0.003092218
-0.010428248 0.0032842632 -0.00607015 0.006503509 -0.014725578 0.016038524 -0.000976059 0.017140863
-0.016678225 -0.0010200714 -0.0023889767 0.00044884128 0.0015809326 -0.008872132 0.0072101913 0.0012947337
0.00764685 -0.008314689 0.0007839201 0.0007618175 0.0003182059 -0.0010109717 -0.0045471606 -0.0025969357
0.007019478 -0.008028082 -0.004656291 0.020386772 0.013671168 0.002533927 -0.024390442 0.0011112111
-0.0070330184 0.006594679 -0.009250573 -0.08116422 0.08709399 0.007863487 0.08910012 -0.09312467
0.0073301564 -0.004710393 0.0042107934 -0.021352254 0.008199597 -0.004947261 0.0031678448 -0.0046472233
0.0021541875 0.00027843422 6.591543e-05 -0.0005732089 0.0018560215 0.002385149 -0.0047894088 -0.0003431884
-0.0066080727 0.005520449 -0.004301352 0.010293742 -0.005423058 0.033011273 -0.020574437 -0.0062349886
0.0088706715 0.004989725 0.013026668 -0.011220136 0.006088961 0.002622863 -0.0057936762 0.043066997
-0.037268136 -0.029913444 -0.048578132 0.03300687 0.22336732 -0.21256076 -0.046749678 -0.2131804
0.20236234 0.045113243 -0.04793537 0.046400446 -0.010151395 0.080127686 -0.07070425 -0.010623644
-0.066175506 0.053480852 0.011535845 -0.013143944 0.014510233 0.0009362279 0.017595341 0.0041053914
-0.021512378 -0.0023851523 -0.014585305 0.027437592 -0.016879559 0.004756779 7.699955e-05 0.012214472
-0.013332439 0.0046713674 -0.019302497 0.016529815 -0.008541477 0.0098448545 -0.004127763 0.004012367
00000000: 29bf 1cbc 0ec1 06bb 82ca a5ba 4002 2e3d
00000010: f7ec 22bb 38db a8ba e6f5 2abc 0faf bf3a
00000020: 327e 7d3a 79d7 79ba e424 e03b 1ce2 043a
00000030: 7f0a ba3c abaa 15bc 2900 07bb 0c6e 95b9
00000040: b0db 803b 1e1d 98ba b3ff 98bc 8ca5 813c
00000050: 2d9f bc3b 391d 6dbd 7294 bdba a91c 5bba
00000060: e2aa bcbc 39f4 333b 625f 063c dd24 813b
00000070: 531a 8ebb b60a aebb ea8a 123c cfa6 4abb
00000080: 3edb 2abc cb3c 573b 1ce8 c6bb 631b d53b
00000090: 8d43 71bc 3963 833c 36de 7fba ff6a 8c3c
000000a0: c6a0 88bc ebb3 85ba 6190 1cbb 7552 eb39
000000b0: 4c37 cf3a 6b5c 11bc 7843 ec3b 0eb4 a93a
000000c0: 6d92 fa3b 553a 08bc fd7f 4d3a b5b4 473a
000000d0: dfd4 a639 9582 84ba 5900 95bb 5a31 2abb
000000e0: a603 e63b 3788 03bc cd93 98bb 2902 a73c
000000f0: 09fd 5f3c 3e10 263b 77ce c7bc 0fa6 913a
00000100: 3c75 e6bb 2d18 d83b b78f 17bc 6d39 a6bd
00000110: 555e b23d dbd5 003c 207a b63d 26b8 bebd
00000120: cf31 f03b a459 9abb b2fa 893b ecea aebc
00000130: 9a57 063c a21c a2bb 9e9b 4f3b bc47 98bb
00000140: 452d 0d3b cffa 9139 143c 8a38 6643 16ba
00000150: bf45 f33a 2950 1c3b 79f0 9cbb f8ed b3b9
00000160: 8888 d8bb e2e4 b43b 5bf2 8cbb 15a7 283c
00000170: e8b3 b1bb d436 073d b98b a8bc e04e ccbb
00000180: 4b56 113c d980 a33b ce6d 553c a9d4 37bc
00000190: e885 c73b 57e4 2b3b e1d8 bdbb 0567 303d
000001a0: 79a6 18bd 0a0d f5bc ddf9 46bd 3632 073d
000001b0: 67ba 643e 87a9 59be 977c 3fbd f64b 5abe
000001c0: 1338 4f3e aac8 383d e157 44bd 650e 3e3d
000001d0: 0952 26bc fc19 a43d 64cd 90bd cb0e 2ebc
000001e0: 0687 87bd bd0e 5b3d d700 3d3c b259 57bc
000001f0: 54bc 6d3c 316d 753a 1b24 903c 8586 863b
00000200: ba3a b0bc 3750 1cbb 34f7 6ebc cdc4 e03c
00000210: 0047 8abc c1de 9b3b d27a a138 351f 483c
00000220: 4d70 5abc 4512 993b 4520 9ebc 8969 873c
00000230: 8df1 0bbc 504c 213c 3042 87bb 2d7a 833b

model.6._shift_and_log_scale.net.0.bias f4 [4]
-0.025913808 -0.03809443 0.059417628 -0.110234156
00000000: 3249 d4bc e808 1cbd e65f 733d 72c2 e1bd

model.6._shift_and_log_scale.net.1.weight f4 [4]
0.92499983 0.5427834 0.2641312 0.59329015
00000000: cacc 6c3f daf3 0a3f 343c 873e dde1 173f

model.6._shift_and_log_scale.net.1.bias f4 [4]
-0.20749281 0.005785538 2.486517 -0.12589985
00000000: ff78 54be 9c94 bd3b 1823 1f40 e4eb 00be

model.6._shift_and_log_scale.net.1.running_mean f4 [4]
-0.04867504 -0.038065925 0.05600694 -0.11017698
00000000: 7b5f 47bd 04eb 1bbd 8867 653d 78a4 e1bd

model.6._shift_and_log_scale.net.1.running_var f4 [4]
0.00013599714 1.026878e-05 3.2878295e-05 0.00012357968
00000000: 749a 0e39 1348 2c37 cde6 0938 2b95 0139

model.6._shift_and_log_scale.net.3.weight f4 [4, 4, 1, 1]
0.27303824 -0.002997969 -0.04607531 -0.01609731 -0.0014495039 -0.00033460226 -0.003726047 -7.163186e-05
0.041696824 0.007015579 0.0015020802 0.031073907 0.00035388075 -0.010901799 -0.0019785014 -0.0048403083
00000000: abcb 8b3e 9379 44bb 77b9 3cbd 82de 83bc
00000010: 48fd bdba 8e6d afb9 b230 74bb 1039 96b8
00000020: 4aca 2a3d f1e2 e53b 73e1 c43a b58e fe3c
00000030: 1289 b939 769d 32bc bfa9 01bb 739b 9ebb

model.6._shift_and_log_scale.net.3.bias f4 [4]
-0.070029296 0.0012188614 0.047661178 -0.12648974
00000000: 856b 8fbd 34c2 9f3a 5e38 433d 8786 01be

model.6._shift_and_log_scale.net.4.weight f4 [4]
0.688599 1.0476723 0.5842431 0.6510248
00000000: 0648 303f 201a 863f f590 153f 90a9 263f

model.6._shift_and_log_scale.net.4.bias f4 [4]
0.32480788 0.29385057 0.4039374 0.31170171
00000000: 384d a63e 9573 963e e2d0 ce3e 5e97 9f3e

model.6._shift_and_log_scale.net.4.running_mean f4 [4]
-0.116402514 -0.008695526 0.066875644 -0.1330067
00000000: 7164 eebd ae77 0ebc 19f6 883d e932 08be

model.6._shift_and_log_scale.net.4.running_var f4 [4]
0.01797106 1.2173791e-06 0.0005416701 7.516273e-06
00000000: 0b38 933c d464 a335 ddfe 0d3a 4b34 fc36

model.6._shift_and_log_scale.conv2d_3.weight f4 [4, 5, 3, 3]
0.00039605398 0.0013618501 0.020901872 0.015129928 -0.026183167 -0.054596502 -0.0030046874 -0.027193876
0.019681688 -0.019093774 0.04825963 0.049576804 0.0075247213 -0.045102194 -0.0006880633 -0.0052038818
-0.022268452 -0.014486487 -0.0084163295 0.002404273 0.0017596493 -0.010007866 0.02360561 0.02905892
-0.009963407 0.041327506 -0.025217684 0.08125141 -0.052539255 0.046808105 -0.0064081545 0.03522986
0.027190372 0.041347425 0.001188678 0.031662196 0.13859148 0.050191976 -0.092174105 0.08525242
0.0 0.01382768 -0.031804856 -0.0016719477 0.08551587 0.0028709006 0.0027273134 -0.009493648
0.009174822 -0.019555382 -0.09385116 -0.035660688 -0.014416738 0.014325074 0.0050359666 -0.015897652
-0.027148811 -0.02329602 -0.08007362 0.045679145 -0.021380622 0.027577799 -0.041486092 0.009718351
-0.0035007882 0.056749 -0.009993849 0.012893935 0.0058455816 0.04809227 0.03482906 0.010018867
-0.06796438 -0.030706346 -0.0067640105 0.033764172 0.017967371 0.024283731 -0.009465302 -0.0047658933
-0.031958573 -0.083864324 0.00081592303 0.034977213 0.06364996 0.0 0.099583924 0.027254364
0.16170247 -0.13653888 0.009942187 0.033093713 0.060585078 0.010614032 -0.020298308 0.055400334
0.002332493 -0.0149206 0.021169664 0.135022 0.35672057 0.50922424 0.11673663 -0.13699608
0.20891263 0.024112254 6.133015e-05 0.25406957 0.0032441411 0.00486188 0.017162811 0.0051520104
-0.012606097 0.011381634 -0.003911786 0.0015646704 0.025854826 -0.022089103 -0.014391493 -0.0050149504
-0.01904756 0.052292954 0.049398284 -0.04543783 0.012841121 0.015205118 -0.18406405 0.17846131
-0.046904642 -0.027492488 0.0 0.10181073 0.039540906 -0.093321025 0.07319294 -0.013404827
-0.040934708 -0.05228279 -0.017173069 -0.017315457 -0.15648606 -0.0212002 -0.028962439 -0.030578604
0.05971707 0.01471288 0.01293767 0.028697567 0.095992476 -0.0048710816 0.016229505 -0.022152442
0.07033351 0.032068998 0.021718051 0.024156554 0.01429626 0.03382677 0.008744115 0.022819879
-0.0051286635 0.036669336 -0.0028653773 0.08807614 -0.0077192653 0.012044802 0.09465884 0.030458758
-0.028499698 0.066155225 0.0015005635 -0.001493125 -0.06064432 -0.055177834 -0.044075605 0.0
-0.03087461 0.13211025 -0.00039808117 -0.047094103
00000000: 77a5 cf39 1b80 b23a 673a ab3c 84e3 773c
00000010: 157e d6bc 95a0 5fbd 4aea 44bb b1c5 debc
00000020: 7e3b a13c 8c6a 9cbc e4ab 453d 0c11 4b3d
00000030: f091 f63b 14bd 38bd 255f 34ba 5385 aabb
00000040: 546c b6bc bb58 6dbc a5e4 09bc 0291 1d3b
00000050: 08a4 e63a 08f8 23bc 8d60 c13c f90c ee3c
00000060: 8f3d 23bc 0847 293d 5195 cebc 2467 a63d
00000070: 6733 57bd dbb9 3f3d 7ffb d1bb 304d 103d
00000080: 58be de3c eb5b 293d 6acd 9b3a 38b0 013d
00000090: edea 0d3e 1a96 4d3d c7c5 bcbd d298 ae3d
000000a0: 0000 0000 7e8d 623c cf45 02bd 4125 dbba
000000b0: f222 af3d b825 3c3b babc 323b 3f8b 1bbc
000000c0: fe51 163c 9c32 a0bc 0935 c0bd f110 12bd
000000d0: 2f34 6cbc b7b3 6a3c c004 a53b cb3b 82bc
000000e0: 2f67 debc 4cd7 bebc a3fd a3bd 0e1a 3b3d
000000f0: 6a26 afbc d6ea e13c 52ed 29bd b839 1f3c
00000100: 7b6d 65bb a471 683d 3ebd 23bc 1541 533c
00000110: 4b8c bf3b 66fc 443d eba8 0e3d 2d26 243c
00000120: e930 8bbd e08b fbbc a2a4 ddbb 4d4c 0a3d
00000130: 4f30 933c adee c63c 5b14 1bbc 362b 9cbb
00000140: fee6 02bd 0fc1 abbd abe3 553a 4444 0f3d
00000150: e95a 823d 0000 0000 a8f2 cb3d 8b44 df3c
00000160: 5595 253e d9d0 0bbe 8ee4 223c 468d 073d
00000170: 0f28 783d 7ae6 2d3c a348 a6bc 76eb 623d
00000180: bddc 183b 8875 74bc 016c ad3c 3543 0a3e
00000190: 14a4 b63e 855c 023f 9d13 ef3d b348 0cbe
000001a0: 31ed 553e 1087 c53c 609e 8038 6815 823e
000001b0: a89b 543b 6850 9f3b 0699 8c3c 32d2 a83b
000001c0: ce89 4ebc 087a 3a3c 702e 80bb a015 cd3a
000001d0: 80cd d33c 35f4 b4bc 4cca 6bbc 7454 a4bb
000001e0: a109 9cbc 2331 563d db55 4a3d 051d 3abd
000001f0: 9163 523c e31e 793c 497b 3cbe 90be 363e
00000200: 151f 40bd ed37 e1bc 0000 0000 2582 d03d
00000210: a5f5 213d 181f bfbd 2ee6 953d eb9f 5bbc
00000220: 27ab 27bd 7b26 56bd 89ae 8cbc 25d9 8dbc
00000230: e23d 20be 0bac adbc a342 edbc fb7f fabc
00000240: e399 743d 4b0e 713c 85f8 533c 2917 eb3c
00000250: b497 c43d 989d 9fbb bdf3 843c 0a79 b5bc
00000260: 040b 903d c85a 033d 0eea b13c f7e3 c53c
00000270: dc3a 6a3c f08d 0a3d 7a43 0f3c c1f0 ba3c
00000280: 590e a8bb 9632 163d 0ec9 3bbb 4361 b43d
00000290: e4f1 fcbb 9057 453c 7edc c13d a584 f93c
000002a0: 3378 e9bc 647c 873d 8eae c43a f6b4 c3ba
000002b0: 2e66 78bd 2702 62bd 9f88 34bd 0000 0000
000002c0: c0ec fcbc e947 073e 8db5 d0b9 bfe5 40bd

model.6._shift_and_log_scale.conv2d_3.bias f4 [4]
-0.053490654 -0.0023089712 0.113003194 0.25158057
00000000: 0419 5bbd 1c52 17bb 386e e73d 2bcf 803e

model.6._encoder.initial_layer.weight f4 [5, 10]
-0.37620464 0.12361392 -0.1370065 0.14541951 0.26069316 -0.13882206 -0.08473264 -0.11695539
0.15024355 -0.191028 -0.3793105 -0.24911414 0.04813104 -0.20814978 0.16255039 -0.24204297
-0.30342096 -0.2159278 0.038635425 -0.31487164 -0.17461242 -0.03591619 -0.13298011 0.28051054
-0.24312322 0.034077752 -0.38098708 0.050898053 0.2542936 -0.349599 -0.37349436 -0.19937383
0.021637151 -0.04790455 0.2628399 0.24111766 0.024358366 0.0325238 -0.22363134 -0.24933729
-0.39604768 0.16587836 -0.230554 -0.0016563942 -0.26136547 -0.22206058 -0.13066046 -0.15088078
0.012060989 -0.12522545
00000000: e59d c0be 4b29 fd3d 6f4b 0cbe dae8 143e
00000010: 9379 853e 5f27 0ebe 4e88 adbd 4f86 efbd
00000020: 72d9 193e d89c 43be fc34 c2be c717 7fbe
00000030: 0e25 453d 3725 55be 9c73 263e 1dda 77be
00000040: fe59 9bbe 2d1c 5dbe 2e40 1e3d db36 a1be
00000050: 99cd 32be db1c 13bd f02b 08be 149f 8f3e
00000060: 4bf5 78be 1d95 0b3d bd10 c3be 7a7a 503d
00000070: c532 823e a4fe b2be a73a bfbe a728 4cbe
00000080: 6540 b13c 9037 44bd f492 863e 8ce7 763e
00000090: 328b c73c ad37 053d 9dff 64be 4652 7fbe
000000a0: c3c6 cabe 04dc 293e 5916 6cbe 5e1b d9ba
000000b0: b2d1 85be d963 63be dbcb 05be 7e80 1abe
000000c0: 749b 453c 1a3b 00be

model.6._encoder.initial_layer.bias f4 [5]
-0.465131 -0.21818647 -0.5181044 -0.26461586 -0.4035407
00000000: a725 eebe 466c 5fbe 7da2 04bf bb7b 87be
00000010: e39c cebe

model.6._encoder.blocks.0.batch_norm_layers.0.weight f4 [5]
1.0 1.0 1.0 1.0 1.0
00000000: 0000 803f 0000 803f 0000 803f 0000 803f
00000010: 0000 803f

model.6._encoder.blocks.0.batch_norm_layers.0.bias f4 [5]
0.0 0.0 0.0 0.0 0.0
00000000: 0000 0000 0000 0000 0000 0000 0000 0000
00000010: 0000 0000

model.6._encoder.blocks.0.batch_norm_layers.0.running_mean f4 [5]
-0.9257805 -0.9008698 -1.0734453 -0.6137646 -0.9301739
00000000: f3ff 6cbf 679f 66bf a866 89bf ad1f 1dbf
00000010: e01f 6ebf

model.6._encoder.blocks.0.batch_norm_layers.0.running_var f4 [5]
6e-45 6e-45 6e-45 6e-45 6e-45
00000000: 0400 0000 0400 0000 0400 0000 0400 0000
00000010: 0400 0000

model.6._encoder.blocks.0.batch_norm_layers.1.weight f4 [5]
1.0 1.0 1.0 1.0 1.0
00000000: 0000 803f 0000 803f 0000 803f 0000 803f
00000010: 0000 803f

model.6._encoder.blocks.0.batch_norm_layers.1.bias f4 [5]
0.0 0.0 0.0 0.0 0.0
00000000: 0000 0000 0000 0000 0000 0000 0000 0000
00000010: 0000 0000

model.6._encoder.blocks.0.batch_norm_layers.1.running_mean f4 [5]
-0.42480445 -0.39453095 0.44018543 -0.21325666 -0.080688395
00000000: f87f d9be f6ff c9be fc5f e13e f45f 5abe
00000010: f53f a5bd

model.6._encoder.blocks.0.batch_norm_layers.1.running_var f4 [5]
6e-45 6e-45 6e-45 6e-45 6e-45
00000000: 0400 0000 0400 0000 0400 0000 0400 0000
00000010: 0400 0000

model.6._encoder.blocks.0.linear_layers.0.weight f4 [5, 5]
0.31319562 0.39108047 0.3884156 0.020117555 0.26371875 -0.44682825 -0.26233292 0.07992745
0.002494096 -0.3510953 -0.19794191 -0.20887296 -0.44308227 0.042651106 0.30486283 0.18150763
-0.21248591 -0.41066068 -0.36080164 0.008295456 0.3076442 -0.18110923 -0.24334903 -0.23856898
-0.038714703
00000000: 2d5b a03e b33b c83e 69de c63e 92cd a43c
00000010: 2506 873e acc6 e4be 8050 86be 01b1 a33d
00000020: fd73 233b c3c2 b3be 49b1 4abe cbe2 55be
00000030: aedb e2be edb2 2e3d fb16 9c3e 23dd 393e
00000040: e895 59be 1e42 d2be feba b8be aae9 073c
00000050: 8a83 9d3e b374 39be 7d30 79be 6d4b 74be
00000060: 4f93 1ebd

model.6._encoder.blocks.0.linear_layers.0.bias f4 [5]
-0.4246985 -0.39464116 0.44023287 -0.21328335 -0.08066108
00000000: 1572 d9be 680e cabe 3466 e13e f366 5abe
00000010: a331 a5bd

model.6._encoder.blocks.0.linear_layers.1.weight f4 [5, 5]
0.0009982185 0.0009166135 -0.0005175395 -0.0008509027 -0.0009012883 -0.00048155978 0.0008407866 0.00033584965
0.0009648532 0.0007412209 1.4497638e-05 -0.00061977544 0.0009765007 0.00080217124 0.000432943 -0.0005462635
0.00078777934 9.1015936e-05 0.0006612339 0.00041736677 0.0005310084 -0.000877476 -0.0005544812 0.0005997715
-0.00020833588
00000000: a8d6 823a e448 703a 7dab 07ba 1d0f 5fba
00000010: 6f44 6cba dc79 fcb9 3c68 5c3a fa14 b039
00000020: 34ee 7c3a 7e4e 423a e23a 7337 6d78 22ba
00000030: dafb 7f3a cd48 523a a0fc e239 1f33 0fba
00000040: fa82 4e3a cfdf be38 a856 2d3a 05d2 da39
00000050: 5f33 0b3a 6b06 66ba 9a5a 11ba fc39 1d3a
00000060: bd74 5ab9

model.6._encoder.blocks.0.linear_layers.1.bias f4 [5]
-0.33395436 -0.3295253 -0.34395325 -0.32933185 -0.33213302
00000000: 11fc aabe 8ab7 a8be a41a b0be 2f9e a8be
00000010: 570d aabe

model.6._encoder.blocks.1.batch_norm_layers.0.weight f4 [5]
1.0 1.0 1.0 1.0 1.0
00000000: 0000 803f 0000 803f 0000 803f 0000 803f
00000010: 0000 803f

model.6._encoder.blocks.1.batch_norm_layers.0.bias f4 [5]
0.0 0.0 0.0 0.0 0.0
00000000: 0000 0000 0000 0000 0000 0000 0000 0000
00000010: 0000 0000

model.6._encoder.blocks.1.batch_norm_layers.0.running_mean f4 [5]
-1.2597644 -1.2304506 -1.417195 -0.94335 -1.2617174
00000000: f63f a1bf 687f 9dbf a566 b5bf 637f 71bf
00000010: f57f a1bf

model.6._encoder.blocks.1.batch_norm_layers.0.running_var f4 [5]
6e-45 6e-45 6e-45 6e-45 6e-45
00000000: 0400 0000 0400 0000 0400 0000 0400 0000
00000010: 0400 0000

model.6._encoder.blocks.1.batch_norm_layers.1.weight f4 [5]
1.0 1.0 1.0 1.0 1.0
00000000: 0000 803f 0000 803f 0000 803f 0000 803f
00000010: 0000 803f

model.6._encoder.blocks.1.batch_norm_layers.1.bias f4 [5]
0.0 0.0 0.0 0.0 0.0
00000000: 0000 0000 0000 0000 0000 0000 0000 0000
00000010: 0000 0000

model.6._encoder.blocks.1.batch_norm_layers.1.running_mean f4 [5]
-0.09661862 -0.04150388 -0.1618651 0.38183576 -0.06603998
00000000: fcdf c5bd f9ff 29bd f7bf 25be fa7f c33e
00000010: f83f 87bd

model.6._encoder.blocks.1.batch_norm_layers.1.running_var f4 [5]
6e-45 6e-45 6e-45 6e-45 6e-45
00000000: 0400 0000 0400 0000 0400 0000 0400 0000
00000010: 0400 0000

model.6._encoder.blocks.1.linear_layers.0.weight f4 [5, 5]
0.15397288 -0.16845135 -0.18819435 -0.093275234 -0.16553429 0.24505523 -0.08497018 0.33908525
0.10204661 -0.069101326 -0.25831032 -0.4095014 -0.13046217 -0.4141339 -0.08285556 0.007309397
-0.028820155 -0.21967888 0.3103947 0.2518617 -0.110183194 -0.1766967 0.28115878 0.3890867
-0.409486
00000000: 11ab 1d3e 837e 2cbe 05b6 40be 1607 bfbd
00000010: d281 29be c2ef 7a3e d904 aebd 959c ad3e
00000020: d0fd d03d ff84 8dbd 4041 84be 2baa d1be
00000030: e097 05be 5c09 d4be 2db0 a9bd ab83 ef3b
00000040: 3f18 ecbc 80f3 60be 0eec 9e3e 04f4 803e
00000050: baa7 e1bd fbef 34be 0bf4 8f3e 5f36 c73e
00000060: 26a8 d1be

model.6._encoder.blocks.1.linear_layers.0.bias f4 [5]
-0.09662461 -0.04150239 -0.16191855 0.3817903 -0.06605855
00000000: 20e3 c5bd 69fe 29bd facd 25be 057a c33e
00000010: b449 87bd

model.6._encoder.blocks.1.linear_layers.1.weight f4 [5, 5]
-0.00042496802 -0.0009781506 0.0005417048 -0.0005674093 -0.00016694774 -0.00083848194 -0.00056415825 0.00041715993
-0.000931727 -0.0005702397 0.0007497303 -0.0005128488 -0.00041615596 -0.00028077376 0.00042745913 -0.00065596966
0.00010026539 0.0004084027 -7.259322e-05 0.00018081868 -0.0007628476 0.00045209946 0.00037372948 -0.00012543214
-0.0008268704
00000000: 3ece deb9 4a35 80ba 3201 0e3a 32be 14ba
00000010: b10e 2fb9 92cd 5bba 05e4 13ba 42b6 da39
00000020: 243f 74ba 237c 15ba 8c89 443a b370 06ba
00000030: 822f dab9 d134 93b9 981c e039 61f5 2bba
00000040: 9245 d238 e21e d639 303d 98b8 259a 3d39
00000050: d6f9 47ba c307 ed39 1ff1 c339 6f86 03b9
00000060: 55c2 58ba

model.6._encoder.blocks.1.linear_layers.1.bias f4 [5]
-0.3326838 -0.32978255 -0.34410673 -0.32966682 -0.33097982
00000000: 8855 aabe 42d9 a8be c22e b0be 17ca a8be
00000010: 3076 a9be

model.6._encoder.blocks.2.batch_norm_layers.0.weight f4 [5]
1.0 1.0 1.0 1.0 1.0
00000000: 0000 803f 0000 803f 0000 803f 0000 803f
00000010: 0000 803f

model.6._encoder.blocks.2.batch_norm_layers.0.bias f4 [5]
0.0 0.0 0.0 0.0 0.0
00000000: 0000 0000 0000 0000 0000 0000 0000 0000
00000010: 0000 0000

model.6._encoder.blocks.2.batch_norm_layers.0.running_mean f4 [5]
-1.5926859 -1.5605114 -1.7609456 -1.2734197 -1.5927722
00000000: 22dd cbbf d6be c7bf aa66 e1bf 6bff a2bf
00000010: f6df cbbf

model.6._encoder.blocks.2.batch_norm_layers.0.running_var f4 [5]
6e-45 6e-45 6e-45 6e-45 6e-45
00000000: 0400 0000 0400 0000 0400 0000 0400 0000
00000010: 0400 0000

model.6._encoder.blocks.2.batch_norm_layers.1.weight f4 [5]
1.0 1.0 1.0 1.0 1.0
00000000: 0000 803f 0000 803f 0000 803f 0000 803f
00000010: 0000 803f

model.6._encoder.blocks.2.batch_norm_layers.1.bias f4 [5]
0.0 0.0 0.0 0.0 0.0
00000000: 0000 0000 0000 0000 0000 0000 0000 0000
00000010: 0000 0000

model.6._encoder.blocks.2.batch_norm_layers.1.running_mean f4 [5]
-0.04922484 -0.34741202 -0.0016260138 0.00063466973 -0.3864745
00000000: fc9f 49bd fddf b1be f81f d5ba f75f 263a
00000010: fcdf c5be

model.6._encoder.blocks.2.batch_norm_layers.1.running_var f4 [5]
6e-45 6e-45 6e-45 6e-45 6e-45
00000000: 0400 0000 0400 0000 0400 0000 0400 0000
00000010: 0400 0000

model.6._encoder.blocks.2.linear_layers.0.weight f4 [5, 5]
-0.17887093 -0.031045718 0.4451736 0.0021113157 -0.35603276 -0.032614533 0.22248548 -0.14598109
-0.2341984 0.36840484 0.23658124 -0.07597841 0.022847664 -0.047298525 0.1038276 0.015893752
-0.27062458 0.08285716 0.011696762 0.02891393 -0.1704277 0.114586234 -0.36163753 0.13368249
0.24234207
00000000: f129 37be 9753 febc cbed e33e 005e 0a3b
00000010: ed49 b6be d196 05bd 3cd3 633e 117c 15be
00000020: b5d1 6fbe 8f9f bc3e 5a42 723e 929a 9bbd
00000030: 062b bb3c 19bc 41bd 91a3 d43d 9d33 823c
00000040: 4e8f 8abe 04b1 a93d c7a3 3f3c e8dc ec3c
00000050: 9984 2ebe 30ac ea3d 8e28 b9be 10e4 083e
00000060: 8528 783e

model.6._encoder.blocks.2.linear_layers.0.bias f4 [5]
-0.04921728 -0.3473956 -0.0016256965 0.00063483947 -0.38648412
00000000: 0f98 49bd d6dd b1be 5315 d5ba 5b6b 263a
00000010: 3fe1 c5be

model.6._encoder.blocks.2.linear_layers.1.weight f4 [5, 5]
-0.0007161185 -0.000658662 0.00046886972 0.00076037686 8.140707e-05 -0.000502285 0.00048287443 0.00017440546
-0.00087547937 -0.000648045 0.00021887686 0.00061877444 -0.0003212638 0.0004835335 -0.0006193128 0.00095693365
0.00071254413 0.00018730725 0.00044489256 0.0003481568 -0.0005900972 -8.719921e-06 0.00026666047 -0.00022571422
0.0009589454
00000000: e6b9 3bba 0faa 2cba a1d2 f539 0754 473a
00000010: 17b9 aa38 c7ab 03ba 4f2a fd39 9ce0 3639
00000020: 6d80 65ba 90e1 29ba 4f82 6539 4035 223a
00000030: 4c6f a8b9 c582 fd39 6159 22ba bbda 7a3a
00000040: 07ca 3a3a e867 4439 7840 e939 d188 b639
00000050: c1b0 1aba c74b 12b7 90ce 8b39 b3ad 6cb9
00000060: bd61 7b3a

model.6._encoder.blocks.2.linear_layers.1.bias f4 [5]
-0.33346954 -0.33132762 -0.34440863 -0.3310666 -0.3305268
00000000: 85bc aabe c6a3 a9be 5456 b0be 9081 a9be
00000010: cf3a a9be

model.6._encoder.final_layer.weight f4 [1, 5]
-0.5244576 -0.60054773 -0.3911881 -0.5830431 -0.51378196
00000000: da42 06bf 7fbd 19bf cf49 c8be 5042 15bf
00000010: 3787 03bf
