sRGB_noise_modeling/experiments/basler/our_model/saved_models/epoch_240_noise_model_net.pth (torch, 500346 bytes, 1152 tensors)

model.2.log_scale f4 [25, 3]
00000000: d3e9 d53d 8d26 283e 1e2b cc3d b221 033f
00000010: 2ace 203f bcbd ca3d 10e0 8b3e 26d5 843e
00000020: 32b3 b63e 55ff 013f 765e dd3e 8e4e b73e
00000030: 4c17 1c3e 0e71 913e f9be 113e ed69 9e3d
00000040: d7d4 153e 199b fbba 0000 0000 0000 0000
00000050: 0000 0000 3cbd fabd 1d97 6dbd b0d4 7f3d
00000060: 0000 0000 0000 0000 0000 0000 0000 0000
00000070: 0000 0000 0000 0000 4a14 0fbd a1a5 3d3d
00000080: 792a a83c 9ff0 33bd ad50 4f3e a61c 4f3d
00000090: c3ad a9be 13e9 a2be 90d6 c9bd 529b ccbc
000000a0: 5ea1 aa3d 3024 19bd 13c5 06be 0e56 23be
000000b0: 46b1 a5bd cbd9 823d 9148 ac3d 1bd1 af3d
000000c0: 0000 0000 0000 0000 0000 0000 4101 d1be
000000d0: 8d8a e2be 3fe5 51be 0000 0000 0000 0000
000000e0: 0000 0000 0000 0000 0000 0000 0000 0000
000000f0: 0000 0000 0000 0000 0000 0000 0000 0000
00000100: 0000 0000 0000 0000 ad13 22bf 4608 2ebf
00000110: 22cc 9abe 0000 0000 0000 0000 0000 0000
00000120: 0000 0000 0000 0000 0000 0000
0.10444989 0.16420956 0.099691615 0.5122329 0.6281458 0.0989947 0.27319384 0.2594387
0.3568359 0.5078023 0.4323613 0.3580212 0.15243262 0.28406566 0.14233007 0.077350475
0.14631973 -0.0019196003 0.0 0.0 0.0 -0.12243125 -0.05800544 0.062458694
0.0 0.0 0.0 0.0 0.0 0.0 -0.03493146 0.046300534
0.020528065 -0.043930646 0.20245619 0.05056443 -0.33140382 -0.31818447 -0.09855378 -0.024976406
0.083315596 -0.037388027 -0.13161115 -0.15950796 -0.08090453 0.06389197 0.084122784 0.085848056
0.0 0.0 0.0 -0.4082127 -0.4424633 -0.20497607 0.0 0.0
0.0 0.0 0.0 0.0 0.0 0.0 0.0 0.0
0.0 0.0 -0.6331127 -0.67981374 -0.30233866 0.0 0.0 0.0
0.0 0.0 0.0

model.2.bias f4 [25, 3]
00000000: 4aba da3c 709e 47bc 9f28 92ba 0314 7d3c
00000010: 6cc4 dbbc 02a7 17bc 8b2f 843c fdcf 56bc
00000020: 773a 8b3b 120d ef3c 10e5 8cbc 49e8 363c
00000030: 5cd4 c53c dd77 85bc 5626 5c3c d7de 543c
00000040: 7c4e 56bc a0f2 38bc 0000 0000 0000 0000
00000050: 0000 0000 47f0 ce3c 6221 0ebc a36e 75bb
00000060: 0000 0000 0000 0000 0000 0000 0000 0000
00000070: 0000 0000 0000 0000 61b7 943c 31c4 07bc
00000080: 0a35 7bbc bee2 fd3c 2f1f 7dbc 5692 203c
00000090: 17af bd3c 18b6 8ebc 3c91 373b 32f3 253d
000000a0: 4e33 90bc cdf6 883b 453e ef3c 46b0 a1bc
000000b0: e6eb 633c b380 a13c c7da abbc 6b9c bfb9
000000c0: 0000 0000 0000 0000 0000 0000 51f9 a13c
000000d0: 22f9 67bc ce38 b8bb 0000 0000 0000 0000
000000e0: 0000 0000 0000 0000 0000 0000 0000 0000
000000f0: 0000 0000 0000 0000 0000 0000 0000 0000
00000100: 0000 0000 0000 0000 891d 6d3c b1a0 aebc
00000110: 83bb bebc 0000 0000 0000 0000 0000 0000
00000120: 0000 0000 0000 0000 0000 0000
0.026700158 -0.012183771 -0.0011151022 0.015446666 -0.02682706 -0.009256126 0.016135952 -0.013111112
0.004248913 0.029181037 -0.01719907 0.01116378 0.024149112 -0.016292507 0.013436874 0.012992582
-0.013080236 -0.011288315 0.0 0.0 0.0 0.025261058 -0.008674951 -0.0037449978
0.0 0.0 0.0 0.0 0.0 0.0 0.018153848 -0.008286522
-0.01533247 0.030991908 -0.015449329 0.009800514 0.023154778 -0.017420813 0.002801015 0.040515132
-0.017602589 0.0041798116 0.029204497 -0.019737374 0.013911223 0.019714689 -0.020978345 -0.000365469
0.0 0.0 0.0 0.019772204 -0.014158519 -0.005622006 0.0 0.0
0.0 0.0 0.0 0.0 0.0 0.0 0.0 0.0
0.0 0.0 0.014472374 -0.021316858 -0.023282772 0.0 0.0 0.0
0.0 0.0 0.0

model.3.log_s f4 [3]
00000000: 395e 1cbe 17a1 c83e c03a e13e
-0.15270318 0.39185402 0.43990135

model.3.u f4 [3, 3]
00000000: 0000 0000 79fe 3bbf 6e7e 1ebe 0000 0000
00000010: 0000 0000 ec03 213e 0000 0000 0000 0000
00000020: 0000 0000
0.0 -0.7343517 -0.15477917 0.0 0.0 0.15724152 0.0 0.0
0.0

model.3.sign_s f4 [3]
00000000: 0000 80bf 0000 803f 0000 803f
-1.0 1.0 1.0

model.4._shift_and_log_scale.logs f4 [1, 4, 1, 1]
00000000: 5a09 63be b52d 18bf 08b6 f73d c2a2 293f
-0.22171536 -0.59444743 0.120952666 0.66263974

model.4._shift_and_log_scale.conv2d_1.weight f4 [4, 4, 3, 3]
00000000: 02b6 48ba 5cd1 f7bb 8000 13b9 3624 05bc
00000010: 26a5 e53d 87f8 22bc 7386 2b3a e8b3 2cbc
00000020: 3a12 87ba a006 f9b9 7e02 e2b9 6206 b63a
00000030: 49b4 153b ed49 94bc be3f c939 d248 3fba
00000040: 3582 bb39 ec53 833a 5a02 663b 1faf 09bc
00000050: 6ca9 723b 7608 ccbb 72ad c73c 8984 21bc
00000060: 4fe9 1e3b 90de 06bc f306 a53b 748b d339
00000070: 67b8 5cba 47d0 783a 47cc 7cba 35e4 953a
00000080: cd54 93ba e800 ac39 91dd cbba 867a 963a
00000090: a3fa 623b c252 663c 872b ca3a f0d5 313c
000000a0: 2fcf 05be b0da 7f3c 048d a6bb dc2a a33c
000000b0: 152f 81b9 44c0 973a 5464 f8ba 854e 45bb
000000c0: 6853 dabb fb87 503c c67d aebb ba09 07b9
000000d0: 6341 acba f0a6 3bbb f1bd 32bb fc30 063c
000000e0: 65e0 8bbb 6e26 de3b e9ca a9bb 3d1c 5e3c
000000f0: 2242 29bb 337f 3c3c 644f 0fbc 5985 0d3a
00000100: c25d 29bb 27bf 203b 67f6 94ba 100e 6c3a
00000110: a28b 94bb d0c8 d83a d342 05bb 058e 303b
00000120: 1b20 a8bb 1908 2c3b 9721 9d3a 4d9b 8cba
00000130: b3fe 623c dd6d efbb 5c5f 31bb 9b63 d03b
00000140: a7b7 96bb bf46 70bd fe72 c43d d618 0fbd
00000150: a079 c13d 48db 1dbe 3b44 bb3d 1520 c8bc
00000160: 4bb0 4a3d d6ff e1bc 6973 03bd 14e2 933d
00000170: 3388 1ebd 81fa ca3c f28d 1b3c a9b4 61bd
00000180: 7fd9 07bc fb7d 813d d7b2 41bd 55f4 e4ba
00000190: 6311 543c a4a2 b2bc 9a2c b4bb 26a8 003d
000001a0: 1b83 2abd ebb3 9ebb 06ec 123c 951e 94bc
000001b0: e49d cfba 17f3 02bc 7432 b0bb 8714 67bc
000001c0: 7c94 813e 7bbd babc 35e7 25bb 17bd 69bb
000001d0: b19c 2ebc 57ed a23c 254a 9abd 8997 f63c
000001e0: 3967 acbd dbde 9d3e 5ad7 a7bd 68bd 983c
000001f0: 425a 73bd bddd 633c 89d0 503d c3c6 d1bd
00000200: 1024 613d 64c6 a9bd c121 193e 4f97 eabd
00000210: 5b07 3a3d c438 c4bd b728 5f3d 45d9 81bb
00000220: 7c75 983a a38c 8c3a ce2a d93b 0bf6 b13b
00000230: 319f f0bb 5d9f 92bb b901 f53a b0e0 853b
-0.0007656516 -0.0075627994 -0.00014019199 -0.008126309 0.1121314 -0.009946949 0.0006543167 -0.01054094
-0.0010305115 -0.00047497917 -0.00043107936 0.00138874 0.0022843054 -0.018101657 0.000383852 -0.0007296923
0.0003576443 0.0010019518 0.0035096616 -0.0084035685 0.0037027253 -0.0062265946 0.024374697 -0.009858259
0.002424795 -0.008231774 0.005036229 0.00040348957 -0.0008419812 0.0009491485 -0.0009643477 0.0011435809
-0.0011240483 0.00032807072 -0.0015553703 0.0011480607 0.0034634254 0.014057817 0.0015424349 0.010854229
-0.13067316 0.015616104 -0.0050827283 0.019917898 -0.00024639876 0.0011577685 -0.0018950799 -0.0030106616
-0.006662775 0.012727733 -0.005325052 -0.00012878227 -0.0013142045 -0.0028633438 -0.0027273858 0.00819039
-0.0042686933 0.0067794835 -0.0051816595 0.013556537 -0.0025826772 0.011504936 -0.008746956 0.00053985935
-0.0025843238 0.0024527998 -0.0011364938 0.0009004781 -0.004533247 0.0016539339 -0.002033402 0.002694012
-0.0051307804 0.0026249944 0.001198816 -0.0010727436 0.01385467 -0.007306798 -0.0027064895 0.00635953
-0.00459953 -0.05866122 0.095922455 -0.034935795 0.09447026 -0.1541568 0.09143873 -0.02442936
0.049484532 -0.027587812 -0.032092486 0.07220855 -0.03870411 0.024777653 0.009494292 -0.05510393
-0.008291601 0.06322857 -0.047289696 -0.0017467836 0.012943598 -0.021806069 -0.005498481 0.03141036
-0.04162894 -0.0048432252 0.008967405 -0.018080989 -0.0015839902 -0.007992527 -0.005377108 -0.014104015
0.25308597 -0.02279543 -0.0025314812 -0.0035665685 -0.010657475 0.019888563 -0.07533673 0.030101554
-0.08418126 0.30834088 -0.08195372 0.018645003 -0.05941225 0.013907847 0.050980125 -0.10242989
0.054966033 -0.08289793 0.14954282 -0.11454641 0.04541717 -0.0958114 0.054482188 -0.003962668
0.0011631693 0.0010723065 0.006627417 0.005430942 -0.007343196 -0.004474564 0.001869253 0.0040856227

model.4._shift_and_log_scale.conv2d_1.bias f4 [4]
00000000: 4337 73bd d9e3 cab7 27ba 5c3d 76a6 103e
-0.059378874 -2.4186376e-05 0.053888466 0.14126

model.4._shift_and_log_scale.conv2d_2.weight f4 [4, 4, 1, 1]
00000000: 8de1 c93d ffa2 05bd 7e1b 203b 305a 1cbc
00000010: ecb7 eebc 36d2 30ba e158 a63c 5101 f1bd
00000020: 836e 07bd 0a75 4c3c e43f a9bd e371 403d
00000030: 7ccf f6bd 0fce 743d 7aef fdbb 2a31 ae3b
0.098574735 -0.03262615 0.002443045 -0.009542987 -0.029140435 -0.0006745191 0.020306053 -0.11767829
-0.033064377 0.012479076 -0.08264139 0.04698361 -0.12051293 0.059766825 -0.007749495 0.0053159194

model.4._shift_and_log_scale.conv2d_2.bias f4 [4]
00000000: b7ec 2f3b 4722 903d 10ba 383d 642a c23d
0.0026843974 0.07037788 0.045099318 0.094807416

model.4._shift_and_log_scale.net.0.weight f4 [4, 4, 3, 3]
00000000: 02b6 48ba 5cd1 f7bb 8000 13b9 3624 05bc
00000010: 26a5 e53d 87f8 22bc 7386 2b3a e8b3 2cbc
00000020: 3a12 87ba a006 f9b9 7e02 e2b9 6206 b63a
00000030: 49b4 153b ed49 94bc be3f c939 d248 3fba
00000040: 3582 bb39 ec53 833a 5a02 663b 1faf 09bc
00000050: 6ca9 723b 7608 ccbb 72ad c73c 8984 21bc
00000060: 4fe9 1e3b 90de 06bc f306 a53b 748b d339
00000070: 67b8 5cba 47d0 783a 47cc 7cba 35e4 953a
00000080: cd54 93ba e800 ac39 91dd cbba 867a 963a
00000090: a3fa 623b c252 663c 872b ca3a f0d5 313c
000000a0: 2fcf 05be b0da 7f3c 048d a6bb dc2a a33c
000000b0: 152f 81b9 44c0 973a 5464 f8ba 854e 45bb
000000c0: 6853 dabb fb87 503c c67d aebb ba09 07b9
000000d0: 6341 acba f0a6 3bbb f1bd 32bb fc30 063c
000000e0: 65e0 8bbb 6e26 de3b e9ca a9bb 3d1c 5e3c
000000f0: 2242 29bb 337f 3c3c 644f 0fbc 5985 0d3a
00000100: c25d 29bb 27bf 203b 67f6 94ba 100e 6c3a
00000110: a28b 94bb d0c8 d83a d342 05bb 058e 303b
00000120: 1b20 a8bb 1908 2c3b 9721 9d3a 4d9b 8cba
00000130: b3fe 623c dd6d efbb 5c5f 31bb 9b63 d03b
00000140: a7b7 96bb bf46 70bd fe72 c43d d618 0fbd
00000150: a079 c13d 48db 1dbe 3b44 bb3d 1520 c8bc
00000160: 4bb0 4a3d d6ff e1bc 6973 03bd 14e2 933d
00000170: 3388 1ebd 81fa ca3c f28d 1b3c a9b4 61bd
00000180: 7fd9 07bc fb7d 813d d7b2 41bd 55f4 e4ba
00000190: 6311 543c a4a2 b2bc 9a2c b4bb 26a8 003d
000001a0: 1b83 2abd ebb3 9ebb 06ec 123c 951e 94bc
000001b0: e49d cfba 17f3 02bc 7432 b0bb 8714 67bc
000001c0: 7c94 813e 7bbd babc 35e7 25bb 17bd 69bb
000001d0: b19c 2ebc 57ed a23c 254a 9abd 8997 f63c
000001e0: 3967 acbd dbde 9d3e 5ad7 a7bd 68bd 983c
000001f0: 425a 73bd bddd 633c 89d0 503d c3c6 d1bd
00000200: 1024 613d 64c6 a9bd c121 193e 4f97 eabd
00000210: 5b07 3a3d c438 c4bd b728 5f3d 45d9 81bb
00000220: 7c75 983a a38c 8c3a ce2a d93b 0bf6 b13b
00000230: 319f f0bb 5d9f 92bb b901 f53a b0e0 853b
-0.0007656516 -0.0075627994 -0.00014019199 -0.008126309 0.1121314 -0.009946949 0.0006543167 -0.01054094
-0.0010305115 -0.00047497917 -0.00043107936 0.00138874 0.0022843054 -0.018101657 0.000383852 -0.0007296923
0.0003576443 0.0010019518 0.0035096616 -0.0084035685 0.0037027253 -0.0062265946 0.024374697 -0.009858259
0.002424795 -0.008231774 0.005036229 0.00040348957 -0.0008419812 0.0009491485 -0.0009643477 0.0011435809
-0.0011240483 0.00032807072 -0.0015553703 0.0011480607 0.0034634254 0.014057817 0.0015424349 0.010854229
-0.13067316 0.015616104 -0.0050827283 0.019917898 -0.00024639876 0.0011577685 -0.0018950799 -0.0030106616
-0.006662775 0.012727733 -0.005325052 -0.00012878227 -0.0013142045 -0.0028633438 -0.0027273858 0.00819039
-0.0042686933 0.0067794835 -0.0051816595 0.013556537 -0.0025826772 0.011504936 -0.008746956 0.00053985935
-0.0025843238 0.0024527998 -0.0011364938 0.0009004781 -0.004533247 0.0016539339 -0.002033402 0.002694012
-0.0051307804 0.0026249944 0.001198816 -0.0010727436 0.01385467 -0.007306798 -0.0027064895 0.00635953
-0.00459953 -0.05866122 0.095922455 -0.034935795 0.09447026 -0.1541568 0.09143873 -0.02442936
0.049484532 -0.027587812 -0.032092486 0.07220855 -0.03870411 0.024777653 0.009494292 -0.05510393
-0.008291601 0.06322857 -0.047289696 -0.0017467836 0.012943598 -0.021806069 -0.005498481 0.03141036
-0.04162894 -0.0048432252 0.008967405 -0.018080989 -0.0015839902 -0.007992527 -0.005377108 -0.014104015
0.25308597 -0.02279543 -0.0025314812 -0.0035665685 -0.010657475 0.019888563 -0.07533673 0.030101554
-0.08418126 0.30834088 -0.08195372 0.018645003 -0.05941225 0.013907847 0.050980125 -0.10242989
0.054966033 -0.08289793 0.14954282 -0.11454641 0.04541717 -0.0958114 0.054482188 -0.003962668
0.0011631693 0.0010723065 0.006627417 0.005430942 -0.007343196 -0.004474564 0.001869253 0.0040856227

model.4._shift_and_log_scale.net.0.bias f4 [4]
00000000: 4337 73bd d9e3 cab7 27ba 5c3d 76a6 103e
-0.059378874 -2.4186376e-05 0.053888466 0.14126

model.4._shift_and_log_scale.net.1.weight f4 [4]
00000000: e57e 4a3f e42e 823f d189 763f 0ca0 0d3f
0.79099876 1.017056 0.9630404 0.5532234

model.4._shift_and_log_scale.net.1.bias f4 [4]
00000000: b979 413f 6610 f4bd 5702 d3be 01fa 8f40
0.7557636 -0.1191719 -0.41212723 4.499268

model.4._shift_and_log_scale.net.1.running_mean f4 [4]
00000000: 24b1 81bd dcff da3b d371 403d 3838 133e
-0.06332615 0.006683333 0.04698355 0.14376915

model.4._shift_and_log_scale.net.1.running_var f4 [4]
00000000: 8d8d 3b37 48e8 7737 58e1 a039 0a58 6339
1.1179026e-05 1.4776429e-05 0.00030685472 0.00021681204

model.4._shift_and_log_scale.net.3.weight f4 [4, 4, 1, 1]
00000000: 8de1 c93d ffa2 05bd 7e1b 203b 305a 1cbc
00000010: ecb7 eebc 36d2 30ba e158 a63c 5101 f1bd
00000020: 836e 07bd 0a75 4c3c e43f a9bd e371 403d
00000030: 7ccf f6bd 0fce 743d 7aef fdbb 2a31 ae3b
0.098574735 -0.03262615 0.002443045 -0.009542987 -0.029140435 -0.0006745191 0.020306053 -0.11767829
-0.033064377 0.012479076 -0.08264139 0.04698361 -0.12051293 0.059766825 -0.007749495 0.0053159194

model.4._shift_and_log_scale.net.3.bias f4 [4]
00000000: b7ec 2f3b 4722 903d 10ba 383d 642a c23d
0.0026843974 0.07037788 0.045099318 0.094807416

model.4._shift_and_log_scale.net.4.weight f4 [4]
00000000: ba3c 893f 825e 683f 3c83 573f f1ed 743f
1.0721657 0.9076921 0.8418462 0.9567557

model.4._shift_and_log_scale.net.4.bias f4 [4]
00000000: 4868 4bbe 3cfb 453e ee79 8f3e 9653 573e
-0.19863999 0.1933412 0.28022712 0.21027979

model.4._shift_and_log_scale.net.4.running_mean f4 [4]
00000000: 1b97 ef3c 6889 f5be 6545 633e ff16 1f3d
0.029246857 -0.47956395 0.2219444 0.03884029

model.4._shift_and_log_scale.net.4.running_var f4 [4]
00000000: bfd7 5e3b 4643 923b 407c 743b e027 c63b
0.0034003106 0.004463586 0.0037305504 0.006047234

model.4._shift_and_log_scale.conv2d_3.weight f4 [4, 5, 3, 3]
00000000: 29e1 02bb cf82 a2bb af32 efba 2e69 f5bb
00000010: 9dcd 65bd 0651 07bc cbca 13bb c216 a8bb
00000020: b38e 0bbb e16d ea38 625b 683b 3aa7 f639
00000030: 2efb 213b 71ef 8d3c f7ef 653b e5bf 6b38
00000040: b89b 5b3b 1537 78b9 1037 9dbb 5601 1e3b
00000050: f3e0 94bb dd49 86ba 13c4 1fbd b2ad 43bb
00000060: 0836 d8bb b587 8e3b a6c8 acbb 1025 e33a
00000070: f7c9 473b db71 e63a 1ce2 b03b d3a8 1e3d
00000080: 4b26 e53b a3b6 0b3b 5103 593b 3eb7 e03a
00000090: d2d6 98bd 6ce1 a7bc 0c2d 6d3d 5bca 36bc
000000a0: 0000 0000 56d2 eabc 859f 093d 3586 1f3d
000000b0: 3760 8dbc 9179 7fbc 7322 4cbc e1a9 ccba
000000c0: 19e4 ed3b 8d16 613c 6f88 803b 0ea9 46b9
000000d0: 5992 9539 813c a0bb b81d 353b b9ff 4739
000000e0: 4b05 d43a 8747 9dba ff24 2b3c 3398 f039
000000f0: 73b5 6b3b b61e b9ba c5e5 f53a 3d73 873b
00000100: 2a11 d2bb 0f3d 80b9 ee5b 6bba 6fdc a6bb
00000110: a8ab 0bbc faa4 b03a 46dd 19bb 291b f4bb
00000120: d239 4a3c da24 2f3c b6ef 063b 6ae5 1ebc
00000130: 73c1 60bc 6b16 7439 3065 2abb e05c 8cbb
00000140: add6 ec3b ec3c 8a3d b1cd 5d3d e358 d7bc
00000150: 7f5c 8d3c 0000 0000 d9f3 27be 8acc ffbc
00000160: 29ce 6fbd fc6f 253d be18 2cbc 9ad8 0abd
00000170: 5a1c 2ebc 40a5 febc c8b6 34be 2114 08bd
00000180: c12d 76bc dbae 2fbd e0b1 5dbc 501c 96bc
00000190: eec0 0dbd 5069 69bc 4055 20bd 4279 eabd
000001a0: dc47 e9bc addb 59bc 99c8 c8bc 819c 73bc
000001b0: e19f 31bd 901f 35bd 4164 17bd 56fc a83c
000001c0: a9ef dd3d 6edc 59bb 8060 23bd d633 f2bc
000001d0: 4d59 83bc 15f1 523b f1ee 2a3c 1223 973b
000001e0: c15c 443b da73 613d 5294 353c 3a88 253c
000001f0: 1434 693c 31fd a6b9 7655 6a3d 7504 65bd
00000200: 6270 9cbd 9afd 2abe 0000 0000 e92e 983d
00000210: f06b 053d 5cbf 03be e735 c43b d288 f73e
00000220: bf90 ea3e b482 e93e af0f e43e 179d f63e
00000230: fd04 da3e d2c9 e43e cc82 d63e 7734 ee3e
00000240: 7571 ce3e 5dce a23e a9a5 d83e ebcb a13e
00000250: ba43 be3e 73e0 8b3e 644d c73e a510 8f3e
00000260: ce65 d43e 3ca9 e03e 5b64 d83e 554f e03e
00000270: 98fd d23e 1882 d93e ef24 d03e 3443 e73e
00000280: 7f76 ca3e 72a5 d13e 59cc 863e 2287 cf3e
00000290: 3ca2 a33e 9f81 c13e 6a5d 983e b978 bf3e
000002a0: 9f20 9a3e 4947 cb3e 7ccd 853e 9546 5f3e
000002b0: 33d0 3f3e 62fe 523e bfc7 6d3e 0000 0000
000002c0: 0aea 4b3e 4208 823e 51dc 843e 52be 773e
-0.0019970632 -0.0049594413 -0.0018249358 -0.007489345 -0.05610429 -0.008259064 -0.0022551294 -0.005129666
-0.0021294772 0.00011178456 0.003545486 0.0004704537 0.0024716365 0.017326089 0.0035085657 5.620708e-05
0.0033509564 -0.00023671643 -0.0047978237 0.0024109683 -0.0045434176 -0.0010245402 -0.03900535 -0.002985817
-0.006598238 0.0043496736 -0.0052729426 0.0017329771 0.003048537 0.0017581539 0.005398048 0.038735222
0.0069930903 0.0021318577 0.003311355 0.0017144454 -0.07462849 -0.020493232 0.05790429 -0.011156644
0.0 -0.02866475 0.033599395 0.03894635 -0.017257793 -0.0155929485 -0.012459385 -0.0015614593
0.0072598574 0.013738287 0.003922514 -0.00018945729 0.00028528532 -0.004890025 0.0027636122 0.00019073383
0.0016175894 -0.0011999466 0.010445832 0.00045889764 0.0035966306 -0.0014123532 0.0018760493 0.0041336105
-0.0064107375 -0.00024459555 -0.0008978237 -0.0050921957 -0.008524813 0.0013476901 -0.0023477837 -0.007449527
0.012342887 0.010689938 0.0020589656 -0.009698251 -0.013717997 0.00023278005 -0.0026000254 -0.0042835325
0.00722774 0.06749901 0.05415124 -0.026287502 0.01725602 0.0 -0.16401614 -0.031225462
-0.05854622 0.04039 -0.010503946 -0.033897974 -0.010626877 -0.031084657 -0.1764785 -0.03322232
-0.015025557 -0.042891365 -0.013531178 -0.018324047 -0.03460782 -0.0142463 -0.0391438 -0.11448909
-0.028476648 -0.013297004 -0.024509715 -0.014868856 -0.043365363 -0.044219553 -0.036960844 0.020628136
0.10836727 -0.0033242959 -0.03988695 -0.029565733 -0.016033793 0.0032187153 0.010432945 0.004612335
0.0029962512 0.055042125 0.011082726 0.01010328 0.014233608 -0.0003185063 0.05721041 -0.055912454
-0.07638623 -0.16698304 0.0 0.074308224 0.03257364 -0.12865967 0.005987871 0.48346573
0.45813558 0.4560753 0.44543216 0.48166725 0.4258193 0.44685227 0.41896665 0.46524402
0.40320936 0.31798068 0.4231389 0.3160089 0.37161046 0.2731968 0.38926232 0.27942386
0.4148392 0.43879116 0.42264065 0.43810526 0.41209102 0.42482066 0.40653178 0.4516846
0.3954353 0.40946537 0.2632778 0.40532786 0.31959713 0.37794206 0.2975877 0.37396792
0.30103013 0.39702824 0.26133335 0.21804269 0.18731765 0.20604852 0.23220728 0.0
0.19913498 0.25396925 0.25949338 0.24193695

model.4._shift_and_log_scale.conv2d_3.bias f4 [4]
00000000: 95aa 24bc ed26 3e3b b13e 073f e410 193f
-0.010050436 0.00290149 0.52830034 0.597914

model.4._encoder.initial_layer.weight f4 [5, 10]
00000000: ae9d ce3e a695 5a3e bfac 383d 3003 b13d
00000010: 06da dfbd 1f5f 87bd e875 833e 2411 98bb
00000020: 905b 153e f8cb 76bd 0e22 07bf 8a05 8fbe
00000030: 0747 bf3d 5cbf 0dbe fc19 9d3e cf5b 05be
00000040: bd4e 123e 2e25 853e f4fd 8ebe 1b7d dabe
00000050: 842a 953d 70bb b53d b83e f43d 5bbc 12be
00000060: 900f cdbe 6612 993c 8de4 80bc 6faf 183e
00000070: de0a 1cbd a4f6 753c d2d3 c63e 406d bf3e
00000080: 32f8 533b 7d59 b73d 9cf5 d2be c429 983e
00000090: 8587 f4bd 9c1a 5dbe a03a b33e 4aa1 01bd
000000a0: 51b6 c03e 24ae 883d c888 073e e72e 10bc
000000b0: 6636 b1bd 0493 c0bc 51d3 1ebe 37fd e0bd
000000c0: 60f7 95bd c999 a73e
0.40354675 0.21346149 0.04508662 0.08643186 -0.109302565 -0.0660994 0.25675893 -0.004640715
0.1458571 -0.060253114 -0.5278634 -0.27933913 0.09339719 -0.13842529 0.30683887 -0.13023303
0.14287849 0.26004928 -0.27928126 -0.42673573 0.072835 0.088736415 0.11926025 -0.14329664
-0.40050936 0.01868553 -0.015733982 0.14910673 -0.0380963 0.015012417 0.3883348 0.3738804
0.003234398 0.089526154 -0.4120301 0.29719365 -0.11939911 -0.21592182 0.35005665 -0.031647958
0.37639096 0.0667384 0.13235772 -0.008800245 -0.08652954 -0.023507603 -0.15510298 -0.10985797
-0.07322574 0.32734516

model.4._encoder.initial_layer.bias f4 [5]
00000000: e8cc 9a3d 3ca7 cd3c 32a8 4f3e 3e29 803e
00000010: 66df 053f
0.07558614 0.025104158 0.20279005 0.25031465 0.52294004

model.4._encoder.blocks.0.batch_norm_layers.0.weight f4 [5]
00000000: 0000 803f 0000 803f 0000 803f 0000 803f
00000010: 0000 803f
1.0 1.0 1.0 1.0 1.0

model.4._encoder.blocks.0.batch_norm_layers.0.bias f4 [5]
00000000: 0000 0000 0000 0000 0000 0000 0000 0000
00000010: 0000 0000
0.0 0.0 0.0 0.0 0.0

model.4._encoder.blocks.0.batch_norm_layers.0.running_mean f4 [5]
00000000: e96e 3c3f a850 b8be 2030 853e 8302 053f
00000010: 2987 3e3f
0.73606735 -0.35999036 0.2601328 0.5195696 0.7442499

model.4._encoder.blocks.0.batch_norm_layers.0.running_var f4 [5]
00000000: 0400 0000 0400 0000 0400 0000 0400 0000
00000010: 0400 0000
6e-45 6e-45 6e-45 6e-45 6e-45

model.4._encoder.blocks.0.batch_norm_layers.1.weight f4 [5]
00000000: 0000 803f 0000 803f 0000 803f 0000 803f
00000010: 0000 803f
1.0 1.0 1.0 1.0 1.0

model.4._encoder.blocks.0.batch_norm_layers.1.bias f4 [5]
00000000: 0000 0000 0000 0000 0000 0000 0000 0000
00000010: 0000 0000
0.0 0.0 0.0 0.0 0.0

model.4._encoder.blocks.0.batch_norm_layers.1.running_mean f4 [5]
00000000: f87f 4a3e f49f 473e f81f c6be f6ff d33e
00000010: f8df d83e
0.19775379 0.19494611 -0.38696265 0.4140622 0.42358375

model.4._encoder.blocks.0.batch_norm_layers.1.running_var f4 [5]
00000000: 0400 0000 0400 0000 0400 0000 0400 0000
00000010: 0400 0000
6e-45 6e-45 6e-45 6e-45 6e-45

model.4._encoder.blocks.0.linear_layers.0.weight f4 [5, 5]
00000000: e42a 663e 6c32 c23e c772 843e 80eb 0abe
00000010: e2ea 97be 604a 08bd c781 bd3e 2cb2 19be
00000020: d057 d4be b3b9 3b3e 26e6 de3e a85e 02be
00000030: 6898 bdbe 48b1 cfbe b785 e53d cfb3 0abd
00000040: db41 67be 9a21 b93d c9e8 2d3e 5b1b b63e
00000050: 56c5 b13e 2618 89bd b4e6 c9be d6e7 cebe
00000060: 40ca d53e
0.22477299 0.37929094 0.25868818 -0.13566399 -0.2967139 -0.033274055 0.37013075 -0.15009373
-0.41473246 0.18332557 0.43534964 -0.12731421 -0.3703034 -0.40564942 0.11207145 -0.033862885
-0.22583716 0.09039612 0.16983332 0.35567746 0.34720868 -0.06694059 -0.39433825 -0.40411252
0.41755867

model.4._encoder.blocks.0.linear_layers.0.bias f4 [5]
00000000: 1070 4a3e 529f 473e d11c c6be 6e08 d43e
00000010: 95ea d83e
0.19769311 0.1949437 -0.3869386 0.4141268 0.42366472

model.4._encoder.blocks.0.linear_layers.1.weight f4 [5, 5]
00000000: 81d5 83b8 3ca1 243a d335 8839 3ec8 a539
00000010: eec4 c238 e276 c339 d67c 7fb9 d88f d0b9
00000020: 3a07 75ba 967b 45ba 4f3a e339 0f38 1bba
00000030: 7d6f 1639 2759 a739 8c7c 9438 05f6 29ba
00000040: 1db2 7a3a c56f 18ba 159d 573a a989 50ba
00000050: bf3b 7cb9 2199 0e3a c536 d6b9 5536 5c3a
00000060: 6765 34ba
-6.286335e-05 0.00062801293 0.00025980044 0.00031620444 9.287322e-05 0.00037281873 -0.000243652 -0.00039780024
-0.0009347085 -0.00075333694 0.00043340257 -0.0005921134 0.00014346647 0.00031919146 7.0803886e-05 -0.0006483498
0.0009563284 -0.0005814995 0.0008225006 -0.0007955083 -0.0002405485 0.0005439688 -0.00040858067 0.000840043
-0.0006881565

model.4._encoder.blocks.0.linear_layers.1.bias f4 [5]
00000000: d00b 8f3e f70a 8cbe 4ff9 8b3e beb4 9d3e
00000010: 11a4 8c3e
0.279387 -0.27352116 0.27338645 0.30801958 0.27468923

model.4._encoder.blocks.1.batch_norm_layers.0.weight f4 [5]
00000000: 0000 803f 0000 803f 0000 803f 0000 803f
00000010: 0000 803f
1.0 1.0 1.0 1.0 1.0

model.4._encoder.blocks.1.batch_norm_layers.0.bias f4 [5]
00000000: 0000 0000 0000 0000 0000 0000 0000 0000
00000010: 0000 0000
0.0 0.0 0.0 0.0 0.0

model.4._encoder.blocks.1.batch_norm_layers.0.running_mean f4 [5]
00000000: 8602 823f 8e31 22bf fe90 083f 5ee3 533f
00000010: 6768 823f
1.015702 -0.63356864 0.5334624 0.8276881 1.0188111

model.4._encoder.blocks.1.batch_norm_layers.0.running_var f4 [5]
00000000: 0400 0000 0400 0000 0400 0000 0400 0000
00000010: 0400 0000
6e-45 6e-45 6e-45 6e-45 6e-45

model.4._encoder.blocks.1.batch_norm_layers.1.weight f4 [5]
00000000: 0000 803f 0000 803f 0000 803f 0000 803f
00000010: 0000 803f
1.0 1.0 1.0 1.0 1.0

model.4._encoder.blocks.1.batch_norm_layers.1.bias f4 [5]
00000000: 0000 0000 0000 0000 0000 0000 0000 0000
00000010: 0000 0000
0.0 0.0 0.0 0.0 0.0

model.4._encoder.blocks.1.batch_norm_layers.1.running_mean f4 [5]
00000000: f85f 4c3e f57f 9c3e f71f 91bd fdbf bdbe
00000010: f8df 623e
0.19958484 0.30566373 -0.07086175 -0.37060538 0.2215575

model.4._encoder.blocks.1.batch_norm_layers.1.running_var f4 [5]
00000000: 0400 0000 0400 0000 0400 0000 0400 0000
00000010: 0400 0000
6e-45 6e-45 6e-45 6e-45 6e-45

model.4._encoder.blocks.1.linear_layers.0.weight f4 [5, 5]
00000000: 51c6 233e f59e e5bd 6e9f c6bd 695d a83e
00000010: 7d73 b1be 688f 423d 2254 d73e b8b5 7bbd
00000020: 9dc8 b13e 1f07 0dbe 9d50 b83e 2d7e ddbe
00000030: 7e00 84bd 98df a0bd e669 143e 41aa 333e
00000040: 43cf af3e 8d74 88bd 8347 91bc b4cd 9c3e
00000050: f0d0 f7bd cbb9 c83e 0874 98be a637 46bd
00000060: 24c6 c4bc
0.1599362 -0.11211959 -0.096983775 0.32883766 -0.34658423 0.047500044 0.42056376 -0.061452597
0.34723368 -0.13772248 0.35999003 -0.43260327 -0.064454064 -0.07855147 0.14493522 0.17545415
0.34337816 -0.06662855 -0.017734295 0.3062569 -0.121003985 0.3920425 -0.29776025 -0.048392914
-0.024020262

model.4._encoder.blocks.1.linear_layers.0.bias f4 [5]
00000000: 2257 4c3e 2b8b 9c3e 2d2c 91bd 32b3 bdbe
00000010: b7e8 623e
0.19955114 0.30574927 -0.07088504 -0.37050778 0.22159086

model.4._encoder.blocks.1.linear_layers.1.weight f4 [5, 5]
00000000: afbb 5f3a 719a 543a d437 42ba e0ff 27b9
00000010: d81e 1bba c5c6 15ba c9ba 7839 9a0f 763a
00000020: 2e01 52ba 96a6 1e3a b7e9 07ba 533c 4cb9
00000030: 1115 503a 2228 6db9 30f5 be38 483f 37ba
00000040: d025 5f3a 9c8c 07b9 c9ba 3fba 5684 9939
00000050: 9263 3aba 6103 50ba 7683 7f38 d6d6 4f3a
00000060: 795d 94b9
0.0008534742 0.0008110172 -0.0007408832 -0.00016021682 -0.0005917377 -0.0005713518 0.00023720706 0.000938648
-0.000801104 0.0006052045 -0.00051846675 -0.00019477429 0.00079377095 -0.00022617032 9.105576e-05 -0.00069903256
0.00085124094 -0.00012926984 -0.0007313905 0.00029281032 -0.0007110174 -0.0007935074 6.091917e-05 0.00079284364
-0.00028298402

model.4._encoder.blocks.1.linear_layers.1.bias f4 [5]
00000000: 86b7 8f3e 565f 8bbe 053b 8c3e 1ff7 9c3e
00000010: 3dd4 8c3e
0.28069705 -0.27221173 0.27388778 0.30657288 0.27505675

model.4._encoder.blocks.2.batch_norm_layers.0.weight f4 [5]
00000000: 0000 803f 0000 803f 0000 803f 0000 803f
00000010: 0000 803f
1.0 1.0 1.0 1.0 1.0

model.4._encoder.blocks.2.batch_norm_layers.0.bias f4 [5]
00000000: 0000 0000 0000 0000 0000 0000 0000 0000
00000010: 0000 0000
0.0 0.0 0.0 0.0 0.0

model.4._encoder.blocks.2.batch_norm_layers.0.running_mean f4 [5]
00000000: 8702 a63f 5fdf 67bf b0b5 4e3f ae40 913f
00000010: 66a8 a53f
1.2969521 -0.9057521 0.80745983 1.1347864 1.2942016

model.4._encoder.blocks.2.batch_norm_layers.0.running_var f4 [5]
00000000: 0400 0000 0400 0000 0400 0000 0400 0000
00000010: 0400 0000
6e-45 6e-45 6e-45 6e-45 6e-45

model.4._encoder.blocks.2.batch_norm_layers.1.weight f4 [5]
00000000: 0000 803f 0000 803f 0000 803f 0000 803f
00000010: 0000 803f
1.0 1.0 1.0 1.0 1.0

model.4._encoder.blocks.2.batch_norm_layers.1.bias f4 [5]
00000000: 0000 0000 0000 0000 0000 0000 0000 0000
00000010: 0000 0000
0.0 0.0 0.0 0.0 0.0

model.4._encoder.blocks.2.batch_norm_layers.1.running_mean f4 [5]
00000000: faff 8d3e fdff 91be faff e33e fabf 87be
00000010: fa9f e43e
0.27734357 -0.28515616 0.44531232 -0.26513654 0.44653302

model.4._encoder.blocks.2.batch_norm_layers.1.running_var f4 [5]
00000000: 0400 0000 0400 0000 0400 0000 0400 0000
00000010: 0400 0000
6e-45 6e-45 6e-45 6e-45 6e-45

model.4._encoder.blocks.2.linear_layers.0.weight f4 [5, 5]
00000000: e11b 10be 6b1f b8be 5bc1 4139 9f49 ac3e
00000010: e3e9 c03e 31e8 2a3d 3e05 d03d 4b41 46be
00000020: bcd6 ac3e 368e 3ebe 960e 9fbe a80a 8d3d
00000030: 483e 893e c170 cebe 06fc ce3e d8bc 243e
00000040: f26b a0be 524a c5bd 17a7 c63e 22ad afbe
00000050: efd8 05be 8f32 163e a299 c8be ab0b 7b3e
00000060: 1162 6e3e
-0.14073135 -0.3596147 0.00018477945 0.33649918 0.3767844 0.04172534 0.1015725 -0.19360845
0.3375758 -0.18608937 -0.31065816 0.06886798 0.2680533 -0.403204 0.40426654 0.16087663
-0.31332356 -0.09633316 0.38799354 -0.34311777 -0.13071035 0.14667724 -0.39179713 0.2451617
0.23279597

model.4._encoder.blocks.2.linear_layers.0.bias f4 [5]
00000000: b302 8e3e 37fb 91be c50e e43e 02ba 87be
00000010: e797 e43e
0.27736434 -0.28511974 0.44542518 -0.265091 0.44647142

model.4._encoder.blocks.2.linear_layers.1.weight f4 [5, 5]
00000000: a5b8 f738 36d0 f5b9 8a23 b5b9 6901 8e39
00000010: 2c49 36ba b102 2d39 55df e239 349b ceb9
00000020: 63bf 593a b703 8ab8 4ae0 ed39 2bcd 813a
00000030: 1d42 a0b9 8173 0e3a 32f6 95b9 2b2b 19b9
00000040: 11b4 31b9 c375 d0b6 380f c6b9 c3c5 7539
00000050: 030b 1e38 a02b 263a c53c 54b9 824d d238
00000060: b307 c3b9
0.000118122705 -0.0004688517 -0.0003454949 0.000270854 -0.00069536525 0.00016499568 0.00043272474 -0.00039407017
0.0008306412 -6.581045e-05 0.0004537127 0.0009903064 -0.00030566836 0.00054340815 -0.00028602924 -0.00014607298
-0.00016947115 -6.2125923e-06 -0.00037776842 0.00023438693 3.768039e-05 0.0006338898 -0.00020240534 0.00010028017
-0.00037199035

model.4._encoder.blocks.2.linear_layers.1.bias f4 [5]
00000000: 1e0c 8f3e e79a 8bbe e1f4 8b3e 7107 9d3e
00000010: 4eb6 8c3e
0.27938932 -0.2726662 0.27335265 0.3066974 0.27482837

model.4._encoder.final_layer.weight f4 [1, 5]
00000000: a492 b33e e9a4 65be fd89 f63e 0d30 6b3e
00000010: 87a6 de3e
0.35072815 -0.2242619 0.48152152 0.22967549 0.43486425

model.5.log_s f4 [3]
00000000: af08 113e 37bb 783e 7386 94bd
0.14163469 0.24290167 -0.07252207

model.5.u f4 [3, 3]
00000000: 0000 0000 5766 be3d 74ed 063f 0000 0000
00000010: 0000 0000 d04f f5be 0000 0000 0000 0000
00000020: 0000 0000
0.0 0.092968635 0.52706075 0.0 0.0 -0.47912455 0.0 0.0
0.0

model.5.sign_s f4 [3]
00000000: 0000 80bf 0000 803f 0000 80bf
-1.0 1.0 -1.0

model.6._shift_and_log_scale.logs f4 [1, 4, 1, 1]
00000000: a1a4 8dbe 3972 d2bd 6ce8 f23d 59cd 85bd
-0.27664664 -0.102756925 0.11860737 -0.065333076

model.6._shift_and_log_scale.conv2d_1.weight f4 [4, 4, 3, 3]
00000000: 98be 92bc bc3f 8abb 5103 f0ba a50d cb3d
00000010: 78d4 efbb 052d ccbb 1287 cebc 9171 a23b
00000020: 02e8 083b a7b2 03bc 5faf 643c c586 243b
00000030: 7afd 3a3d 740e 9dbc 413b d3bb fb88 c5bb
00000040: c8df 2f3c 91a7 77bb 62e9 15bd 92c0 343d
00000050: c6fd d73b d364 e1bd 40fe bb3b 294a 3f3b
00000060: c88b 26bd 4be8 283c 3f3d 9d3c b1ea 43bb
00000070: 90c1 82bb c942 4bbc 4be5 9b3c 865c 3ebc
00000080: 1a45 b4bc 498c a13b f674 94bc ed10 5f3c
00000090: 29da ecbc febb 093d 318b a5ba 0a57 103d
000000a0: 149e 03bd ec90 c6bb 5fab 70bb 5e9b abbb
000000b0: 05ce 033c d608 84bc f022 843c 0fa8 d7b9
000000c0: 640e 863c f17f 8ebc 064b 003b a023 bbb9
000000d0: d289 33ba 07c5 ac39 a1f0 3dbc d37b c33b
000000e0: f65b 8e3b 1d5b 7cb9 d893 26bc 827c ad3c
000000f0: 3c3a 3f3c 69ce a8ba 4f4d b4bc 1959 71ba
00000100: 3a37 48bb fca2 9e3b 2623 cbbb c9fc 99bd
00000110: 5049 9f3d 5319 e23b 3a34 a23d 41f0 a8bd
00000120: 0b0f 823c 8537 4abc 8248 ae3b da0b 0abd
00000130: 8211 893c 95e0 a7bb ec62 083c 705e e7bb
00000140: af1d e93a a1c5 83ba be60 6d3b 6dec 11bb
00000150: 0fd0 db3b 821e 2bbb 64b9 96bb 8d8e 4dbb
00000160: 01b4 bdbb 9ce1 e23b 1476 05bc 9c76 2c3c
00000170: 3db5 e5ba 9698 303d 54d0 d7bc 6554 55bc
00000180: ed3f 8f39 1b6c 073c 987f 833c 1fc0 45bc
00000190: bf0a 3a3c 30be 3bbb c524 a0ba b6cd 083d
000001a0: fc8d febc 70f8 e0bc 2cd3 32bd 2f0c 043d
000001b0: 001d 323e 599b 1fbe 1192 0ebd 9645 20be
000001c0: 867b 123e 6db1 ea3c af87 03bd 448a c63c
000001d0: 9efd 4d3b 7d6e 8a3d 6662 75bd b764 14bc
000001e0: bc60 6fbd 454e 4a3d 866b 253c 8c41 08bc
000001f0: c958 0a3c e43a 3d3a a76e af3c fc3a 28bc
00000200: b90b 2cbc 98bb 6cbc 3636 b93b d0af 6e3c
00000210: 5660 10bc 48f3 bcba 67a4 1b3b d858 983b
00000220: 2a1e e9bb 3654 ac3b 3907 27bc 6a1b 2e3c
00000230: 7f03 efbb 03c7 0b3c 4502 88bb a761 1d3b
-0.017913148 -0.0042190235 -0.0018311535 0.09914712 -0.0073190294 -0.0062309527 -0.02521089 0.004957386
0.002089024 -0.0080381995 0.013957827 0.0025104743 0.04565189 -0.01917193 -0.0064462726 -0.0060282922
0.010734506 -0.0037789086 -0.036599524 0.04412896 0.0065915314 -0.11005559 0.005737096 0.002918849
-0.04066065 0.010309289 0.019194243 -0.0029894526 -0.0039903596 -0.01240606 0.019030234 -0.011618739
-0.022005606 0.0049300534 -0.018122178 0.013614875 -0.02891262 0.03362655 -0.0012629983 0.035239257
-0.032133177 -0.0060597565 -0.003672324 -0.005237027 0.008044724 -0.016117495 0.01612994 -0.0004113321
0.016364284 -0.017394992 0.0019575967 -0.00035693962 -0.0006848845 0.00032953193 -0.011593015 0.0059656887
0.0043444587 -0.00024066535 -0.010167085 0.021177534 0.011671599 -0.0012878898 -0.02200952 -0.0009206697
-0.0030550496 0.0048412066 -0.0061992584 -0.07518918 0.07777655 0.0068999915 0.07920118 -0.0824895
0.015876314 -0.012342338 0.005318702 -0.03370271 0.016731981 -0.005123208 0.008324366 -0.0070608184
0.0017785336 -0.0010053405 0.0036220993 -0.0022266165 0.006708152 -0.0026110713 -0.004599737 -0.0031365484
-0.0057892804 0.0069238674 -0.008145828 0.010526326 -0.0017525327 0.043114267 -0.026344456 -0.0130206095
0.00027322714 0.00826552 0.016052052 -0.012069731 0.011355101 -0.0028647296 -0.001221799 0.033399306
-0.031073563 -0.027462214 -0.04365842 0.03223818 0.17393875 -0.15586604 -0.03480727 -0.15651545
0.14304933 0.028649056 -0.03211182 0.024235852 0.0031431685 0.06759355 -0.059908293 -0.009057215
-0.058441862 0.04939105 0.010096436 -0.008316409 0.00844402 0.0007218553 0.021415068 -0.010267969
-0.010500842 -0.014449023 0.0056522144 0.014568284 -0.008812031 -0.0014415765 0.0023749114 0.004649263
-0.0071141915 0.005259062 -0.010194593 0.010626653 -0.007294118 0.008531335 -0.004150661 0.0024014504

model.6._shift_and_log_scale.conv2d_1.bias f4 [4]
00000000: fcef 94bb 74a2 acbb f9be 9b3d 5cb5 85bd
-0.00454521 -0.0052683894 0.076047845 -0.06528732

model.6._shift_and_log_scale.conv2d_2.weight f4 [4, 4, 1, 1]
00000000: e41e 7d3e 366b 2d39 edef e9bc 1e32 75bc
00000010: de0b ccba e37d 95b9 dce4 4cbb 3c75 8c38
00000020: d3ff 4c3d 2698 d13b 2b58 e13b 6e91 f83c
00000030: f0eb 9f3a 864b b6bd 2cdf 84bc 299a 70bd
0.24718815 0.00016538505 -0.028556788 -0.014965562 -0.0015567502 -0.00028513288 -0.003126434 6.697557e-05
0.05004866 0.0063963113 0.0068769655 0.030342784 0.0012201052 -0.08901124 -0.016219698 -0.05874077

model.6._shift_and_log_scale.conv2d_2.bias f4 [4]
00000000: 8866 6abd 409a 423b 651a 8b3d 9492 c2bd
-0.057226688 0.002969399 0.06792144 -0.09500614

model.6._shift_and_log_scale.net.0.weight f4 [4, 4, 3, 3]
00000000: 98be 92bc bc3f 8abb 5103 f0ba a50d cb3d
00000010: 78d4 efbb 052d ccbb 1287 cebc 9171 a23b
00000020: 02e8 083b a7b2 03bc 5faf 643c c586 243b
00000030: 7afd 3a3d 740e 9dbc 413b d3bb fb88 c5bb
00000040: c8df 2f3c 91a7 77bb 62e9 15bd 92c0 343d
00000050: c6fd d73b d364 e1bd 40fe bb3b 294a 3f3b
00000060: c88b 26bd 4be8 283c 3f3d 9d3c b1ea 43bb
00000070: 90c1 82bb c942 4bbc 4be5 9b3c 865c 3ebc
00000080: 1a45 b4bc 498c a13b f674 94bc ed10 5f3c
00000090: 29da ecbc febb 093d 318b a5ba 0a57 103d
000000a0: 149e 03bd ec90 c6bb 5fab 70bb 5e9b abbb
000000b0: 05ce 033c d608 84bc f022 843c 0fa8 d7b9
000000c0: 640e 863c f17f 8ebc 064b 003b a023 bbb9
000000d0: d289 33ba 07c5 ac39 a1f0 3dbc d37b c33b
000000e0: f65b 8e3b 1d5b 7cb9 d893 26bc 827c ad3c
000000f0: 3c3a 3f3c 69ce a8ba 4f4d b4bc 1959 71ba
00000100: 3a37 48bb fca2 9e3b 2623 cbbb c9fc 99bd
00000110: 5049 9f3d 5319 e23b 3a34 a23d 41f0 a8bd
00000120: 0b0f 823c 8537 4abc 8248 ae3b da0b 0abd
00000130: 8211 893c 95e0 a7bb ec62 083c 705e e7bb
00000140: af1d e93a a1c5 83ba be60 6d3b 6dec 11bb
00000150: 0fd0 db3b 821e 2bbb 64b9 96bb 8d8e 4dbb
00000160: 01b4 bdbb 9ce1 e23b 1476 05bc 9c76 2c3c
00000170: 3db5 e5ba 9698 303d 54d0 d7bc 6554 55bc
00000180: ed3f 8f39 1b6c 073c 987f 833c 1fc0 45bc
00000190: bf0a 3a3c 30be 3bbb c524 a0ba b6cd 083d
000001a0: fc8d febc 70f8 e0bc 2cd3 32bd 2f0c 043d
000001b0: 001d 323e 599b 1fbe 1192 0ebd 9645 20be
000001c0: 867b 123e 6db1 ea3c af87 03bd 448a c63c
000001d0: 9efd 4d3b 7d6e 8a3d 6662 75bd b764 14bc
000001e0: bc60 6fbd 454e 4a3d 866b 253c 8c41 08bc
000001f0: c958 0a3c e43a 3d3a a76e af3c fc3a 28bc
00000200: b90b 2cbc 98bb 6cbc 3636 b93b d0af 6e3c
00000210: 5660 10bc 48f3 bcba 67a4 1b3b d858 983b
00000220: 2a1e e9bb 3654 ac3b 3907 27bc 6a1b 2e3c
00000230: 7f03 efbb 03c7 0b3c 4502 88bb a761 1d3b
-0.017913148 -0.0042190235 -0.0018311535 0.09914712 -0.0073190294 -0.0062309527 -0.02521089 0.004957386
0.002089024 -0.0080381995 0.013957827 0.0025104743 0.04565189 -0.01917193 -0.0064462726 -0.0060282922
0.010734506 -0.0037789086 -0.036599524 0.04412896 0.0065915314 -0.11005559 0.005737096 0.002918849
-0.04066065 0.010309289 0.019194243 -0.0029894526 -0.0039903596 -0.01240606 0.019030234 -0.011618739
-0.022005606 0.0049300534 -0.018122178 0.013614875 -0.02891262 0.03362655 -0.0012629983 0.035239257
-0.032133177 -0.0060597565 -0.003672324 -0.005237027 0.008044724 -0.016117495 0.01612994 -0.0004113321
0.016364284 -0.017394992 0.0019575967 -0.00035693962 -0.0006848845 0.00032953193 -0.011593015 0.0059656887
0.0043444587 -0.00024066535 -0.010167085 0.021177534 0.011671599 -0.0012878898 -0.02200952 -0.0009206697
-0.0030550496 0.0048412066 -0.0061992584 -0.07518918 0.07777655 0.0068999915 0.07920118 -0.0824895
0.015876314 -0.012342338 0.005318702 -0.03370271 0.016731981 -0.005123208 0.008324366 -0.0070608184
0.0017785336 -0.0010053405 0.0036220993 -0.0022266165 0.006708152 -0.0026110713 -0.004599737 -0.0031365484
-0.0057892804 0.0069238674 -0.008145828 0.010526326 -0.0017525327 0.043114267 -0.026344456 -0.0130206095
0.00027322714 0.00826552 0.016052052 -0.012069731 0.011355101 -0.0028647296 -0.001221799 0.033399306
-0.031073563 -0.027462214 -0.04365842 0.03223818 0.17393875 -0.15586604 -0.03480727 -0.15651545
0.14304933 0.028649056 -0.03211182 0.024235852 0.0031431685 0.06759355 -0.059908293 -0.009057215
-0.058441862 0.04939105 0.010096436 -0.008316409 0.00844402 0.0007218553 0.021415068 -0.010267969
-0.010500842 -0.014449023 0.0056522144 0.014568284 -0.008812031 -0.0014415765 0.0023749114 0.004649263
-0.0071141915 0.005259062 -0.010194593 0.010626653 -0.007294118 0.008531335 -0.004150661 0.0024014504

model.6._shift_and_log_scale.net.0.bias f4 [4]
00000000: fcef 94bb 74a2 acbb f9be 9b3d 5cb5 85bd
-0.00454521 -0.0052683894 0.076047845 -0.06528732

model.6._shift_and_log_scale.net.1.weight f4 [4]
00000000: 3d0b 753f 0503 393f dfef ac3e 6479 323f
0.95720273 0.7227023 0.33776757 0.6971648

model.6._shift_and_log_scale.net.1.bias f4 [4]
00000000: 30d5 75be 20e0 4c3b 481f d43f b80b d8bd
-0.24007106 0.0031261519 1.6572046 -0.1054911

model.6._shift_and_log_scale.net.1.running_mean f4 [4]
00000000: 6987 30bd 2647 a9bb fa07 953d b7b8 85bd
-0.043097887 -0.0051659523 0.07276912 -0.06529372

model.6._shift_and_log_scale.net.1.running_var f4 [4]
00000000: 2849 f339 229e 2d37 b89f d337 687a 6b38
0.00046403077 1.0348422e-05 2.5227535e-05 5.6142366e-05

model.6._shift_and_log_scale.net.3.weight f4 [4, 4, 1, 1]
00000000: e41e 7d3e 366b 2d39 edef e9bc 1e32 75bc
00000010: de0b ccba e37d 95b9 dce4 4cbb 3c75 8c38
00000020: d3ff 4c3d 2698 d13b 2b58 e13b 6e91 f83c
00000030: f0eb 9f3a 864b b6bd 2cdf 84bc 299a 70bd
0.24718815 0.00016538505 -0.028556788 -0.014965562 -0.0015567502 -0.00028513288 -0.003126434 6.697557e-05
0.05004866 0.0063963113 0.0068769655 0.030342784 0.0012201052 -0.08901124 -0.016219698 -0.05874077

model.6._shift_and_log_scale.net.3.bias f4 [4]
00000000: 8866 6abd 409a 423b 651a 8b3d 9492 c2bd
-0.057226688 0.002969399 0.06792144 -0.09500614

model.6._shift_and_log_scale.net.4.weight f4 [4]
00000000: ea75 3a3f cb5c 783f cb7f 253f de6f 053f
0.7283617 0.9701659 0.6464812 0.5212382

model.6._shift_and_log_scale.net.4.bias f4 [4]
00000000: 0671 963e 8036 973e 395d c13e 8b5e b93e
0.29383105 0.29533768 0.37766436 0.36204943

model.6._shift_and_log_scale.net.4.running_mean f4 [4]
00000000: 7148 2fbd 8b8d 44bb 8a5f c73d 3df4 0fbe
-0.042793695 -0.0029991593 0.097350195 -0.14058013

model.6._shift_and_log_scale.net.4.running_var f4 [4]
00000000: e315 933c f963 c335 c963 6b3a 65ff 913a
0.017954772 1.4557728e-06 0.0008979408 0.0011138736

model.6._shift_and_log_scale.conv2d_3.weight f4 [4, 5, 3, 3]
00000000: 50dc 04bb 1a60 b63b fb9f a13c 3813 553c
00000010: b3f6 adbc 3847 37bd c161 85bb e98a e1bc
00000020: 586f a23c e979 4cbc e91f 983d 8c47 353d
00000030: 78ee f03b 0448 20bd a679 463b 262c b9ba
00000040: 91a8 bebc b048 4ebc 6de6 44ba 58fd de3a
00000050: e7fe 983b fb6b cdbb 62fd 673c e8de 943c
00000060: 0914 84bb 98c5 0f3d 5bd3 ddbc 02f5 5e3d
00000070: 01ee 2bbd c1bd 243d 270b 5c3b bb91 b73c
00000080: 6e87 903c b136 2b3d 68df c4bb e43f c83c
00000090: a60b 833d 5fd0 323d 89f8 a4bd 3163 793c
000000a0: 0000 0000 5cd0 ce3c 0f82 443a de57 223d
000000b0: 3fcb a13d 2f4b a2bb 12c7 393a 6965 5fbc
000000c0: 25b7 083c 5ef8 47bc 518f 8cbd 3013 10bd
000000d0: bb03 85bc 633f c739 0b81 383c 9b4d febb
000000e0: 3345 dabc 1dcc 91bc aa6a 4dbd 5edb 6e3d
000000f0: 145b 88bc 2f80 973c 83a6 c1bc 5a00 533c
00000100: e05d 08bb 4379 313d 9ef6 98bb ff70 d83b
00000110: 1087 a339 fa88 413d 0312 eb3c e341 713c
00000120: 5055 6fbd 080a 96bc c0d3 91bc 145a cf3c
00000130: e76c 873c adf8 ab3c 3926 2dbc 0fa2 b53b
00000140: f8ab ddbc 287e 8ebd 08a3 98bd 0d11 3a3c
00000150: 1439 603d 0000 0000 5cc8 b83d 5205 153d
00000160: 1e04 1c3e 38fa 97bd 7217 5e3c 3aa1 183d
00000170: 05b7 8e3d 3119 e93b bfe0 8dbb 8494 8b3d
00000180: 1d97 fb3b 53d6 2bbc b001 a73c 8a9b 173e
00000190: 226b a53e 5fd1 ef3e b18a 713d f52f 86bd
000001a0: 73fc 4d3e 34f8 993d 77f3 85bc aaab 823e
000001b0: 7731 e639 5ad3 efbb 84fe 3a3c a063 8eba
000001c0: cacf 95bc 2120 1e3b df87 8fbb e35e 2cba
000001d0: d05c e33c 9b42 c6bc 52b8 ffbc c3f0 82bc
000001e0: 61c7 a8bc 5274 4a3d c2a3 183d ef5e 1dbd
000001f0: 491a a73b a7b3 1a3c fed9 47be 9e37 163e
00000200: db10 17bd 7c32 7dbd 0000 0000 a782 123e
00000210: 5923 013d 8f25 aebc c929 133d 1252 16bc
00000220: 7f62 f8bc 49d1 48bd ae77 0cbc 85d2 30bc
00000230: 0fbf 1abe 8ee3 babc aa8f abbc 9dfd 3abd
00000240: dfba 543d 8aab a8bc 6f2b 0c3c e759 0e3d
00000250: 13c8 943d a5e9 65bc bf45 3a3c eb34 803a
00000260: ec61 453d 92d4 be3c 117a e93b 912b 883c
00000270: ee80 413b 33c0 a53c b4c7 3e3c a146 8b3c
00000280: 2abf 87ba 7366 3f3d f412 04bd 62c0 493d
00000290: 10a1 b7bc 5cba 2cbb 17a8 933d 55a0 a33c
000002a0: d064 08bd 52b9 463d 3ece 0cbc 357b 1cbc
000002b0: 9ef3 b5bd 550e 5cbd b56b b3bd 0000 0000
000002c0: 0f71 aebd ded3 013e 59c9 5cbc 2765 a4bb
-0.0020272918 0.0055656554 0.019729605 0.01300507 -0.0212358 -0.044745654 -0.004070491 -0.027532058
0.019828483 -0.0124802375 0.074279614 0.044257686 0.0073526464 -0.03913118 0.003028491 -0.0014127537
-0.023273738 -0.012590572 -0.0007511143 0.0017012758 0.0046690586 -0.006268976 0.014159532 0.018172696
-0.0040307087 0.03510055 -0.027078321 0.054432876 -0.041975025 0.040220026 0.0033575983 0.022408357
0.017642703 0.041800205 -0.0060080774 0.024444528 0.06398706 0.04365575 -0.08055217 0.015221403
0.0 0.025245838 0.0007496187 0.039634578 0.07900094 -0.0049528102 0.0007086854 -0.013635018
0.008344446 -0.012205211 -0.06863273 -0.03517455 -0.01623713 0.00038003465 0.011261235 -0.007760716
-0.026644325 -0.017797524 -0.05015055 0.058314674 -0.016644992 0.01849374 -0.02363897 0.012878502
-0.0020807907 0.043328535 -0.004668071 0.006605267 0.00031190412 0.04724977 0.028695112 0.014725181
-0.05843097 -0.01831533 -0.017801166 0.025311507 0.01653142 0.020992601 -0.010568195 0.0055430005
-0.02705954 -0.06957656 -0.07452971 0.011356604 0.054741934 0.0 0.090225905 0.036382027
0.15235946 -0.07420772 0.0135553945 0.037263133 0.06968502 0.0071135988 -0.0043297703 0.068154365
0.007677926 -0.010488111 0.020386547 0.14805427 0.32308298 0.46839425 0.058970157 -0.06552116
0.20115833 0.07518044 -0.016351445 0.25521594 0.00043905873 -0.0073188962 0.01141322 -0.0010863431
-0.018287558 0.0024128037 -0.004380211 -0.00065754185 0.027754217 -0.024201682 -0.03121582 -0.015983945
-0.020602884 0.049427338 0.037265547 -0.038420614 0.005099569 0.0094422465 -0.19516751 0.14669654
-0.03688131 -0.061815724 0.0 0.14307652 0.03152785 -0.021258144 0.03592852 -0.0091748405
-0.030320404 -0.049027715 -0.008573456 -0.010792379 -0.15111946 -0.022813585 -0.020942528 -0.04565202
0.051936027 -0.020589609 0.008555277 0.034753706 0.07264724 -0.014032756 0.011369168 0.0009781396
0.04818909 0.02329472 0.007125147 0.016622337 0.002952631 0.02023325 0.011644293 0.017001452
-0.0010356654 0.046728563 -0.032244638 0.049255736 -0.022415668 -0.0026356196 0.07209795 0.019973913
-0.033299267 0.04851658 -0.008594094 -0.009550859 -0.08884357 -0.053724606 -0.08760778 0.0
-0.08517658 0.12678477 -0.013475739 -0.005016941

model.6._shift_and_log_scale.conv2d_3.bias f4 [4]
00000000: 1728 3dbd 43b2 58bc 1abd 103e ff88 7a3e
-0.04618081 -0.013226095 0.14134637 0.24466322

model.6._encoder.initial_layer.weight f4 [5, 10]
00000000: e330 c3be 4b29 fd3d 6f4b 0cbe dae8 143e
00000010: 9379 853e 5f27 0ebe 1ad3 b7bd 4f86 efbd
00000020: 72d9 193e d89c 43be b3c4 c4be c717 7fbe
00000030: 0e25 453d 3725 55be 9c73 263e 1dda 77be
00000040: b5e9 9dbe 2d1c 5dbe 2e40 1e3d db36 a1be
00000050: 2001 38be db1c 13bd f02b 08be 149f 8f3e
00000060: 4bf5 78be 1d95 0b3d f3aa c5be 7a7a 503d
00000070: c532 823e a4fe b2be e7cd c1be a728 4cbe
00000080: 6540 b13c 9037 44bd f492 863e 8ce7 763e
00000090: 5663 9e3c ad37 053d 9dff 64be 4652 7fbe
000000a0: 8b5a cdbe 04dc 293e 5916 6cbe 5e1b d9ba
000000b0: b2d1 85be d963 63be 6ef3 0abe 7e80 1abe
000000c0: 749b 453c 1a3b 00be
-0.38123235 0.12361392 -0.1370065 0.14541951 0.26069316 -0.13882206 -0.08975811 -0.11695539
0.15024355 -0.191028 -0.3843132 -0.24911414 0.04813104 -0.20814978 0.16255039 -0.24204297
-0.30842367 -0.2159278 0.038635425 -0.31487164 -0.17969179 -0.03591619 -0.13298011 0.28051054
-0.24312322 0.034077752 -0.38606986 0.050898053 0.2542936 -0.349599 -0.37852404 -0.19937383
0.021637151 -0.04790455 0.2628399 0.24111766 0.019334476 0.0325238 -0.22363134 -0.24933729
-0.4010814 0.16587836 -0.230554 -0.0016563942 -0.26136547 -0.22206058 -0.13569424 -0.15088078
0.012060989 -0.12522545

model.6._encoder.initial_layer.bias f4 [5]
00000000: a5b8 f0be 7d8a 64be 07f0 05bf fb0e 8abe
00000010: aa30 d1be
-0.47015873 -0.22318454 -0.5231938 -0.26964554 -0.4085744

model.6._encoder.blocks.0.batch_norm_layers.0.weight f4 [5]
00000000: 0000 803f 0000 803f 0000 803f 0000 803f
00000010: 0000 803f
1.0 1.0 1.0 1.0 1.0

model.6._encoder.blocks.0.batch_norm_layers.0.bias f4 [5]
00000000: 0000 0000 0000 0000 0000 0000 0000 0000
00000010: 0000 0000
0.0 0.0 0.0 0.0 0.0

model.6._encoder.blocks.0.batch_norm_layers.0.running_mean f4 [5]
00000000: e6e5 70bf de7e 6abf ec5f 8bbf d2e2 20bf
00000010: 9bfd 71bf
-0.941008 -0.91599834 -1.0888648 -0.628461 -0.94527596

model.6._encoder.blocks.0.batch_norm_layers.0.running_var f4 [5]
00000000: 0400 0000 0400 0000 0400 0000 0400 0000
00000010: 0400 0000
6e-45 6e-45 6e-45 6e-45 6e-45

model.6._encoder.blocks.0.batch_norm_layers.1.weight f4 [5]
00000000: 0000 803f 0000 803f 0000 803f 0000 803f
00000010: 0000 803f
1.0 1.0 1.0 1.0 1.0

model.6._encoder.blocks.0.batch_norm_layers.1.bias f4 [5]
00000000: 0000 0000 0000 0000 0000 0000 0000 0000
00000010: 0000 0000
0.0 0.0 0.0 0.0 0.0

model.6._encoder.blocks.0.batch_norm_layers.1.running_mean f4 [5]
00000000: f87f d9be f6ff c9be fc5f e13e f45f 5abe
00000010: f53f a5bd
-0.42480445 -0.39453095 0.44018543 -0.21325666 -0.080688395

model.6._encoder.blocks.0.batch_norm_layers.1.running_var f4 [5]
00000000: 0400 0000 0400 0000 0400 0000 0400 0000
00000010: 0400 0000
6e-45 6e-45 6e-45 6e-45 6e-45

model.6._encoder.blocks.0.linear_layers.0.weight f4 [5, 5]
00000000: 2d5b a03e b33b c83e 69de c63e 92cd a43c
00000010: 2506 873e acc6 e4be 8050 86be 01b1 a33d
00000020: fd73 233b c3c2 b3be 49b1 4abe cbe2 55be
00000030: aedb e2be edb2 2e3d fb16 9c3e 23dd 393e
00000040: e895 59be 1e42 d2be feba b8be aae9 073c
00000050: 8a83 9d3e b374 39be 7d30 79be 6d4b 74be
00000060: 4f93 1ebd
0.31319562 0.39108047 0.3884156 0.020117555 0.26371875 -0.44682825 -0.26233292 0.07992745
0.002494096 -0.3510953 -0.19794191 -0.20887296 -0.44308227 0.042651106 0.30486283 0.18150763
-0.21248591 -0.41066068 -0.36080164 0.008295456 0.3076442 -0.18110923 -0.24334903 -0.23856898
-0.038714703

model.6._encoder.blocks.0.linear_layers.0.bias f4 [5]
00000000: 1572 d9be 680e cabe 3466 e13e f366 5abe
00000010: a331 a5bd
-0.4246985 -0.39464116 0.44023287 -0.21328335 -0.08066108

model.6._encoder.blocks.0.linear_layers.1.weight f4 [5, 5]
00000000: a8d6 823a e448 703a 7dab 07ba 1d0f 5fba
00000010: 6f44 6cba dc79 fcb9 3c68 5c3a fa14 b039
00000020: 34ee 7c3a 7e4e 423a e23a 7337 6d78 22ba
00000030: dafb 7f3a cd48 523a a0fc e239 1f33 0fba
00000040: fa82 4e3a cfdf be38 a856 2d3a 05d2 da39
00000050: 5f33 0b3a 6b06 66ba 9a5a 11ba fc39 1d3a
00000060: bd74 5ab9
0.0009982185 0.0009166135 -0.0005175395 -0.0008509027 -0.0009012883 -0.00048155978 0.0008407866 0.00033584965
0.0009648532 0.0007412209 1.4497638e-05 -0.00061977544 0.0009765007 0.00080217124 0.000432943 -0.0005462635
0.00078777934 9.1015936e-05 0.0006612339 0.00041736677 0.0005310084 -0.000877476 -0.0005544812 0.0005997715
-0.00020833588

model.6._encoder.blocks.0.linear_layers.1.bias f4 [5]
00000000: 0f8f adbe 4247 abbe dab4 b2be 6f31 abbe
00000010: 1ea1 acbe
-0.33898208 -0.33452803 -0.34903604 -0.33436152 -0.33716673

model.6._encoder.blocks.1.batch_norm_layers.0.weight f4 [5]
00000000: 0000 803f 0000 803f 0000 803f 0000 803f
00000010: 0000 803f
1.0 1.0 1.0 1.0 1.0

model.6._encoder.blocks.1.batch_norm_layers.0.bias f4 [5]
00000000: 0000 0000 0000 0000 0000 0000 0000 0000
00000010: 0000 0000
0.0 0.0 0.0 0.0 0.0

model.6._encoder.blocks.1.batch_norm_layers.0.running_mean f4 [5]
00000000: 0ec6 a3bf e9ff 9fbf e5ff b7bf c982 76bf
00000010: db1f a4bf
-1.2794816 -1.2499973 -1.4374968 -0.9629331 -1.2822222

model.6._encoder.blocks.1.batch_norm_layers.0.running_var f4 [5]
00000000: 0400 0000 0400 0000 0400 0000 0400 0000
00000010: 0400 0000
6e-45 6e-45 6e-45 6e-45 6e-45

model.6._encoder.blocks.1.batch_norm_layers.1.weight f4 [5]
00000000: 0000 803f 0000 803f 0000 803f 0000 803f
00000010: 0000 803f
1.0 1.0 1.0 1.0 1.0

model.6._encoder.blocks.1.batch_norm_layers.1.bias f4 [5]
00000000: 0000 0000 0000 0000 0000 0000 0000 0000
00000010: 0000 0000
0.0 0.0 0.0 0.0 0.0

model.6._encoder.blocks.1.batch_norm_layers.1.running_mean f4 [5]
00000000: fcdf c5bd f9ff 29bd f7bf 25be fa7f c33e
00000010: f83f 87bd
-0.09661862 -0.04150388 -0.1618651 0.38183576 -0.06603998

model.6._encoder.blocks.1.batch_norm_layers.1.running_var f4 [5]
00000000: 0400 0000 0400 0000 0400 0000 0400 0000
00000010: 0400 0000
6e-45 6e-45 6e-45 6e-45 6e-45

model.6._encoder.blocks.1.linear_layers.0.weight f4 [5, 5]
00000000: 11ab 1d3e 837e 2cbe 05b6 40be 1607 bfbd
00000010: d281 29be c2ef 7a3e d904 aebd 959c ad3e
00000020: d0fd d03d ff84 8dbd 4041 84be 2baa d1be
00000030: e097 05be 5c09 d4be 2db0 a9bd ab83 ef3b
00000040: 3f18 ecbc 80f3 60be 0eec 9e3e 04f4 803e
00000050: baa7 e1bd fbef 34be 0bf4 8f3e 5f36 c73e
00000060: 26a8 d1be
0.15397288 -0.16845135 -0.18819435 -0.093275234 -0.16553429 0.24505523 -0.08497018 0.33908525
0.10204661 -0.069101326 -0.25831032 -0.4095014 -0.13046217 -0.4141339 -0.08285556 0.007309397
-0.028820155 -0.21967888 0.3103947 0.2518617 -0.110183194 -0.1766967 0.28115878 0.3890867
-0.409486

model.6._encoder.blocks.1.linear_layers.0.bias f4 [5]
00000000: 20e3 c5bd 69fe 29bd facd 25be 057a c33e
00000010: b449 87bd
-0.09662461 -0.04150239 -0.16191855 0.3817903 -0.06605855

model.6._encoder.blocks.1.linear_layers.1.weight f4 [5, 5]
00000000: 3ece deb9 4a35 80ba 3201 0e3a 32be 14ba
00000010: b10e 2fb9 92cd 5bba 05e4 13ba 42b6 da39
00000020: 243f 74ba 237c 15ba 8c89 443a b370 06ba
00000030: 822f dab9 d134 93b9 981c e039 61f5 2bba
00000040: 9245 d238 e21e d639 303d 98b8 259a 3d39
00000050: d6f9 47ba c307 ed39 1ff1 c339 6f86 03b9
00000060: 55c2 58ba
-0.00042496802 -0.0009781506 0.0005417048 -0.0005674093 -0.00016694774 -0.00083848194 -0.00056415825 0.00041715993
-0.000931727 -0.0005702397 0.0007497303 -0.0005128488 -0.00041615596 -0.00028077376 0.00042745913 -0.00065596966
0.00010026539 0.0004084027 -7.259322e-05 0.00018081868 -0.0007628476 0.00045209946 0.00037372948 -0.00012543214
-0.0008268704

model.6._encoder.blocks.1.linear_layers.1.bias f4 [5]
00000000: 86e8 acbe fa68 abbe f8c8 b2be 575d abbe
00000010: f709 acbe
-0.3377115 -0.33478528 -0.34918952 -0.3346965 -0.33601353

model.6._encoder.blocks.2.batch_norm_layers.0.weight f4 [5]
00000000: 0000 803f 0000 803f 0000 803f 0000 803f
00000010: 0000 803f
1.0 1.0 1.0 1.0 1.0

model.6._encoder.blocks.2.batch_norm_layers.0.bias f4 [5]
00000000: 0000 0000 0000 0000 0000 0000 0000 0000
00000010: 0000 0000
0.0 0.0 0.0 0.0 0.0

model.6._encoder.blocks.2.batch_norm_layers.0.running_mean f4 [5]
00000000: 0906 cfbf ecdf cabf d4bf e4bf f71e a6bf
00000010: d21f cfbf
-1.6173717 -1.5849586 -1.7871041 -1.29782 -1.6181586

model.6._encoder.blocks.2.batch_norm_layers.0.running_var f4 [5]
00000000: 0400 0000 0400 0000 0400 0000 0400 0000
00000010: 0400 0000
6e-45 6e-45 6e-45 6e-45 6e-45

model.6._encoder.blocks.2.batch_norm_layers.1.weight f4 [5]
00000000: 0000 803f 0000 803f 0000 803f 0000 803f
00000010: 0000 803f
1.0 1.0 1.0 1.0 1.0

model.6._encoder.blocks.2.batch_norm_layers.1.bias f4 [5]
00000000: 0000 0000 0000 0000 0000 0000 0000 0000
00000010: 0000 0000
0.0 0.0 0.0 0.0 0.0

model.6._encoder.blocks.2.batch_norm_layers.1.running_mean f4 [5]
00000000: fc9f 49bd fddf b1be f81f d5ba f75f 263a
00000010: fcdf c5be
-0.04922484 -0.34741202 -0.0016260138 0.00063466973 -0.3864745

model.6._encoder.blocks.2.batch_norm_layers.1.running_var f4 [5]
00000000: 0400 0000 0400 0000 0400 0000 0400 0000
00000010: 0400 0000
6e-45 6e-45 6e-45 6e-45 6e-45

model.6._encoder.blocks.2.linear_layers.0.weight f4 [5, 5]
00000000: f129 37be 9753 febc cbed e33e 005e 0a3b
00000010: ed49 b6be d196 05bd 3cd3 633e 117c 15be
00000020: b5d1 6fbe 8f9f bc3e 5a42 723e 929a 9bbd
00000030: 062b bb3c 19bc 41bd 91a3 d43d 9d33 823c
00000040: 4e8f 8abe 04b1 a93d c7a3 3f3c e8dc ec3c
00000050: 9984 2ebe 30ac ea3d 8e28 b9be 10e4 083e
00000060: 8528 783e
-0.17887093 -0.031045718 0.4451736 0.0021113157 -0.35603276 -0.032614533 0.22248548 -0.14598109
-0.2341984 0.36840484 0.23658124 -0.07597841 0.022847664 -0.047298525 0.1038276 0.015893752
-0.27062458 0.08285716 0.011696762 0.02891393 -0.1704277 0.114586234 -0.36163753 0.13368249
0.24234207

model.6._encoder.blocks.2.linear_layers.0.bias f4 [5]
00000000: 0f98 49bd d6dd b1be 5315 d5ba 5b6b 263a
00000010: 3fe1 c5be
-0.04921728 -0.3473956 -0.0016256965 0.00063483947 -0.38648412

model.6._encoder.blocks.2.linear_layers.1.weight f4 [5, 5]
00000000: e6b9 3bba 0faa 2cba a1d2 f539 0754 473a
00000010: 17b9 aa38 c7ab 03ba 4f2a fd39 9ce0 3639
00000020: 6d80 65ba 90e1 29ba 4f82 6539 4035 223a
00000030: 4c6f a8b9 c582 fd39 6159 22ba bbda 7a3a
00000040: 07ca 3a3a e867 4439 7840 e939 d188 b639
00000050: c1b0 1aba c74b 12b7 90ce 8b39 b3ad 6cb9
00000060: bd61 7b3a
-0.0007161185 -0.000658662 0.00046886972 0.00076037686 8.140707e-05 -0.000502285 0.00048287443 0.00017440546
-0.00087547937 -0.000648045 0.00021887686 0.00061877444 -0.0003212638 0.0004835335 -0.0006193128 0.00095693365
0.00071254413 0.00018730725 0.00044489256 0.0003481568 -0.0005900972 -8.719921e-06 0.00026666047 -0.00022571422
0.0009589454

model.6._encoder.blocks.2.linear_layers.1.bias f4 [5]
00000000: 834f adbe 7e33 acbe 8af0 b2be d014 acbe
00000010: 96ce abbe
-0.33849725 -0.33633035 -0.34949142 -0.3360963 -0.3355605

model.6._encoder.final_layer.weight f4 [1, 5]
00000000: 3893 07bf 440f 1bbf 0fe6 cabe 7c97 16bf
00000010: 0dd8 04bf
-0.52959013 -0.6057017 -0.39628646 -0.58824897 -0.5189217
