sRGB_noise_modeling/experiments/basler/our_model_2/saved_models/best_model.pth (torch, 500347 bytes, 1152 tensors)

model.2.log_scale f4 [25, 3]
0.0 0.0 0.0 0.39655742 0.16458209 0.20489255 0.0 0.0
0.0 0.0 0.0 0.0 0.0 0.0 0.0 0.0
0.0 0.0 0.0 0.0 0.0 0.0 0.0 0.0
0.0 0.0 0.0 0.0 0.0 0.0 0.0 0.0
0.0 0.0 0.0 0.0 0.0 0.0 0.0 0.0
0.0 0.0 0.0 0.0 0.0 0.0 0.0 0.0
0.0 0.0 0.0 0.0 0.0 0.0 0.0 0.0
0.0 0.0 0.0 0.0 0.0 0.0 0.0 0.0
0.0 0.0 0.0 0.0 0.0 0.0 0.0 0.0
0.0 0.0 0.0
00000000: 0000 0000 0000 0000 0000 0000 9309 cb3e
00000010: 3588 283e 5acf 513e 0000 0000 0000 0000
00000020: 0000 0000 0000 0000 0000 0000 0000 0000
00000030: 0000 0000 0000 0000 0000 0000 0000 0000
00000040: 0000 0000 0000 0000 0000 0000 0000 0000
00000050: 0000 0000 0000 0000 0000 0000 0000 0000
00000060: 0000 0000 0000 0000 0000 0000 0000 0000
00000070: 0000 0000 0000 0000 0000 0000 0000 0000
00000080: 0000 0000 0000 0000 0000 0000 0000 0000
00000090: 0000 0000 0000 0000 0000 0000 0000 0000
000000a0: 0000 0000 0000 0000 0000 0000 0000 0000
000000b0: 0000 0000 0000 0000 0000 0000 0000 0000
000000c0: 0000 0000 0000 0000 0000 0000 0000 0000
000000d0: 0000 0000 0000 0000 0000 0000 0000 0000
000000e0: 0000 0000 0000 0000 0000 0000 0000 0000
000000f0: 0000 0000 0000 0000 0000 0000 0000 0000
00000100: 0000 0000 0000 0000 0000 0000 0000 0000
00000110: 0000 0000 0000 0000 0000 0000 0000 0000
00000120: 0000 0000 0000 0000 0000 0000

model.2.bias f4 [25, 3]
0.0 0.0 0.0 0.013596779 0.0019033868 -0.077114776 0.0 0.0
0.0 0.0 0.0 0.0 0.0 0.0 0.0 0.0
0.0 0.0 0.0 0.0 0.0 0.0 0.0 0.0
0.0 0.0 0.0 0.0 0.0 0.0 0.0 0.0
0.0 0.0 0.0 0.0 0.0 0.0 0.0 0.0
0.0 0.0 0.0 0.0 0.0 0.0 0.0 0.0
0.0 0.0 0.0 0.0 0.0 0.0 0.0 0.0
0.0 0.0 0.0 0.0 0.0 0.0 0.0 0.0
0.0 0.0 0.0 0.0 0.0 0.0 0.0 0.0
0.0 0.0 0.0
00000000: 0000 0000 0000 0000 0000 0000 06c5 5e3c
00000010: 107b f93a 5aee 9dbd 0000 0000 0000 0000
00000020: 0000 0000 0000 0000 0000 0000 0000 0000
00000030: 0000 0000 0000 0000 0000 0000 0000 0000
00000040: 0000 0000 0000 0000 0000 0000 0000 0000
00000050: 0000 0000 0000 0000 0000 0000 0000 0000
00000060: 0000 0000 0000 0000 0000 0000 0000 0000
00000070: 0000 0000 0000 0000 0000 0000 0000 0000
00000080: 0000 0000 0000 0000 0000 0000 0000 0000
00000090: 0000 0000 0000 0000 0000 0000 0000 0000
000000a0: 0000 0000 0000 0000 0000 0000 0000 0000
000000b0: 0000 0000 0000 0000 0000 0000 0000 0000
000000c0: 0000 0000 0000 0000 0000 0000 0000 0000
000000d0: 0000 0000 0000 0000 0000 0000 0000 0000
000000e0: 0000 0000 0000 0000 0000 0000 0000 0000
000000f0: 0000 0000 0000 0000 0000 0000 0000 0000
00000100: 0000 0000 0000 0000 0000 0000 0000 0000
00000110: 0000 0000 0000 0000 0000 0000 0000 0000
00000120: 0000 0000 0000 0000 0000 0000

model.3.log_s f4 [3]
0.06432822 0.2154277 0.6548261
00000000: 84be 833d 1499 5c3e afa2 273f

model.3.u f4 [3, 3]
0.0 -0.2707498 0.16854998 0.0 0.0 -0.08877783 0.0 0.0
0.0
00000000: 0000 0000 b89f 8abe 5e98 2c3e 0000 0000
00000010: 0000 0000 27d1 b5bd 0000 0000 0000 0000
00000020: 0000 0000

model.3.sign_s f4 [3]
-1.0 1.0 1.0
00000000: 0000 80bf 0000 803f 0000 803f

model.4._shift_and_log_scale.logs f4 [1, 4, 1, 1]
-0.3719205 -0.25974944 0.44760215 0.1604747
00000000: 5d6c bebe e1fd 84be 1c2c e53e 7b53 243e

model.4._shift_and_log_scale.conv2d_1.weight f4 [4, 4, 3, 3]
0.006479305 0.01866856 -0.0014201727 0.016010094 -0.33339834 0.024702735 0.006085726 0.021687208
0.00916066 0.007997317 -0.020145668 0.019920977 0.011240731 0.17131451 -0.007209972 0.018110769
-0.007951311 -0.0057233996 -0.037006017 -0.0016780123 -0.01429984 -0.039374985 -0.18288717 -0.031342145
-0.052272715 0.013329152 -0.019379796 0.023528822 -0.0067522707 0.035955485 -0.017689468 0.06809242
-0.0059790476 0.016073104 0.011113847 0.027830908 -0.0026827333 -0.012082289 0.012596358 -0.033900492
0.41824427 -0.029769348 0.019814111 -0.025087042 -0.005621574 0.00947357 -0.014843477 0.0029985027
-0.0018052838 -0.13571343 -0.0014919381 -0.0006101161 -0.006418669 0.001301777 0.009679017 -0.034179118
0.019737687 -0.04578653 0.15719572 -0.038252138 0.0186196 -0.025715424 0.0077820444 0.011392952
-0.006390328 0.0025656682 -0.01570194 0.017689178 -0.0040253457 0.0043733753 -0.00842686 0.01079466
-0.008809297 -0.001820732 -0.006651871 -0.004065324 0.059812076 -0.0011500588 -0.005319105 -0.00016017837
-0.0058289543 -0.00031048598 0.0019281998 -0.001131262 0.012776663 0.046239533 0.0075589707 0.0030411677
0.004065056 -0.0052062236 -0.0077973246 -0.0060879765 -0.0014083821 -0.015247736 -0.055478044 -0.0089250365
-0.011963783 0.000967373 -0.0074962047 0.0102821 -0.0013750099 0.0127378665 -0.003905725 0.013233759
-0.0007112585 0.0072562126 0.0030832058 0.010118959 -0.0015474603 0.031304624 0.0051306174 0.027016874
-0.5132782 0.039310515 -0.006917244 0.024812955 -0.00021657987 0.0073994556 -0.015773932 -0.009305348
-0.0018601704 -0.13351539 0.0077952133 -0.004374172 -0.0018343494 -0.004432307 -0.00011770742 0.0016339733
-0.008555818 -0.007063047 0.06070862 0.007943851 -0.0006343757 0.014364032 -0.010428061 0.018517636
-0.019321332 0.016720697 -0.031034298 0.05053322 -0.019732105 0.010384471 -0.015248698 0.012795048
00000000: 5a50 d43b cfee 983c 1725 baba 9a27 833c
00000010: 30b3 aabe 645d ca3c c56a c73b 5fa9 b13c
00000020: 9816 163c 2e07 033c 8708 a5bc 5131 a33c
00000030: 0b2b 383c 126d 2f3e a141 ecbb 095d 943c
00000040: 3746 02bc 5b8b bbbb 9f93 17bd c0f0 dbba
00000050: e049 6abc aa47 21bd c646 3bbe 9f60 00bd
00000060: ea1b 56bd 8462 5a3c 61c2 9ebc 84bf c03c
00000070: 2742 ddbb 0f46 133d 81e9 90bc 0a74 8b3d
00000080: e3eb c3bb beab 833c da16 363c a5fd e33c
00000090: ccd0 2fbb cbf4 45bc f460 4e3c 3edb 0abd
000000a0: 1d24 d63e d9de f3bc 3451 a23c 5783 cdbc
000000b0: 2e35 b8bb 0837 1b3c 0e32 73bc 8782 443b
000000c0: 469f ecba 76f8 0abe 238d c3ba 33f0 1fba
000000d0: b353 d2bb 63a0 aa3a bd94 1e3c 67ff 0bbd
000000e0: eeb0 a13c a88a 3bbd eaf7 203e 46ae 1cbd
000000f0: 2288 983c 27a9 d2bc 8500 ff3b 81a9 3a3c
00000100: f565 d1bb c524 283b 5ba1 80bc e5e8 903c
00000110: 0ce7 83bb 884e 8f3b d010 0abc 16dc 303c
00000120: df54 10bc a1a5 eeba f0f7 d9bb 6936 85bb
00000130: 82fd 743d 92bd 96ba e34b aebb 8ef5 27b9
00000140: d000 bfbb b9c8 a2b9 a6bb fc3a db46 94ba
00000150: 3555 513c aa65 3d3d 3eb1 f73b 544e 473b
00000160: 2934 853b f898 aabb b380 ffbb a67d c7bb
00000170: 7699 b8ba a4d1 79bc f23c 63bd 513a 12bc
00000180: be03 44bc 4e97 7d3a b9a2 f5bb 4176 283c
00000190: ad39 b4ba 7cb2 503c 31f7 7fbb 69d2 583c
000001a0: c073 3aba 86c5 ed3b 9c0f 4a3b fdc9 253c
000001b0: 27d4 caba 4739 003d bd1e a83b 7e52 dd3c
000001c0: 3366 03bf 1004 213d 0caa e2bb 8a44 cb3c
000001d0: b719 63b9 2277 f23b 5538 81bc 7575 18bc
000001e0: f6d0 f3ba 42b8 08be fd6e ff3b 3755 8fbb
000001f0: 8d6e f0ba e33c 91bb b1d9 f6b8 0c2b d63a
00000200: b42d 0cbc 2271 e7bb 9aa9 783d ed26 023c
00000210: 3c4c 26ba 1e57 6b3c 75da 2abc 4cb2 973c
00000220: c547 9ebc d8f9 883c a43b febc ecfb 4e3d
00000230: 39a5 a1bc a123 2a3c add5 79bc 52a2 513c

model.4._shift_and_log_scale.conv2d_1.bias f4 [4]
-0.052110244 0.04727625 -0.08284805 0.137895
00000000: 8d71 55bd bea4 413d 3dac a9bd 5934 0d3e

model.4._shift_and_log_scale.conv2d_2.weight f4 [4, 4, 1, 1]
0.0038918057 0.00018852607 -0.0033434518 0.0016339401 -0.0053221174 0.00028268385 0.004891971 -0.0001919945
0.10324669 0.05171466 -0.09799612 -0.035925604 -0.1507049 -0.054908276 0.14391151 0.06308776
00000000: aa0d 7f3b 15af 4539 d01d 5bbb ef29 d63a
00000010: 2865 aebb 2f35 9439 d44c a03b 2252 49b9
00000020: 0073 d33d c0d2 533d 31b2 c8bd ba26 13bd
00000030: 6352 1abe 80e7 60bd 8a5d 133e 2834 813d

model.4._shift_and_log_scale.conv2d_2.bias f4 [4]
0.0070302556 0.014323642 -0.007801229 0.023782142
00000000: 0f5e e63b b5ad 6a3c 74a1 ffbb c4d2 c23c

model.4._shift_and_log_scale.net.0.weight f4 [4, 4, 3, 3]
0.006479305 0.01866856 -0.0014201727 0.016010094 -0.33339834 0.024702735 0.006085726 0.021687208
0.00916066 0.007997317 -0.020145668 0.019920977 0.011240731 0.17131451 -0.007209972 0.018110769
-0.007951311 -0.0057233996 -0.037006017 -0.0016780123 -0.01429984 -0.039374985 -0.18288717 -0.031342145
-0.052272715 0.013329152 -0.019379796 0.023528822 -0.0067522707 0.035955485 -0.017689468 0.06809242
-0.0059790476 0.016073104 0.011113847 0.027830908 -0.0026827333 -0.012082289 0.012596358 -0.033900492
0.41824427 -0.029769348 0.019814111 -0.025087042 -0.005621574 0.00947357 -0.014843477 0.0029985027
-0.0018052838 -0.13571343 -0.0014919381 -0.0006101161 -0.006418669 0.001301777 0.009679017 -0.034179118
0.019737687 -0.04578653 0.15719572 -0.038252138 0.0186196 -0.025715424 0.0077820444 0.011392952
-0.006390328 0.0025656682 -0.01570194 0.017689178 -0.0040253457 0.0043733753 -0.00842686 0.01079466
-0.008809297 -0.001820732 -0.006651871 -0.004065324 0.059812076 -0.0011500588 -0.005319105 -0.00016017837
-0.0058289543 -0.00031048598 0.0019281998 -0.001131262 0.012776663 0.046239533 0.0075589707 0.0030411677
0.004065056 -0.0052062236 -0.0077973246 -0.0060879765 -0.0014083821 -0.015247736 -0.055478044 -0.0089250365
-0.011963783 0.000967373 -0.0074962047 0.0102821 -0.0013750099 0.0127378665 -0.003905725 0.013233759
-0.0007112585 0.0072562126 0.0030832058 0.010118959 -0.0015474603 0.031304624 0.0051306174 0.027016874
-0.5132782 0.039310515 -0.006917244 0.024812955 -0.00021657987 0.0073994556 -0.015773932 -0.009305348
-0.0018601704 -0.13351539 0.0077952133 -0.004374172 -0.0018343494 -0.004432307 -0.00011770742 0.0016339733
-0.008555818 -0.007063047 0.06070862 0.007943851 -0.0006343757 0.014364032 -0.010428061 0.018517636
-0.019321332 0.016720697 -0.031034298 0.05053322 -0.019732105 0.010384471 -0.015248698 0.012795048
00000000: 5a50 d43b cfee 983c 1725 baba 9a27 833c
00000010: 30b3 aabe 645d ca3c c56a c73b 5fa9 b13c
00000020: 9816 163c 2e07 033c 8708 a5bc 5131 a33c
00000030: 0b2b 383c 126d 2f3e a141 ecbb 095d 943c
00000040: 3746 02bc 5b8b bbbb 9f93 17bd c0f0 dbba
00000050: e049 6abc aa47 21bd c646 3bbe 9f60 00bd
00000060: ea1b 56bd 8462 5a3c 61c2 9ebc 84bf c03c
00000070: 2742 ddbb 0f46 133d 81e9 90bc 0a74 8b3d
00000080: e3eb c3bb beab 833c da16 363c a5fd e33c
00000090: ccd0 2fbb cbf4 45bc f460 4e3c 3edb 0abd
000000a0: 1d24 d63e d9de f3bc 3451 a23c 5783 cdbc
000000b0: 2e35 b8bb 0837 1b3c 0e32 73bc 8782 443b
000000c0: 469f ecba 76f8 0abe 238d c3ba 33f0 1fba
000000d0: b353 d2bb 63a0 aa3a bd94 1e3c 67ff 0bbd
000000e0: eeb0 a13c a88a 3bbd eaf7 203e 46ae 1cbd
000000f0: 2288 983c 27a9 d2bc 8500 ff3b 81a9 3a3c
00000100: f565 d1bb c524 283b 5ba1 80bc e5e8 903c
00000110: 0ce7 83bb 884e 8f3b d010 0abc 16dc 303c
00000120: df54 10bc a1a5 eeba f0f7 d9bb 6936 85bb
00000130: 82fd 743d 92bd 96ba e34b aebb 8ef5 27b9
00000140: d000 bfbb b9c8 a2b9 a6bb fc3a db46 94ba
00000150: 3555 513c aa65 3d3d 3eb1 f73b 544e 473b
00000160: 2934 853b f898 aabb b380 ffbb a67d c7bb
00000170: 7699 b8ba a4d1 79bc f23c 63bd 513a 12bc
00000180: be03 44bc 4e97 7d3a b9a2 f5bb 4176 283c
00000190: ad39 b4ba 7cb2 503c 31f7 7fbb 69d2 583c
000001a0: c073 3aba 86c5 ed3b 9c0f 4a3b fdc9 253c
000001b0: 27d4 caba 4739 003d bd1e a83b 7e52 dd3c
000001c0: 3366 03bf 1004 213d 0caa e2bb 8a44 cb3c
000001d0: b719 63b9 2277 f23b 5538 81bc 7575 18bc
000001e0: f6d0 f3ba 42b8 08be fd6e ff3b 3755 8fbb
000001f0: 8d6e f0ba e33c 91bb b1d9 f6b8 0c2b d63a
00000200: b42d 0cbc 2271 e7bb 9aa9 783d ed26 023c
00000210: 3c4c 26ba 1e57 6b3c 75da 2abc 4cb2 973c
00000220: c547 9ebc d8f9 883c a43b febc ecfb 4e3d
00000230: 39a5 a1bc a123 2a3c add5 79bc 52a2 513c

model.4._shift_and_log_scale.net.0.bias f4 [4]
-0.052110244 0.04727625 -0.08284805 0.137895
00000000: 8d71 55bd bea4 413d 3dac a9bd 5934 0d3e

model.4._shift_and_log_scale.net.1.weight f4 [4]
0.9470022 0.6933839 0.80676895 0.55324763
00000000: bc6e 723f 9b81 313f 6988 4e3f a3a1 0d3f

model.4._shift_and_log_scale.net.1.bias f4 [4]
0.010954335 0.5731245 0.07507198 0.63666666
00000000: d079 333c 4ab8 123f 57bf 993d 96fc 223f

model.4._shift_and_log_scale.net.1.running_mean f4 [4]
-0.096856005 0.040304147 -0.09400845 0.13145424
00000000: 715c c6bd f615 253d 8187 c0bd f19b 063e

model.4._shift_and_log_scale.net.1.running_var f4 [4]
0.00082343596 0.0003075442 7.120352e-05 0.00037907888
00000000: dadb 573a e23d a139 1953 9538 1bbf c639

model.4._shift_and_log_scale.net.3.weight f4 [4, 4, 1, 1]
0.0038918057 0.00018852607 -0.0033434518 0.0016339401 -0.0053221174 0.00028268385 0.004891971 -0.0001919945
0.10324669 0.05171466 -0.09799612 -0.035925604 -0.1507049 -0.054908276 0.14391151 0.06308776
00000000: aa0d 7f3b 15af 4539 d01d 5bbb ef29 d63a
00000010: 2865 aebb 2f35 9439 d44c a03b 2252 49b9
00000020: 0073 d33d c0d2 533d 31b2 c8bd ba26 13bd
00000030: 6352 1abe 80e7 60bd 8a5d 133e 2834 813d

model.4._shift_and_log_scale.net.3.bias f4 [4]
0.0070302556 0.014323642 -0.007801229 0.023782142
00000000: 0f5e e63b b5ad 6a3c 74a1 ffbb c4d2 c23c

model.4._shift_and_log_scale.net.4.weight f4 [4]
0.9474179 0.9575539 0.8983458 0.68166065
00000000: fb89 723f 4122 753f fef9 653f 5081 2e3f

model.4._shift_and_log_scale.net.4.bias f4 [4]
-0.059282646 0.032182533 -0.23262213 0.17312828
00000000: 5cd2 72bd d5d1 033d 7f34 6ebe 8a48 313e

model.4._shift_and_log_scale.net.4.running_mean f4 [4]
0.008785683 0.013848168 0.009602329 0.0187908
00000000: d3f1 0f3c 6de3 623c 1653 1d3c 2aef 993c

model.4._shift_and_log_scale.net.4.running_var f4 [4]
4.1423514e-06 5.1312445e-06 0.0014058553 0.002585506
00000000: 87fe 8a36 0e2d ac36 ad44 b83a 9871 293b

model.4._shift_and_log_scale.conv2d_3.weight f4 [4, 5, 3, 3]
-0.0009049389 0.003970387 -0.0015944045 0.0038379312 0.08175964 0.0037969882 0.00047248194 0.0050247093
-0.00023404066 -0.0021351674 -0.00886834 -0.0011726116 -0.006697467 -0.082989335 -0.008251732 -0.0039755963
-0.00987154 -0.0030955733 -0.0007581571 -0.002599217 0.00012309405 -0.0029740422 -0.051605716 -0.0027698914
-0.0007079007 -0.0021508478 -0.0006822139 0.00042095315 0.0054671457 0.00012478403 0.0047545093 0.05876553
0.005812172 0.0009612642 0.0065989695 0.001212749 0.030441951 0.0105636185 -0.06033958 0.082353055
0.0 0.02583855 -0.022817152 -0.025549635 0.02798168 0.0026532118 0.0010983335 0.00044664956
0.0003634571 0.04018286 0.0004301246 0.0038607894 -0.00080704544 0.0009432282 0.006375108 0.001905253
0.0044962554 0.0016333394 -0.046294343 0.0016722688 0.0013211408 0.0063161133 0.00642884 0.0011605462
0.0015963499 0.0026627958 0.0016744073 0.010061142 0.0019231851 9.230719e-05 0.0022760325 0.0010969751
2.5425881e-05 -0.0007701219 0.00027210097 -0.0009615456 0.0033959332 -0.0006625149 0.0013406398 -0.0034449806
0.000711869 -0.16759486 0.0664396 0.08576573 -0.024135955 0.0 0.003388109 0.09022948
-0.07279999 -0.088738605 -0.0152348075 -0.06333809 -0.05799503 -0.044107318 0.37092307 -0.036432628
-0.06341062 -0.03617569 -0.022140892 -0.0682678 -0.070061214 -0.040360905 -0.07002043 -0.43287495
-0.073736444 -0.028826993 -0.08335233 -0.06724797 0.00745801 0.044925265 0.013786775 0.031250983
-0.19533959 0.03212299 0.02271766 0.03421807 0.0019981943 0.011864189 0.028454442 0.009348669
0.016606905 0.22869565 0.041200154 0.014580259 0.035963163 0.00707172 0.005102001 0.007970609
-0.026114913 0.06407473 0.0 -0.038230196 -0.063267134 -0.03991299 0.05495506 0.039391596
0.011337029 0.048622254 0.0011247348 0.34663683 -0.023150608 0.061971407 -0.0024509185 0.03605469
0.08667955 0.01854019 0.03273319 0.04559264 -0.3715528 0.06298676 0.017678544 0.06987455
0.084119864 0.00783964 0.014698715 0.021028638 0.021412283 0.11982396 0.02412142 -0.0057510925
0.020049764 0.0065833465 -0.0029066892 0.0057437783 0.015645294 -0.0068594357 0.02366554 -0.014548489
0.019197607 -0.024236618 0.01316507 -0.08093358 -0.22302213 -0.044424348 -0.3781123 0.0
0.116588295 -0.14076614 -0.0017282837 -0.09277441
00000000: 6c39 6dba 051a 823b 56fb d0ba cd85 7b3b
00000010: 9971 a73d e4d6 783b 74b7 f739 51a6 a43b
00000020: d068 75b9 2aee 0bbb 844c 11bc 51b2 99ba
00000030: 6d76 dbbb 50f6 a9bd 4632 07bc b845 82bb
00000040: 3dbc 21bc 1adf 4abb 10bf 46ba a057 2abb
00000050: cf12 0139 26e8 42bb 8460 53bd 1187 35bb
00000060: 6992 39ba 3df5 0cbb 9ad6 32ba 60b3 dc39
00000070: be25 b33b 75d8 0239 b7cb 9b3b 20b4 703d
00000080: 0874 be3b 59fd 7b3a 2b3c d83b 1bf5 9e3a
00000090: 6661 f93c 0713 2d3c a326 77bd b8a8 a83d
000000a0: 0000 0000 5eab d33c 09eb babc 784d d1bc
000000b0: d639 e53c 82e1 2d3b f5f5 8f3a 4a2c ea39
000000c0: 638e be39 c896 243d 5982 e139 4c05 7d3b
000000d0: e78f 53ba f942 773a 48e6 d03b afb9 f93a
000000e0: 5355 933b c715 d63a 239f 3dbd 0830 db3a
000000f0: 212a ad3a 66f7 ce3b 05a9 d23b 781d 983a
00000100: 9d3c d13a 4d82 2e3b c977 db3a 7dd7 243c
00000110: 6213 fc3a 0c95 c138 7d29 153b 60c8 8f3a
00000120: aa49 d537 01e2 49ba c6a8 8e39 3c10 7cba
00000130: 4e8e 5e3b 9fac 2dba 68b8 af3a 2fc5 61bb
00000140: b89c 3a3a fd9d 2bbe 7c11 883d f1a5 af3d
00000150: c4b8 c5bc 0000 0000 090b 5e3b 3cca b83d
00000160: 2918 95bd 96bc b5bd 6a9b 79bc 67b7 81bd
00000170: 328c 6dbd e0a9 34bd a1e9 bd3e 613a 15bd
00000180: 6ddd 81bd f62c 14bd d160 b5bc fdcf 8bbd
00000190: 417c 8fbd 7a51 25bd df66 8fbd c9a1 ddbe
000001a0: 2203 97bd 9626 ecbc a0b4 aabd 4eb9 89bd
000001b0: 5362 f43b 8e03 383d ede1 613c 0801 003d
000001c0: 1a07 48be 6593 033d 631a ba3c 3f28 0c3d
000001d0: 23f4 023b 0462 423c 4a19 e93c 292b 193c
000001e0: 340b 883c 312f 6a3e 7ec1 283d 0ae2 6e3c
000001f0: 1c4e 133d e3b9 e73b b02e a73b 2897 023c
00000200: f1ee d5bc 9d39 833d 0000 0000 4497 1cbd
00000210: 3392 81bd ce7b 23bd 8f18 613d 1559 213d
00000220: f2be 393c 2128 473d d66b 933a 627a b13e
00000230: 58a6 bdbc bbd5 7d3d 979f 20bb 15ae 133d
00000240: 0c85 b13d 99e1 973c 3d13 063d 59bf 3a3d
00000250: 2b3c bebe 34ff 803d 98d2 903c 631a 8f3d
00000260: 0947 ac3d d571 003c e1d2 703c 4044 ac3c
00000270: d068 af3c 4466 f53d 499a c53c a973 bcbb
00000280: 673f a43c 1db9 d73b 277e 3ebb 4e36 bc3b
00000290: 8f2a 803c 1ec5 e0bb 3cde c13c c95c 6ebc
000002a0: 4d44 9d3c df8b c6bc 4eb2 573c 81c0 a5bd
000002b0: ea5f 64be 4ef6 35bd ef97 c1be 0000 0000
000002c0: d8c5 ee3d 0025 10be 9487 e2ba 8300 bebd

model.4._shift_and_log_scale.conv2d_3.bias f4 [4]
0.0389481 0.06701748 0.3791812 0.28355607
00000000: 0b88 1f3d 7640 893d 0a24 c23e 432e 913e

model.4._encoder.initial_layer.weight f4 [5, 10]
0.23685446 0.11216398 -0.15449992 0.027954008 0.18326528 -0.031463627 0.25348085 -0.07627002
0.11083771 -0.22907355 -0.3541358 -0.16051422 0.29061675 -0.08509186 -0.0008634187 -0.15321094
0.14749542 0.30885023 -0.23849475 -0.25635633 -0.08935908 -0.0015250815 -0.0806077 -0.20698552
-0.11342209 0.059745185 -0.01488704 0.07007055 -0.07251605 -0.15323238 -0.0869742 0.26002088
-0.21379504 0.014683847 -0.116614595 0.3103163 -0.4304405 -0.30315527 0.31160608 -0.20007414
0.21452133 -0.027292384 -0.06661559 -0.07062877 0.20094396 0.015114727 -0.15399235 -0.18668827
-0.10780214 0.15913099
00000000: fa89 723e 3bb6 e53d 3a35 1ebe ceff e43c
00000010: e5a9 3b3e 01e0 00bd 3ec8 813e 7533 9cbd
00000020: e2fe e23d 4292 6abe 4a51 b5be d75d 24be
00000030: b8cb 943e a444 aebd 0c57 62ba 54e3 1cbe
00000040: 0a09 173e 9e21 9e3e f837 74be 2341 83be
00000050: e501 b7bd 3ee5 c7ba a615 a5bd 03f4 53be
00000060: d749 e8bd 5eb7 743d c5e8 73bc 2681 8f3d
00000070: 4b83 94bd f3e8 1cbe 881f b2bd 7521 853e
00000080: 16ed 5abe 8594 703c a2d3 eebd c7e1 9e3e
00000090: b262 dcbe 2b37 9bbe d58a 9f3e 3ce0 4cbe
000000a0: 7bab 5b3e 4794 dfbc c16d 88bd d1a5 90bd
000000b0: 41c4 4d3e c3a3 773c 2cb0 1dbe 362b 3fbe
000000c0: 5ec7 dcbd 3cf3 223e

model.4._encoder.initial_layer.bias f4 [5]
-0.04739891 0.12998524 0.07990804 -0.18719685 0.40166423
00000000: 5c25 42bd da1a 053e d4a6 a33d 88b0 3fbe
00000010: efa6 cd3e

model.4._encoder.blocks.0.batch_norm_layers.0.weight f4 [5]
1.0 1.0 1.0 1.0 1.0
00000000: 0000 803f 0000 803f 0000 803f 0000 803f
00000010: 0000 803f

model.4._encoder.blocks.0.batch_norm_layers.0.bias f4 [5]
0.0 0.0 0.0 0.0 0.0
00000000: 0000 0000 0000 0000 0000 0000 0000 0000
00000010: 0000 0000

model.4._encoder.blocks.0.batch_norm_layers.0.running_mean f4 [5]
0.44286877 -0.07663508 -0.024370687 -0.70457983 0.462014
00000000: b2bf e23e daf2 9cbd 09a5 c7bc 585f 34bf
00000010: 198d ec3e

model.4._encoder.blocks.0.batch_norm_layers.0.running_var f4 [5]
6e-45 6e-45 6e-45 6e-45 6e-45
00000000: 0400 0000 0400 0000 0400 0000 0400 0000
00000010: 0400 0000

model.4._encoder.blocks.0.batch_norm_layers.1.weight f4 [5]
1.0 1.0 1.0 1.0 1.0
00000000: 0000 803f 0000 803f 0000 803f 0000 803f
00000010: 0000 803f

model.4._encoder.blocks.0.batch_norm_layers.1.bias f4 [5]
0.0 0.0 0.0 0.0 0.0
00000000: 0000 0000 0000 0000 0000 0000 0000 0000
00000010: 0000 0000

model.4._encoder.blocks.0.batch_norm_layers.1.running_mean f4 [5]
0.19775379 0.19494611 -0.38696265 0.4140622 0.42358375
00000000: f87f 4a3e f49f 473e f81f c6be f6ff d33e
00000010: f8df d83e

model.4._encoder.blocks.0.batch_norm_layers.1.running_var f4 [5]
6e-45 6e-45 6e-45 6e-45 6e-45
00000000: 0400 0000 0400 0000 0400 0000 0400 0000
00000010: 0400 0000

model.4._encoder.blocks.0.linear_layers.0.weight f4 [5, 5]
0.22477299 0.37929094 0.25868818 -0.13566399 -0.2967139 -0.033274055 0.37013075 -0.15009373
-0.41473246 0.18332557 0.43534964 -0.12731421 -0.3703034 -0.40564942 0.11207145 -0.033862885
-0.22583716 0.09039612 0.16983332 0.35567746 0.34720868 -0.06694059 -0.39433825 -0.40411252
0.41755867
00000000: e42a 663e 6c32 c23e c772 843e 80eb 0abe
00000010: e2ea 97be 604a 08bd c781 bd3e 2cb2 19be
00000020: d057 d4be b3b9 3b3e 26e6 de3e a85e 02be
00000030: 6898 bdbe 48b1 cfbe b785 e53d cfb3 0abd
00000040: db41 67be 9a21 b93d c9e8 2d3e 5b1b b63e
00000050: 56c5 b13e 2618 89bd b4e6 c9be d6e7 cebe
00000060: 40ca d53e

model.4._encoder.blocks.0.linear_layers.0.bias f4 [5]
0.19769311 0.1949437 -0.3869386 0.4141268 0.42366472
00000000: 1070 4a3e 529f 473e d11c c6be 6e08 d43e
00000010: 95ea d83e

model.4._encoder.blocks.0.linear_layers.1.weight f4 [5, 5]
-6.286335e-05 0.00062801293 0.00025980044 0.00031620444 9.287322e-05 0.00037281873 -0.000243652 -0.00039780024
-0.0009347085 -0.00075333694 0.00043340257 -0.0005921134 0.00014346647 0.00031919146 7.0803886e-05 -0.0006483498
0.0009563284 -0.0005814995 0.0008225006 -0.0007955083 -0.0002405485 0.0005439688 -0.00040858067 0.000840043
-0.0006881565
00000000: 81d5 83b8 3ca1 243a d335 8839 3ec8 a539
00000010: eec4 c238 e276 c339 d67c 7fb9 d88f d0b9
00000020: 3a07 75ba 967b 45ba 4f3a e339 0f38 1bba
00000030: 7d6f 1639 2759 a739 8c7c 9438 05f6 29ba
00000040: 1db2 7a3a c56f 18ba 159d 573a a989 50ba
00000050: bf3b 7cb9 2199 0e3a c536 d6b9 5536 5c3a
00000060: 6765 34ba

model.4._encoder.blocks.0.linear_layers.1.bias f4 [5]
0.15640527 -0.16864052 0.15050413 -0.12949449 0.15341385
00000000: b428 203e 1ab0 2cbe c11d 1a3e 349a 04be
00000010: 8518 1d3e

model.4._encoder.blocks.1.batch_norm_layers.0.weight f4 [5]
1.0 1.0 1.0 1.0 1.0
00000000: 0000 803f 0000 803f 0000 803f 0000 803f
00000010: 0000 803f

model.4._encoder.blocks.1.batch_norm_layers.0.bias f4 [5]
0.0 0.0 0.0 0.0 0.0
00000000: 0000 0000 0000 0000 0000 0000 0000 0000
00000010: 0000 0000

model.4._encoder.blocks.1.batch_norm_layers.0.running_mean f4 [5]
0.5991698 -0.24524058 0.12615082 -0.8339743 0.61534786
00000000: 3163 193f 5920 7bbe ae2d 013e 577f 55bf
00000010: 7087 1d3f

model.4._encoder.blocks.1.batch_norm_layers.0.running_var f4 [5]
6e-45 6e-45 6e-45 6e-45 6e-45
00000000: 0400 0000 0400 0000 0400 0000 0400 0000
00000010: 0400 0000

model.4._encoder.blocks.1.batch_norm_layers.1.weight f4 [5]
1.0 1.0 1.0 1.0 1.0
00000000: 0000 803f 0000 803f 0000 803f 0000 803f
00000010: 0000 803f

model.4._encoder.blocks.1.batch_norm_layers.1.bias f4 [5]
0.0 0.0 0.0 0.0 0.0
00000000: 0000 0000 0000 0000 0000 0000 0000 0000
00000010: 0000 0000

model.4._encoder.blocks.1.batch_norm_layers.1.running_mean f4 [5]
0.19958484 0.30566373 -0.07086175 -0.37060538 0.2215575
00000000: f85f 4c3e f57f 9c3e f71f 91bd fdbf bdbe
00000010: f8df 623e

model.4._encoder.blocks.1.batch_norm_layers.1.running_var f4 [5]
6e-45 6e-45 6e-45 6e-45 6e-45
00000000: 0400 0000 0400 0000 0400 0000 0400 0000
00000010: 0400 0000

model.4._encoder.blocks.1.linear_layers.0.weight f4 [5, 5]
0.1599362 -0.11211959 -0.096983775 0.32883766 -0.34658423 0.047500044 0.42056376 -0.061452597
0.34723368 -0.13772248 0.35999003 -0.43260327 -0.064454064 -0.07855147 0.14493522 0.17545415
0.34337816 -0.06662855 -0.017734295 0.3062569 -0.121003985 0.3920425 -0.29776025 -0.048392914
-0.024020262
00000000: 51c6 233e f59e e5bd 6e9f c6bd 695d a83e
00000010: 7d73 b1be 688f 423d 2254 d73e b8b5 7bbd
00000020: 9dc8 b13e 1f07 0dbe 9d50 b83e 2d7e ddbe
00000030: 7e00 84bd 98df a0bd e669 143e 41aa 333e
00000040: 43cf af3e 8d74 88bd 8347 91bc b4cd 9c3e
00000050: f0d0 f7bd cbb9 c83e 0874 98be a637 46bd
00000060: 24c6 c4bc

model.4._encoder.blocks.1.linear_layers.0.bias f4 [5]
0.19955114 0.30574927 -0.07088504 -0.37050778 0.22159086
00000000: 2257 4c3e 2b8b 9c3e 2d2c 91bd 32b3 bdbe
00000010: b7e8 623e

model.4._encoder.blocks.1.linear_layers.1.weight f4 [5, 5]
0.0008534742 0.0008110172 -0.0007408832 -0.00016021682 -0.0005917377 -0.0005713518 0.00023720706 0.000938648
-0.000801104 0.0006052045 -0.00051846675 -0.00019477429 0.00079377095 -0.00022617032 9.105576e-05 -0.00069903256
0.00085124094 -0.00012926984 -0.0007313905 0.00029281032 -0.0007110174 -0.0007935074 6.091917e-05 0.00079284364
-0.00028298402
00000000: afbb 5f3a 719a 543a d437 42ba e0ff 27b9
00000010: d81e 1bba c5c6 15ba c9ba 7839 9a0f 763a
00000020: 2e01 52ba 96a6 1e3a b7e9 07ba 533c 4cb9
00000030: 1115 503a 2228 6db9 30f5 be38 483f 37ba
00000040: d025 5f3a 9c8c 07b9 c9ba 3fba 5684 9939
00000050: 9263 3aba 6103 50ba 7683 7f38 d6d6 4f3a
00000060: 795d 94b9

model.4._encoder.blocks.1.linear_layers.1.bias f4 [5]
0.15771571 -0.1673303 0.15100572 -0.13093945 0.15378162
00000000: 3a80 213e a258 2bbe 3ea1 1a3e fe14 06be
00000010: ee78 1d3e

model.4._encoder.blocks.2.batch_norm_layers.0.weight f4 [5]
1.0 1.0 1.0 1.0 1.0
00000000: 0000 803f 0000 803f 0000 803f 0000 803f
00000010: 0000 803f

model.4._encoder.blocks.2.batch_norm_layers.0.bias f4 [5]
0.0 0.0 0.0 0.0 0.0
00000000: 0000 0000 0000 0000 0000 0000 0000 0000
00000010: 0000 0000

model.4._encoder.blocks.2.batch_norm_layers.0.running_mean f4 [5]
0.7568843 -0.4125403 0.27719793 -0.9648333 0.769153
00000000: 2bc3 413f 7b38 d3be e3ec 8d3e 51ff 76bf
00000010: 36e7 443f

model.4._encoder.blocks.2.batch_norm_layers.0.running_var f4 [5]
6e-45 6e-45 6e-45 6e-45 6e-45
00000000: 0400 0000 0400 0000 0400 0000 0400 0000
00000010: 0400 0000

model.4._encoder.blocks.2.batch_norm_layers.1.weight f4 [5]
1.0 1.0 1.0 1.0 1.0
00000000: 0000 803f 0000 803f 0000 803f 0000 803f
00000010: 0000 803f

model.4._encoder.blocks.2.batch_norm_layers.1.bias f4 [5]
0.0 0.0 0.0 0.0 0.0
00000000: 0000 0000 0000 0000 0000 0000 0000 0000
00000010: 0000 0000

model.4._encoder.blocks.2.batch_norm_layers.1.running_mean f4 [5]
0.27734357 -0.28515616 0.44531232 -0.26513654 0.44653302
00000000: faff 8d3e fdff 91be faff e33e fabf 87be
00000010: fa9f e43e

model.4._encoder.blocks.2.batch_norm_layers.1.running_var f4 [5]
6e-45 6e-45 6e-45 6e-45 6e-45
00000000: 0400 0000 0400 0000 0400 0000 0400 0000
00000010: 0400 0000

model.4._encoder.blocks.2.linear_layers.0.weight f4 [5, 5]
-0.14073135 -0.3596147 0.00018477945 0.33649918 0.3767844 0.04172534 0.1015725 -0.19360845
0.3375758 -0.18608937 -0.31065816 0.06886798 0.2680533 -0.403204 0.40426654 0.16087663
-0.31332356 -0.09633316 0.38799354 -0.34311777 -0.13071035 0.14667724 -0.39179713 0.2451617
0.23279597
00000000: e11b 10be 6b1f b8be 5bc1 4139 9f49 ac3e
00000010: e3e9 c03e 31e8 2a3d 3e05 d03d 4b41 46be
00000020: bcd6 ac3e 368e 3ebe 960e 9fbe a80a 8d3d
00000030: 483e 893e c170 cebe 06fc ce3e d8bc 243e
00000040: f26b a0be 524a c5bd 17a7 c63e 22ad afbe
00000050: efd8 05be 8f32 163e a299 c8be ab0b 7b3e
00000060: 1162 6e3e

model.4._encoder.blocks.2.linear_layers.0.bias f4 [5]
0.27736434 -0.28511974 0.44542518 -0.265091 0.44647142
00000000: b302 8e3e 37fb 91be c50e e43e 02ba 87be
00000010: e797 e43e

model.4._encoder.blocks.2.linear_layers.1.weight f4 [5, 5]
0.000118122705 -0.0004688517 -0.0003454949 0.000270854 -0.00069536525 0.00016499568 0.00043272474 -0.00039407017
0.0008306412 -6.581045e-05 0.0004537127 0.0009903064 -0.00030566836 0.00054340815 -0.00028602924 -0.00014607298
-0.00016947115 -6.2125923e-06 -0.00037776842 0.00023438693 3.768039e-05 0.0006338898 -0.00020240534 0.00010028017
-0.00037199035
00000000: a5b8 f738 36d0 f5b9 8a23 b5b9 6901 8e39
00000010: 2c49 36ba b102 2d39 55df e239 349b ceb9
00000020: 63bf 593a b703 8ab8 4ae0 ed39 2bcd 813a
00000030: 1d42 a0b9 8173 0e3a 32f6 95b9 2b2b 19b9
00000040: 11b4 31b9 c375 d0b6 380f c6b9 c3c5 7539
00000050: 030b 1e38 a02b 263a c53c 54b9 824d d238
00000060: b307 c3b9

model.4._encoder.blocks.2.linear_layers.1.bias f4 [5]
0.1564076 -0.16778494 0.15047044 -0.1308153 0.15355314
00000000: 5029 203e d1cf 2bbe ec14 1a3e 72f4 05be
00000010: 093d 1d3e

model.4._encoder.final_layer.weight f4 [1, 5]
0.27909604 -0.115500316 0.31852818 -0.14502813 0.3399048
00000000: ade5 8e3e 6e8b ecbd 2016 a33e 4182 14be
00000010: 0008 ae3e

model.5.log_s f4 [3]
-0.059164446 0.38134474 0.15119386
00000000: 6b56 72bd 9e3f c33e 90d2 1a3e

model.5.u f4 [3, 3]
0.0 -0.1226666 0.025028164 0.0 0.0 -0.25678232 0.0 0.0
0.0
00000000: 0000 0000 a038 fbbd dd07 cd3c 0000 0000
00000010: 0000 0000 f978 83be 0000 0000 0000 0000
00000020: 0000 0000

model.5.sign_s f4 [3]
-1.0 1.0 -1.0
00000000: 0000 80bf 0000 803f 0000 80bf

model.6._shift_and_log_scale.logs f4 [1, 4, 1, 1]
-0.19972096 -0.20919554 0.2687726 0.23972207
00000000: a783 4cbe 5b37 56be 909c 893e b479 753e

model.6._shift_and_log_scale.conv2d_1.weight f4 [4, 4, 3, 3]
0.00020424531 0.00030090805 -0.00045937212 -0.00036931812 -4.3633987e-05 -7.637799e-05 0.00023123281 -0.0003864465
0.0004127905 0.0005597686 0.001473183 -0.014935774 0.002436702 0.0012137208 0.0015108868 -0.0012705053
0.0017768549 0.0005097239 0.0003751349 -0.0018192334 -0.002282582 0.0014801897 0.00035482403 -0.0012030784
-0.00088549557 0.002342359 -0.0012815505 0.00033613876 -0.0012184079 0.0035368488 0.0021038828 -0.002128723
-0.0017489254 -0.0037197643 0.0027597148 0.00046558407 0.0005325384 -0.007294206 0.0056902906 0.00403997
0.0035588145 -0.007080415 -0.005114579 0.004511559 0.00020971982 0.0078097414 0.024307724 -0.032745652
0.041824862 -0.060676035 0.021123208 -0.051991746 0.038493372 0.011937806 0.026659008 -0.00030531944
-0.026728978 0.027230706 -0.003996462 -0.019294828 -0.056129355 0.0066376734 0.045526605 0.0066664186
-0.0073062857 0.001110019 0.060867455 -0.05423197 -0.007994706 -0.066826545 0.06092775 0.0066698077
-0.0042266585 0.020951701 -0.02148286 -0.101004064 0.08987202 0.02003384 0.0967977 -0.10166061
-0.0043210885 0.0025173351 -0.0034349733 0.0009001524 -0.015819361 0.029122857 -0.0037878945 0.0077807554
-0.022504834 0.0037151785 0.004012185 -0.01086861 0.0063874745 0.009989577 0.0016437826 -0.0010930131
-0.026774818 0.022056049 -0.0053136386 0.0049475264 -0.010235355 0.005505002 0.073876575 -0.07204803
-0.0024533207 -0.074134305 0.07953843 -0.0037844835 0.0022620223 0.0026101745 -0.0052816733 0.01602206
-0.019033972 0.0029646305 -0.018968197 0.017247105 0.001758351 -0.0029474387 -0.009436435 0.011881966
0.013040583 0.00043234456 -0.008229168 -0.014818431 0.013305376 -0.0037399535 -0.021540202 0.0104958145
0.011085985 0.0032593717 -0.022218572 0.02561619 0.01179896 0.01818292 -0.03634704 -0.0062889536
0.009124367 -0.0029140413 -0.090074696 0.07973737 0.009113505 0.097483136 -0.09004083 -0.006978033
00000000: af2a 5639 32c3 9d39 e2d7 f0b9 0aa1 c1b9
00000010: a303 37b8 1f2d a0b8 1677 7239 f99b cab9
00000020: ce6b d839 6fbd 123a d217 c13a 2db5 74bc
00000030: 13b1 1f3b b615 9f3a f308 c63a 1587 a6ba
00000040: 5be5 e83a fe9e 053a c1ad c439 5873 eeba
00000050: 5f97 15bb ed02 c23a ad07 ba39 9db0 9dba
00000060: 9a20 68ba 4382 193b b3f9 a7ba c83b b039
00000070: fcb2 9fba 7aca 673b 4ce1 093b 0c82 0bbb
00000080: 333c e5ba 4ac7 73bb 55dc 343b a319 f439
00000090: 0c9a 0b3a 3c04 efbb 9e75 ba3b ba61 843b
000000a0: 003b 693b d302 e8bb 3398 a7bb b3d5 933b
000000b0: 3ce8 5b39 dce8 ff3b fe20 c73c 4e20 06bd
000000c0: 8c50 2b3d 6f87 78bd 940a ad3c 4cf5 54bd
000000d0: 3aab 1d3d ca96 433c fe63 da3c 4813 a0b9
000000e0: bbf6 dabc ee12 df3c c1f4 82bb 3010 9ebc
000000f0: e5e7 65bd d780 d93b 1b7a 3a3d f971 da3b
00000100: 9169 efbb 0f7e 913a 2750 793d 5822 5ebd
00000110: 3afc 02bc 5bdc 88bd 608f 793d 678e da3b
00000120: c87f 8abb e7a2 ab3c d3fc afbc 38db cebd
00000130: d20e b83d 021e a43c df3d c63d 7033 d0bd
00000140: eb97 8dbb e0f9 243b 4a1d 61bb 34f8 6b3a
00000150: 9b97 81bc 0f93 ee3c 533e 78bb b5f5 fe3b
00000160: 0f5c b8bc 5a7a 733b a678 833b 4112 32bc
00000170: 054e d13b 53ab 233c 3174 d73a 6f43 8fba
00000180: dd56 dbbc e3ae b43c 081e aebb dc1e a23b
00000190: 31b2 27bc 4e63 b43b 9a4c 973d eb8d 93bd
000001a0: e4c7 20bb bad3 97bd 0be5 a23d 1905 78bb
000001b0: 703e 143b 760f 2b3b e311 adbb b240 833c
000001c0: 22ed 9bbc 3f4a 423b 3163 9bbc cd49 8d3c
000001d0: 7878 e63a d129 41bb 479b 1abc 94ac 423c
000001e0: 2ba8 553c 4eac e239 a2d3 06bc 01c9 72bc
000001f0: cbfe 593c 021a 75bb 1475 b0bc a3f6 2b3c
00000200: fea1 353c 2f9b 553b b903 b6bc 0bd9 d13c
00000210: 6d50 413c 59f4 943c a2e0 14bd 9113 cebb
00000220: 5e7e 153c 80f9 3ebb 1579 b8bd 594d a33d
00000230: cf50 153c 3da5 c73d 5467 b8bd fca7 e4bb

model.6._shift_and_log_scale.conv2d_1.bias f4 [4]
-0.016743463 0.025668344 -0.079314545 0.0036069525
00000000: 9629 89bc 6b46 d23c aa6f a2bd 9f62 6c3b

model.6._shift_and_log_scale.conv2d_2.weight f4 [4, 4, 1, 1]
-0.0044613625 -0.00018973237 5.479042e-05 0.0001242173 0.0015755877 -0.0029353162 0.003953781 0.001908101
0.00067017716 -0.0044955313 -0.0023469743 -0.0050810697 0.009385124 -0.0011539776 -0.0007459537 -7.676459e-06
00000000: 9f30 92bb e5f2 46b9 c4ce 6538 5440 0239
00000010: f383 ce3a 6f5e 40bb b88e 813b 3f19 fa3a
00000020: d4ae 2f3a 404f 93bb b2cf 19bb 1a7f a6bb
00000030: 10c4 193c 1041 97ba 1b8c 43ba 24ca 00b7

model.6._shift_and_log_scale.conv2d_2.bias f4 [4]
0.019601168 0.024380269 -0.17524482 -0.11424518
00000000: a192 a03c 21b9 c73c 6173 33be 60f9 e9bd

model.6._shift_and_log_scale.net.0.weight f4 [4, 4, 3, 3]
0.00020424531 0.00030090805 -0.00045937212 -0.00036931812 -4.3633987e-05 -7.637799e-05 0.00023123281 -0.0003864465
0.0004127905 0.0005597686 0.001473183 -0.014935774 0.002436702 0.0012137208 0.0015108868 -0.0012705053
0.0017768549 0.0005097239 0.0003751349 -0.0018192334 -0.002282582 0.0014801897 0.00035482403 -0.0012030784
-0.00088549557 0.002342359 -0.0012815505 0.00033613876 -0.0012184079 0.0035368488 0.0021038828 -0.002128723
-0.0017489254 -0.0037197643 0.0027597148 0.00046558407 0.0005325384 -0.007294206 0.0056902906 0.00403997
0.0035588145 -0.007080415 -0.005114579 0.004511559 0.00020971982 0.0078097414 0.024307724 -0.032745652
0.041824862 -0.060676035 0.021123208 -0.051991746 0.038493372 0.011937806 0.026659008 -0.00030531944
-0.026728978 0.027230706 -0.003996462 -0.019294828 -0.056129355 0.0066376734 0.045526605 0.0066664186
-0.0073062857 0.001110019 0.060867455 -0.05423197 -0.007994706 -0.066826545 0.06092775 0.0066698077
-0.0042266585 0.020951701 -0.02148286 -0.101004064 0.08987202 0.02003384 0.0967977 -0.10166061
-0.0043210885 0.0025173351 -0.0034349733 0.0009001524 -0.015819361 0.029122857 -0.0037878945 0.0077807554
-0.022504834 0.0037151785 0.004012185 -0.01086861 0.0063874745 0.009989577 0.0016437826 -0.0010930131
-0.026774818 0.022056049 -0.0053136386 0.0049475264 -0.010235355 0.005505002 0.073876575 -0.07204803
-0.0024533207 -0.074134305 0.07953843 -0.0037844835 0.0022620223 0.0026101745 -0.0052816733 0.01602206
-0.019033972 0.0029646305 -0.018968197 0.017247105 0.001758351 -0.0029474387 -0.009436435 0.011881966
0.013040583 0.00043234456 -0.008229168 -0.014818431 0.013305376 -0.0037399535 -0.021540202 0.0104958145
0.011085985 0.0032593717 -0.022218572 0.02561619 0.01179896 0.01818292 -0.03634704 -0.0062889536
0.009124367 -0.0029140413 -0.090074696 0.07973737 0.009113505 0.097483136 -0.09004083 -0.006978033
00000000: af2a 5639 32c3 9d39 e2d7 f0b9 0aa1 c1b9
00000010: a303 37b8 1f2d a0b8 1677 7239 f99b cab9
00000020: ce6b d839 6fbd 123a d217 c13a 2db5 74bc
00000030: 13b1 1f3b b615 9f3a f308 c63a 1587 a6ba
00000040: 5be5 e83a fe9e 053a c1ad c439 5873 eeba
00000050: 5f97 15bb ed02 c23a ad07 ba39 9db0 9dba
00000060: 9a20 68ba 4382 193b b3f9 a7ba c83b b039
00000070: fcb2 9fba 7aca 673b 4ce1 093b 0c82 0bbb
00000080: 333c e5ba 4ac7 73bb 55dc 343b a319 f439
00000090: 0c9a 0b3a 3c04 efbb 9e75 ba3b ba61 843b
000000a0: 003b 693b d302 e8bb 3398 a7bb b3d5 933b
000000b0: 3ce8 5b39 dce8 ff3b fe20 c73c 4e20 06bd
000000c0: 8c50 2b3d 6f87 78bd 940a ad3c 4cf5 54bd
000000d0: 3aab 1d3d ca96 433c fe63 da3c 4813 a0b9
000000e0: bbf6 dabc ee12 df3c c1f4 82bb 3010 9ebc
000000f0: e5e7 65bd d780 d93b 1b7a 3a3d f971 da3b
00000100: 9169 efbb 0f7e 913a 2750 793d 5822 5ebd
00000110: 3afc 02bc 5bdc 88bd 608f 793d 678e da3b
00000120: c87f 8abb e7a2 ab3c d3fc afbc 38db cebd
00000130: d20e b83d 021e a43c df3d c63d 7033 d0bd
00000140: eb97 8dbb e0f9 243b 4a1d 61bb 34f8 6b3a
00000150: 9b97 81bc 0f93 ee3c 533e 78bb b5f5 fe3b
00000160: 0f5c b8bc 5a7a 733b a678 833b 4112 32bc
00000170: 054e d13b 53ab 233c 3174 d73a 6f43 8fba
00000180: dd56 dbbc e3ae b43c 081e aebb dc1e a23b
00000190: 31b2 27bc 4e63 b43b 9a4c 973d eb8d 93bd
000001a0: e4c7 20bb bad3 97bd 0be5 a23d 1905 78bb
000001b0: 703e 143b 760f 2b3b e311 adbb b240 833c
000001c0: 22ed 9bbc 3f4a 423b 3163 9bbc cd49 8d3c
000001d0: 7878 e63a d129 41bb 479b 1abc 94ac 423c
000001e0: 2ba8 553c 4eac e239 a2d3 06bc 01c9 72bc
000001f0: cbfe 593c 021a 75bb 1475 b0bc a3f6 2b3c
00000200: fea1 353c 2f9b 553b b903 b6bc 0bd9 d13c
00000210: 6d50 413c 59f4 943c a2e0 14bd 9113 cebb
00000220: 5e7e 153c 80f9 3ebb 1579 b8bd 594d a33d
00000230: cf50 153c 3da5 c73d 5467 b8bd fca7 e4bb

model.6._shift_and_log_scale.net.0.bias f4 [4]
-0.016743463 0.025668344 -0.079314545 0.0036069525
00000000: 9629 89bc 6b46 d23c aa6f a2bd 9f62 6c3b

model.6._shift_and_log_scale.net.1.weight f4 [4]
0.55327445 0.50008714 0.33389065 0.41758496
00000000: 65a3 0d3f b605 003f b7f3 aa3e b2cd d53e

model.6._shift_and_log_scale.net.1.bias f4 [4]
0.04651495 0.013961594 0.0058349427 0.0032122673
00000000: 7686 3e3d 2bbf 643c 0c33 bf3b e784 523b

model.6._shift_and_log_scale.net.1.running_mean f4 [4]
-0.019015366 0.025908036 -0.07924272 0.0035172738
00000000: 1dc6 9bbc 173d d43c 024a a2bd 1082 663b

model.6._shift_and_log_scale.net.1.running_var f4 [4]
3.4480563e-06 1.5584397e-05 3.2751588e-05 1.3378183e-05
00000000: 2865 6736 3dbb 8237 c05e 0938 dc72 6037

model.6._shift_and_log_scale.net.3.weight f4 [4, 4, 1, 1]
-0.0044613625 -0.00018973237 5.479042e-05 0.0001242173 0.0015755877 -0.0029353162 0.003953781 0.001908101
0.00067017716 -0.0044955313 -0.0023469743 -0.0050810697 0.009385124 -0.0011539776 -0.0007459537 -7.676459e-06
00000000: 9f30 92bb e5f2 46b9 c4ce 6538 5440 0239
00000010: f383 ce3a 6f5e 40bb b88e 813b 3f19 fa3a
00000020: d4ae 2f3a 404f 93bb b2cf 19bb 1a7f a6bb
00000030: 10c4 193c 1041 97ba 1b8c 43ba 24ca 00b7

model.6._shift_and_log_scale.net.3.bias f4 [4]
0.019601168 0.024380269 -0.17524482 -0.11424518
00000000: a192 a03c 21b9 c73c 6173 33be 60f9 e9bd

model.6._shift_and_log_scale.net.4.weight f4 [4]
1.3402028 0.4909352 1.0907667 0.42778167
00000000: c48b ab3f dc5b fb3e 3e9e 8b3f 3306 db3e

model.6._shift_and_log_scale.net.4.bias f4 [4]
-0.026909793 0.10327317 -0.011204195 0.34971154
00000000: ed71 dcbc e280 d33d cd91 37bc 640d b33e

model.6._shift_and_log_scale.net.4.running_mean f4 [4]
0.019069107 0.025087086 -0.17616881 -0.11408583
00000000: d136 9c3c 6f83 cd3c 9965 34be d5a5 e9bd

model.6._shift_and_log_scale.net.4.running_var f4 [4]
6.084946e-07 9.41319e-07 2.4443368e-06 2.6962844e-06
00000000: 6e57 2335 f3ae 7c35 6309 2436 d0f1 3436

model.6._shift_and_log_scale.conv2d_3.weight f4 [4, 5, 3, 3]
-0.0037855282 -0.0049713682 0.0060465466 -0.009074069 -0.0018568703 -0.012480183 0.0028974134 -0.0095683895
0.00075120095 0.00030798346 -0.0019030044 0.0061237453 0.0006662818 -0.008386887 0.015019649 -0.006404512
0.012167513 0.005006436 0.009474862 -0.003383865 0.0015939347 -0.011587366 0.028813485 -0.020058945
0.005746799 -0.0058937506 0.010006228 0.012856153 -0.011617399 0.007124791 -0.009657439 0.010251252
-0.009511516 0.014976809 -0.0065734475 0.0058428408 -0.074008964 -0.040353052 0.015057736 0.012863318
0.0 0.05995626 0.098249316 0.029969975 -0.08397239 -0.0017712225 0.012325582 -0.016399546
0.012147934 -0.011729752 0.0153019605 -0.015305263 0.008667012 -0.0011741857 0.019337812 -0.012636231
-0.002061477 -0.014741553 0.00062768965 -0.007116999 0.007288952 -0.012107098 0.01280764 -0.023857202
0.04177786 -0.056492556 0.018356288 -0.033432875 0.03599794 -0.030743457 0.026940646 -0.031170161
-0.006042072 0.017728122 -0.018315965 0.03612816 -0.043992884 0.016903454 -0.025532069 0.026643472
-0.00684346 0.029726952 0.01945968 -0.0586168 -0.03348037 0.0 -0.008075797 -0.09407261
0.038586784 0.059965104 0.24487787 0.36053106 0.3249134 0.4068588 0.330031 0.23660208
1.0833201 0.3647049 0.22085688 -0.014635669 -0.04215286 -0.035116922 -0.010424954 -0.021945747
-0.028365111 -0.03858952 0.010238106 -0.0041752253 0.11836973 0.27247912 0.23477598 0.17681855
0.2862759 0.24768463 0.11990621 0.18800046 0.11054822 0.038583983 0.071435854 0.034842152
-0.044845935 0.11420048 -0.0154510895 -0.3243458 -0.0092012 0.074848145 -0.051106125 0.15407616
-0.0014385406 0.049522378 0.0 0.096599065 -0.018984396 0.042832214 -0.009282133 0.09558913
0.14862785 0.21116209 0.06313596 0.13752036 0.073180206 0.33022314 0.10639641 0.08608027
-0.011211973 -0.014954462 -0.013605799 0.0033576663 0.0089722965 -0.0055490355 -0.037225597 0.0026833417
-0.0052903 0.06351831 0.09253529 0.121806756 0.085558996 0.19264746 0.122256555 0.082812876
0.07794979 0.045975238 0.043268032 0.02451811 0.025928887 -0.093368106 0.15304075 -0.008945626
-0.50906813 -0.024162313 0.047669895 -0.07041984 0.043942224 -0.008542718 -0.035817903 0.0
0.21022111 -0.09181536 0.11418044 -0.20029257
00000000: a016 78bb dce6 a2bb 1c22 c63b 67ab 14bc
00000010: 3a62 f3ba ae79 4cbc 88e2 3d3b bcc4 1cbc
00000020: 3eec 443a d778 a139 3b6e f9ba b3a9 c83b
00000030: 6aa9 2e3a 2769 09bc f914 763c f1dc d1bb
00000040: 405a 473c 070d a43b 743c 1b3c d6c3 5dbb
00000050: 93eb d03a f0d8 3dbc 420a ec3c a852 a4bc
00000060: a54f bc3b 5d20 c1bb 2af1 233c 9da2 523c
00000070: e756 3ebc 1477 e93b 3c3a 1ebc def4 273c
00000080: 31d6 1bbc 4a61 753c 1366 d7bb 4d75 bf3b
00000090: 0392 97bd 3e49 25bd b9b4 763c abc0 523c
000000a0: 0000 0000 b294 753d f036 c93d 9883 f53c
000000b0: b7f9 abbd 5d28 e8ba 3df1 493c 5758 86bc
000000c0: 2108 473c 252e 40bc 13b5 7a3c edc2 7abc
000000d0: 1500 0e3c 22e7 99ba 556a 9e3c 3208 4fbc
000000e0: d819 07bb 8e86 71bc 8a8b 243a b735 e9bb
000000f0: 29d8 ee3b d95c 46bc 23d7 513c 2e70 c3bc
00000100: 431f 2b3d bd64 67bd ed5f 963c e9f0 08bd
00000110: 9372 133d b4d9 fbbc a1b2 dc3c 9158 ffbc
00000120: 93fc c5bb 913a 913c 5d0b 96bc 1ffb 133d
00000130: e231 34bd 1d79 8a3c a128 d1bc 6943 da3c
00000140: 1a3f e0bb f085 f33c e869 9f3c 2b18 70bd
00000150: b622 09bd 0000 0000 5950 04bc 24a9 c0bd
00000160: 2d0d 1e3d f89d 753d 44c1 7a3e 8797 b83e
00000170: 0d5b a63e cc4f d03e d3f9 a83e d147 723e
00000180: 3caa 8a3f 9aba ba3e 4e28 623e 72ca 6fbc
00000190: 7aa8 2cbd c3d6 0fbd 6dcd 2abc 91c7 b3bc
000001a0: f35d e8bc 0b10 1ebd bbbd 273c 54d0 88bb
000001b0: d46b f23d 6282 8b3e 1d69 703e ec0f 353e
000001c0: c192 923e 0aa1 7d3e 6391 f53d 3183 403e
000001d0: 1b67 e23d 3d0a 1e3d f64c 923d a5b6 0e3d
000001e0: 5fb0 37bd f1e1 e93d 9126 7dbc a710 a6be
000001f0: a1c0 16bc fc49 993d a854 51bd 24c6 1d3e
00000200: 6a8d bcba fad7 4a3d 0000 0000 bbd5 c53d
00000210: 2a85 9bbc d570 2f3d 1614 18bc 3cc4 c33d
00000220: e631 183e e03a 583e 6d4d 813d 23d2 0c3e
00000230: 81df 953d 0213 a93e 5ce6 d93d da4a b03d
00000240: 6cb2 37bc 8f03 75bc dbea 5ebc 4b0c 5c3b
00000250: 8a00 133c afd4 b5bb de79 18bd 01db 2f3b
00000260: 415a adbb e315 823d 2483 bd3d d275 f93d
00000270: 8e39 af3d 6045 453e a561 fa3d cc99 a93d
00000280: 24a4 9f3d 8850 3c3d d239 313d 34da c83c
00000290: d168 d43c c737 bfbd b7b6 1c3e ad90 12bc
000002a0: 4a52 02bf 0bf0 c5bc 8241 433d 4738 90bd
000002b0: c3fc 333d c2f6 0bbc cbb5 12bd 0000 0000
000002c0: 3444 573e b109 bcbd 6fd7 e93d 7f19 4dbe

model.6._shift_and_log_scale.conv2d_3.bias f4 [4]
-0.07087912 -0.03665233 0.006708875 0.24756901
00000000: 1229 91bd c120 16bd 1fd6 db3b bb82 7d3e

model.6._encoder.initial_layer.weight f4 [5, 10]
-0.33572546 0.11960765 0.06680223 0.17432866 0.30051735 -0.19795513 -0.059640016 0.1057986
0.16683169 0.14994647 -0.34268057 -0.24993253 0.25310388 -0.18032433 0.202173 -0.30125234
-0.2790969 0.0033516658 0.05471486 0.025561323 -0.13852988 -0.035210248 0.077445574 0.31293404
-0.20461582 -0.017265018 -0.35889205 0.2774676 0.27070358 -0.008623292 -0.33612686 -0.19538644
0.22627348 -0.021776592 0.29782632 0.18033266 0.050287478 0.250112 -0.20549816 0.09256056
-0.35746187 0.1586683 -0.028431972 0.027375808 -0.21870591 -0.28262085 -0.10724905 0.073486716
0.02746843 0.21478018
00000000: 35e4 abbe dbf4 f43d 9ccf 883d 3683 323e
00000010: 69dd 993e c0b4 4abe 1749 74bd f0ac d83d
00000020: edd5 2a3e 918b 193e d473 afbe 50ee 7fbe
00000030: d596 813e f1a6 38be 7006 4f3e bf3d 9abe
00000040: cae5 8ebe 9fa7 5b3b b01c 603d fb65 d13c
00000050: c7da 0dbe 9f38 10bd c99b 9e3d e438 a03e
00000060: cf86 51be 5e6f 8dbc b3c0 b7be 3c10 8e3e
00000070: a999 8a3e b548 0dbc d218 acbe 6213 48be
00000080: 3cb4 673e d364 b2bc b17c 983e 20a9 383e
00000090: 3efa 4d3d ae0e 803e 1c6e 52be 6490 bd3d
000000a0: 3e05 b7be f179 223e 2bea e8bc 3b43 e03c
000000b0: 71f4 5fbe aeb3 90be 64a5 dbbd 3480 963d
000000c0: 7905 e13c 56ef 5b3e

model.6._encoder.initial_layer.bias f4 [5]
-0.35952786 -0.11213077 -0.41234675 -0.16098888 -0.29852945
00000000: 0914 b8be d1a4 e5bd 1d1f d3be 45da 24be
00000010: dad8 98be

model.6._encoder.blocks.0.batch_norm_layers.0.weight f4 [5]
1.0 1.0 1.0 1.0 1.0
00000000: 0000 803f 0000 803f 0000 803f 0000 803f
00000010: 0000 803f

model.6._encoder.blocks.0.batch_norm_layers.0.bias f4 [5]
0.0 0.0 0.0 0.0 0.0
00000000: 0000 0000 0000 0000 0000 0000 0000 0000
00000010: 0000 0000

model.6._encoder.blocks.0.batch_norm_layers.0.running_mean f4 [5]
-0.7544538 -0.7333413 -0.9093197 -0.44633502 -0.7626878
00000000: e223 41bf 41bc 3bbf 2dc9 68bf 0686 e4be
00000010: 823f 43bf

model.6._encoder.blocks.0.batch_norm_layers.0.running_var f4 [5]
6e-45 6e-45 6e-45 6e-45 6e-45
00000000: 0400 0000 0400 0000 0400 0000 0400 0000
00000010: 0400 0000

model.6._encoder.blocks.0.batch_norm_layers.1.weight f4 [5]
1.0 1.0 1.0 1.0 1.0
00000000: 0000 803f 0000 803f 0000 803f 0000 803f
00000010: 0000 803f

model.6._encoder.blocks.0.batch_norm_layers.1.bias f4 [5]
0.0 0.0 0.0 0.0 0.0
00000000: 0000 0000 0000 0000 0000 0000 0000 0000
00000010: 0000 0000

model.6._encoder.blocks.0.batch_norm_layers.1.running_mean f4 [5]
-0.42480445 -0.39453095 0.44018543 -0.21325666 -0.080688395
00000000: f87f d9be f6ff c9be fc5f e13e f45f 5abe
00000010: f53f a5bd

model.6._encoder.blocks.0.batch_norm_layers.1.running_var f4 [5]
6e-45 6e-45 6e-45 6e-45 6e-45
00000000: 0400 0000 0400 0000 0400 0000 0400 0000
00000010: 0400 0000

model.6._encoder.blocks.0.linear_layers.0.weight f4 [5, 5]
0.31319562 0.39108047 0.3884156 0.020117555 0.26371875 -0.44682825 -0.26233292 0.07992745
0.002494096 -0.3510953 -0.19794191 -0.20887296 -0.44308227 0.042651106 0.30486283 0.18150763
-0.21248591 -0.41066068 -0.36080164 0.008295456 0.3076442 -0.18110923 -0.24334903 -0.23856898
-0.038714703
00000000: 2d5b a03e b33b c83e 69de c63e 92cd a43c
00000010: 2506 873e acc6 e4be 8050 86be 01b1 a33d
00000020: fd73 233b c3c2 b3be 49b1 4abe cbe2 55be
00000030: aedb e2be edb2 2e3d fb16 9c3e 23dd 393e
00000040: e895 59be 1e42 d2be feba b8be aae9 073c
00000050: 8a83 9d3e b374 39be 7d30 79be 6d4b 74be
00000060: 4f93 1ebd

model.6._encoder.blocks.0.linear_layers.0.bias f4 [5]
-0.4246985 -0.39464116 0.44023287 -0.21328335 -0.08066108
00000000: 1572 d9be 680e cabe 3466 e13e f366 5abe
00000010: a331 a5bd

model.6._encoder.blocks.0.linear_layers.1.weight f4 [5, 5]
0.0009982185 0.0009166135 -0.0005175395 -0.0008509027 -0.0009012883 -0.00048155978 0.0008407866 0.00033584965
0.0009648532 0.0007412209 1.4497638e-05 -0.00061977544 0.0009765007 0.00080217124 0.000432943 -0.0005462635
0.00078777934 9.1015936e-05 0.0006612339 0.00041736677 0.0005310084 -0.000877476 -0.0005544812 0.0005997715
-0.00020833588
00000000: a8d6 823a e448 703a 7dab 07ba 1d0f 5fba
00000010: 6f44 6cba dc79 fcb9 3c68 5c3a fa14 b039
00000020: 34ee 7c3a 7e4e 423a e23a 7337 6d78 22ba
00000030: dafb 7f3a cd48 523a a0fc e239 1f33 0fba
00000040: fa82 4e3a cfdf be38 a856 2d3a 05d2 da39
00000050: 5f33 0b3a 6b06 66ba 9a5a 11ba fc39 1d3a
00000060: bd74 5ab9

model.6._encoder.blocks.0.linear_layers.1.bias f4 [5]
-0.22833979 -0.22347915 -0.23820172 -0.22570623 -0.22711287
00000000: e8d1 69be b8d7 64be 27eb 73be 891f 67be
00000010: 4790 68be

model.6._encoder.blocks.1.batch_norm_layers.0.weight f4 [5]
1.0 1.0 1.0 1.0 1.0
00000000: 0000 803f 0000 803f 0000 803f 0000 803f
00000010: 0000 803f

model.6._encoder.blocks.1.batch_norm_layers.0.bias f4 [5]
0.0 0.0 0.0 0.0 0.0
00000000: 0000 0000 0000 0000 0000 0000 0000 0000
00000010: 0000 0000

model.6._encoder.blocks.1.batch_norm_layers.0.running_mean f4 [5]
-0.9826321 -0.9567234 -1.1473316 -0.6718153 -0.9896792
00000000: c78d 7bbf d3eb 74bf c3db 92bf 16fc 2bbf
00000010: 9e5b 7dbf

model.6._encoder.blocks.1.batch_norm_layers.0.running_var f4 [5]
6e-45 6e-45 6e-45 6e-45 6e-45
00000000: 0400 0000 0400 0000 0400 0000 0400 0000
00000010: 0400 0000

model.6._encoder.blocks.1.batch_norm_layers.1.weight f4 [5]
1.0 1.0 1.0 1.0 1.0
00000000: 0000 803f 0000 803f 0000 803f 0000 803f
00000010: 0000 803f

model.6._encoder.blocks.1.batch_norm_layers.1.bias f4 [5]
0.0 0.0 0.0 0.0 0.0
00000000: 0000 0000 0000 0000 0000 0000 0000 0000
00000010: 0000 0000

model.6._encoder.blocks.1.batch_norm_layers.1.running_mean f4 [5]
-0.09661862 -0.04150388 -0.1618651 0.38183576 -0.06603998
00000000: fcdf c5bd f9ff 29bd f7bf 25be fa7f c33e
00000010: f83f 87bd

model.6._encoder.blocks.1.batch_norm_layers.1.running_var f4 [5]
6e-45 6e-45 6e-45 6e-45 6e-45
00000000: 0400 0000 0400 0000 0400 0000 0400 0000
00000010: 0400 0000

model.6._encoder.blocks.1.linear_layers.0.weight f4 [5, 5]
0.15397288 -0.16845135 -0.18819435 -0.093275234 -0.16553429 0.24505523 -0.08497018 0.33908525
0.10204661 -0.069101326 -0.25831032 -0.4095014 -0.13046217 -0.4141339 -0.08285556 0.007309397
-0.028820155 -0.21967888 0.3103947 0.2518617 -0.110183194 -0.1766967 0.28115878 0.3890867
-0.409486
00000000: 11ab 1d3e 837e 2cbe 05b6 40be 1607 bfbd
00000010: d281 29be c2ef 7a3e d904 aebd 959c ad3e
00000020: d0fd d03d ff84 8dbd 4041 84be 2baa d1be
00000030: e097 05be 5c09 d4be 2db0 a9bd ab83 ef3b
00000040: 3f18 ecbc 80f3 60be 0eec 9e3e 04f4 803e
00000050: baa7 e1bd fbef 34be 0bf4 8f3e 5f36 c73e
00000060: 26a8 d1be

model.6._encoder.blocks.1.linear_layers.0.bias f4 [5]
-0.09662461 -0.04150239 -0.16191855 0.3817903 -0.06605855
00000000: 20e3 c5bd 69fe 29bd facd 25be 057a c33e
00000010: b449 87bd

model.6._encoder.blocks.1.linear_layers.1.weight f4 [5, 5]
-0.00042496802 -0.0009781506 0.0005417048 -0.0005674093 -0.00016694774 -0.00083848194 -0.00056415825 0.00041715993
-0.000931727 -0.0005702397 0.0007497303 -0.0005128488 -0.00041615596 -0.00028077376 0.00042745913 -0.00065596966
0.00010026539 0.0004084027 -7.259322e-05 0.00018081868 -0.0007628476 0.00045209946 0.00037372948 -0.00012543214
-0.0008268704
00000000: 3ece deb9 4a35 80ba 3201 0e3a 32be 14ba
00000010: b10e 2fb9 92cd 5bba 05e4 13ba 42b6 da39
00000020: 243f 74ba 237c 15ba 8c89 443a b370 06ba
00000030: 822f dab9 d134 93b9 981c e039 61f5 2bba
00000040: 9245 d238 e21e d639 303d 98b8 259a 3d39
00000050: d6f9 47ba c307 ed39 1ff1 c339 6f86 03b9
00000060: 55c2 58ba

model.6._encoder.blocks.1.linear_layers.1.bias f4 [5]
-0.22706899 -0.2237363 -0.23835468 -0.22604203 -0.22596075
00000000: c684 68be 211b 65be 4013 74be 9077 67be
00000010: 4162 67be

model.6._encoder.blocks.2.batch_norm_layers.0.weight f4 [5]
1.0 1.0 1.0 1.0 1.0
00000000: 0000 803f 0000 803f 0000 803f 0000 803f
00000010: 0000 803f

model.6._encoder.blocks.2.batch_norm_layers.0.bias f4 [5]
0.0 0.0 0.0 0.0 0.0
00000000: 0000 0000 0000 0000 0000 0000 0000 0000
00000010: 0000 0000

model.6._encoder.blocks.2.batch_norm_layers.0.running_mean f4 [5]
-1.2094768 -1.180185 -1.3855753 -0.8976483 -1.2155885
00000000: 23d0 9abf 4d10 97bf 885a b1bf 47cc 65bf
00000010: 6798 9bbf

model.6._encoder.blocks.2.batch_norm_layers.0.running_var f4 [5]
6e-45 6e-45 6e-45 6e-45 6e-45
00000000: 0400 0000 0400 0000 0400 0000 0400 0000
00000010: 0400 0000

model.6._encoder.blocks.2.batch_norm_layers.1.weight f4 [5]
1.0 1.0 1.0 1.0 1.0
00000000: 0000 803f 0000 803f 0000 803f 0000 803f
00000010: 0000 803f

model.6._encoder.blocks.2.batch_norm_layers.1.bias f4 [5]
0.0 0.0 0.0 0.0 0.0
00000000: 0000 0000 0000 0000 0000 0000 0000 0000
00000010: 0000 0000

model.6._encoder.blocks.2.batch_norm_layers.1.running_mean f4 [5]
-0.04922484 -0.34741202 -0.0016260138 0.00063466973 -0.3864745
00000000: fc9f 49bd fddf b1be f81f d5ba f75f 263a
00000010: fcdf c5be

model.6._encoder.blocks.2.batch_norm_layers.1.running_var f4 [5]
6e-45 6e-45 6e-45 6e-45 6e-45
00000000: 0400 0000 0400 0000 0400 0000 0400 0000
00000010: 0400 0000

model.6._encoder.blocks.2.linear_layers.0.weight f4 [5, 5]
-0.17887093 -0.031045718 0.4451736 0.0021113157 -0.35603276 -0.032614533 0.22248548 -0.14598109
-0.2341984 0.36840484 0.23658124 -0.07597841 0.022847664 -0.047298525 0.1038276 0.015893752
-0.27062458 0.08285716 0.011696762 0.02891393 -0.1704277 0.114586234 -0.36163753 0.13368249
0.24234207
00000000: f129 37be 9753 febc cbed e33e 005e 0a3b
00000010: ed49 b6be d196 05bd 3cd3 633e 117c 15be
00000020: b5d1 6fbe 8f9f bc3e 5a42 723e 929a 9bbd
00000030: 062b bb3c 19bc 41bd 91a3 d43d 9d33 823c
00000040: 4e8f 8abe 04b1 a93d c7a3 3f3c e8dc ec3c
00000050: 9984 2ebe 30ac ea3d 8e28 b9be 10e4 083e
00000060: 8528 783e

model.6._encoder.blocks.2.linear_layers.0.bias f4 [5]
-0.04921728 -0.3473956 -0.0016256965 0.00063483947 -0.38648412
00000000: 0f98 49bd d6dd b1be 5315 d5ba 5b6b 263a
00000010: 3fe1 c5be

model.6._encoder.blocks.2.linear_layers.1.weight f4 [5, 5]
-0.0007161185 -0.000658662 0.00046886972 0.00076037686 8.140707e-05 -0.000502285 0.00048287443 0.00017440546
-0.00087547937 -0.000648045 0.00021887686 0.00061877444 -0.0003212638 0.0004835335 -0.0006193128 0.00095693365
0.00071254413 0.00018730725 0.00044489256 0.0003481568 -0.0005900972 -8.719921e-06 0.00026666047 -0.00022571422
0.0009589454
00000000: e6b9 3bba 0faa 2cba a1d2 f539 0754 473a
00000010: 17b9 aa38 c7ab 03ba 4f2a fd39 9ce0 3639
00000020: 6d80 65ba 90e1 29ba 4f82 6539 4035 223a
00000030: 4c6f a8b9 c582 fd39 6159 22ba bbda 7a3a
00000040: 07ca 3a3a e867 4439 7840 e939 d188 b639
00000050: c1b0 1aba c74b 12b7 90ce 8b39 b3ad 6cb9
00000060: bd61 7b3a

model.6._encoder.blocks.2.linear_layers.1.bias f4 [5]
-0.22785579 -0.22528258 -0.2386553 -0.22744131 -0.22550748
00000000: 0753 69be 7ab0 66be 0e62 74be 60e6 68be
00000010: 6feb 66be

model.6._encoder.final_layer.weight f4 [1, 5]
-0.44528005 -0.5595398 -0.28897947 -0.48669145 -0.47762933
00000000: bffb e3be 003e 0fbf 1ef5 93be 9f2f f9be
00000010: d58b f4be

model.7.log_scale f4 [25, 3]
0.0 0.0 0.0 0.035174314 0.085891575 0.11766712 0.0 0.0
0.0 0.0 0.0 0.0 0.0 0.0 0.0 0.0
0.0 0.0 0.0 0.0 0.0 0.0 0.0 0.0
0.0 0.0 0.0 0.0 0.0 0.0 0.0 0.0
0.0 0.0 0.0 0.0 0.0 0.0 0.0 0.0
0.0 0.0 0.0 0.0 0.0 0.0 0.0 0.0
0.0 0.0 0.0 0.0 0.0 0.0 0.0 0.0
0.0 0.0 0.0 0.0 0.0 0.0 0.0 0.0
0.0 0.0 0.0 0.0 0.0 0.0 0.0 0.0
0.0 0.0 0.0
00000000: 0000 0000 0000 0000 0000 0000 f112 103d
00000010: ece7 af3d 76fb f03d 0000 0000 0000 0000
00000020: 0000 0000 0000 0000 0000 0000 0000 0000
00000030: 0000 0000 0000 0000 0000 0000 0000 0000
00000040: 0000 0000 0000 0000 0000 0000 0000 0000
00000050: 0000 0000 0000 0000 0000 0000 0000 0000
00000060: 0000 0000 0000 0000 0000 0000 0000 0000
00000070: 0000 0000 0000 0000 0000 0000 0000 0000
00000080: 0000 0000 0000 0000 0000 0000 0000 0000
00000090: 0000 0000 0000 0000 0000 0000 0000 0000
000000a0: 0000 0000 0000 0000 0000 0000 0000 0000
000000b0: 0000 0000 0000 0000 0000 0000 0000 0000
000000c0: 0000 0000 0000 0000 0000 0000 0000 0000
000000d0: 0000 0000 0000 0000 0000 0000 0000 0000
000000e0: 0000 0000 0000 0000 0000 0000 0000 0000
000000f0: 0000 0000 0000 0000 0000 0000 0000 0000
00000100: 0000 0000 0000 0000 0000 0000 0000 0000
00000110: 0000 0000 0000 0000 0000 0000 0000 0000
00000120: 0000 0000 0000 0000 0000 0000
