sRGB_noise_modeling/experiments/basler/our_model_2/saved_models/epoch_4_noise_model_net.pth (torch, 499643 bytes, 1152 tensors)

model.2.log_scale f4 [25, 3]
0.0 0.0 0.0 0.118334964 0.11678498 0.12004442 0.0 0.0
0.0 0.0 0.0 0.0 0.0 0.0 0.0 0.0
0.0 0.0 0.0 0.0 0.0 0.0 0.0 0.0
0.0 0.0 0.0 0.0 0.0 0.0 0.0 0.0
0.0 0.0 0.0 0.0 0.0 0.0 0.0 0.0
0.0 0.0 0.0 0.0 0.0 0.0 0.0 0.0
0.0 0.0 0.0 0.0 0.0 0.0 0.0 0.0
0.0 0.0 0.0 0.0 0.0 0.0 0.0 0.0
0.0 0.0 0.0 0.0 0.0 0.0 0.0 0.0
0.0 0.0 0.0
00000000: 0000 0000 0000 0000 0000 0000 9a59 f23d
00000010: f72c ef3d d9d9 f53d 0000 0000 0000 0000
00000020: 0000 0000 0000 0000 0000 0000 0000 0000
00000030: 0000 0000 0000 0000 0000 0000 0000 0000
00000040: 0000 0000 0000 0000 0000 0000 0000 0000
00000050: 0000 0000 0000 0000 0000 0000 0000 0000
00000060: 0000 0000 0000 0000 0000 0000 0000 0000
00000070: 0000 0000 0000 0000 0000 0000 0000 0000
00000080: 0000 0000 0000 0000 0000 0000 0000 0000
00000090: 0000 0000 0000 0000 0000 0000 0000 0000
000000a0: 0000 0000 0000 0000 0000 0000 0000 0000
000000b0: 0000 0000 0000 0000 0000 0000 0000 0000
000000c0: 0000 0000 0000 0000 0000 0000 0000 0000
000000d0: 0000 0000 0000 0000 0000 0000 0000 0000
000000e0: 0000 0000 0000 0000 0000 0000 0000 0000
000000f0: 0000 0000 0000 0000 0000 0000 0000 0000
00000100: 0000 0000 0000 0000 0000 0000 0000 0000
00000110: 0000 0000 0000 0000 0000 0000 0000 0000
00000120: 0000 0000 0000 0000 0000 0000

model.2.bias f4 [25, 3]
0.0 0.0 0.0 -0.0019318933 -0.0012157018 -0.0037103433 0.0 0.0
0.0 0.0 0.0 0.0 0.0 0.0 0.0 0.0
0.0 0.0 0.0 0.0 0.0 0.0 0.0 0.0
0.0 0.0 0.0 0.0 0.0 0.0 0.0 0.0
0.0 0.0 0.0 0.0 0.0 0.0 0.0 0.0
0.0 0.0 0.0 0.0 0.0 0.0 0.0 0.0
0.0 0.0 0.0 0.0 0.0 0.0 0.0 0.0
0.0 0.0 0.0 0.0 0.0 0.0 0.0 0.0
0.0 0.0 0.0 0.0 0.0 0.0 0.0 0.0
0.0 0.0 0.0
00000000: 0000 0000 0000 0000 0000 0000 9537 fdba
00000010: 2f58 9fba 3b29 73bb 0000 0000 0000 0000
00000020: 0000 0000 0000 0000 0000 0000 0000 0000
00000030: 0000 0000 0000 0000 0000 0000 0000 0000
00000040: 0000 0000 0000 0000 0000 0000 0000 0000
00000050: 0000 0000 0000 0000 0000 0000 0000 0000
00000060: 0000 0000 0000 0000 0000 0000 0000 0000
00000070: 0000 0000 0000 0000 0000 0000 0000 0000
00000080: 0000 0000 0000 0000 0000 0000 0000 0000
00000090: 0000 0000 0000 0000 0000 0000 0000 0000
000000a0: 0000 0000 0000 0000 0000 0000 0000 0000
000000b0: 0000 0000 0000 0000 0000 0000 0000 0000
000000c0: 0000 0000 0000 0000 0000 0000 0000 0000
000000d0: 0000 0000 0000 0000 0000 0000 0000 0000
000000e0: 0000 0000 0000 0000 0000 0000 0000 0000
000000f0: 0000 0000 0000 0000 0000 0000 0000 0000
00000100: 0000 0000 0000 0000 0000 0000 0000 0000
00000110: 0000 0000 0000 0000 0000 0000 0000 0000
00000120: 0000 0000 0000 0000 0000 0000

model.3.log_s f4 [3]
-0.17554274 0.10908042 0.4239863
00000000: 7ac1 33be 8e65 df3d bb14 d93e

model.3.u f4 [3, 3]
0.0 -0.68884486 0.123486914 0.0 0.0 -0.7138187 0.0 0.0
0.0
00000000: 0000 0000 2358 30bf b5e6 fc3d 0000 0000
00000010: 0000 0000 d3bc 36bf 0000 0000 0000 0000
00000020: 0000 0000

model.3.sign_s f4 [3]
-1.0 1.0 1.0
00000000: 0000 80bf 0000 803f 0000 803f

model.4._shift_and_log_scale.logs f4 [1, 4, 1, 1]
-0.037513126 -0.022544658 0.111966975 0.21254784
00000000: 5da7 19bd 93af b8bc f14e e53d 24a6 593e

model.4._shift_and_log_scale.conv2d_1.weight f4 [4, 4, 3, 3]
0.008732005 -0.016710835 0.01861217 -0.019474221 -0.107301325 0.00050420774 0.0071529215 -0.015959136
0.013723835 0.0021577023 0.0018978299 0.0030912717 0.0016493609 0.008935589 -0.00068064645 0.0030882226
0.00097048405 0.0019465862 -0.019602116 -0.005783481 -0.009273877 -0.0059833243 -0.0076586297 -0.0055061993
-0.010676519 0.00015583335 -0.005095995 0.0028298246 0.0068891277 0.0011155382 0.0040938235 0.009260176
0.0035443897 0.0029087553 0.0066741225 0.00071704993 -0.0056992252 -0.0108548645 6.830969e-05 0.009861891
0.080362745 -0.0074748816 0.0016292782 0.012198296 -0.0027166316 -0.0018877586 -0.003296049 -0.00066785165
-0.00028248716 -0.012014899 0.0002271703 0.0001716372 -0.0032996528 0.0007913792 -0.0017406618 0.0013981592
-0.0001231883 0.0012767933 0.012422566 -6.2181665e-05 -0.0004056626 0.0032377092 -0.0012111854 -0.0021650202
0.0040967385 -0.0017014296 0.00246229 0.0039232704 0.0022758036 -0.0018937846 0.0048594843 -0.0014225359
-0.017740127 -0.008467135 -0.014036385 -0.009528402 0.036830988 -0.004560304 -0.013883801 -0.002261844
-0.009488678 -0.0018631739 0.0043924605 -0.00265771 0.0024517456 0.005495916 0.003607194 0.00070824
0.008502378 0.00063710543 -0.00594311 -0.012340029 -0.011892666 -0.011197213 -0.016817292 -0.010519148
-0.007394955 -0.008797744 -0.0048456127 -0.0003432678 -0.004130609 -0.0036634114 -0.008437249 -0.006240287
-0.006701151 -0.0013005036 0.0010942279 0.0018555515 -0.00365654 0.0074951765 -0.00032716265 0.004642849
-0.027120542 0.0071149487 0.0017654378 0.0015820453 -0.0022202197 0.0018028007 -0.0040446115 0.0032547172
-0.000140499 -0.0048481785 -0.00037959183 0.0009084535 -0.0028197477 0.0014951766 -0.0039096964 0.00066685607
-0.0021546509 0.0026789051 -0.0019518022 0.0015929643 -0.0039479216 0.0037089952 -0.0023165394 3.0507881e-05
0.0054030935 -0.0002689609 0.0041271867 0.005165165 0.0031415923 -0.0011727328 0.00643682 -0.00082610914
00000000: af10 0f3c 29e5 88bc 8d78 983c 6788 9fbc
00000010: ccc0 dbbd cf2c 043a 0e63 ea3b bcbc 82bc
00000020: f0d9 603c 3d68 0d3b 9bc0 f83a ef96 4a3b
00000030: 5e2f d83a 9466 123c 696d 32ba c763 4a3b
00000040: 1568 7e3a 9824 ff3a 9e94 a0bc 5b83 bdbb
00000050: 76f1 17bc c30f c4bb 3ef5 fabb 596d b4bb
00000060: 91ec 2ebc 3267 2339 4efc a6bb 9474 393b
00000070: 31be e13b 4037 923a 7b25 863b feb7 173c
00000080: fe48 683b d1a0 3e3b 99b2 da3b 68f8 3b3a
00000090: 91c0 babb 9ad8 31bc 7c41 8f38 c593 213c
000000a0: 3995 a43d daef f4bb 818d d53a 5ddb 473c
000000b0: 8409 32bb ab6e f7ba 8702 58bb c412 2fba
000000c0: c91a 94b9 24da 44bc 9034 6e39 83f9 3339
000000d0: fd3e 58bb 8f74 4f3a eb26 e4ba 7042 b73a
000000e0: 1c2c 01b9 135a a73a 0588 4b3c 8767 82b8
000000f0: 1daf d4b9 bf2f 543b a3c0 9eba 03e3 0dbb
00000100: ef3d 863b 8102 dfba 5f5e 213b c78e 803b
00000110: a625 153b de38 f8ba 4f3c 9f3b 6274 baba
00000120: be53 91bc bdb9 0abc def8 65bc 041d 1cbc
00000130: 17dc 163d 9a6e 95bb e278 63bc 723b 14bb
00000140: 6676 1bbc be35 f4ba a1ee 8f3b fa2c 2ebb
00000150: 77ad 203b 1617 b43b ac66 6c3b 2fa9 393a
00000160: 8f4d 0b3c 6c03 273a 6cbe c2bb d52d 4abc
00000170: 75d9 42bc 8474 37bc 6bc4 89bc 8158 2cbc
00000180: 6151 f2bb 6a24 10bc f2c7 9ebb a0f8 b3b9
00000190: 0f5a 87bb d815 70bb 633c 0abc 527b ccbb
000001a0: 5495 dbbb a975 aaba 326c 8f3a fa35 f33a
000001b0: 90a2 6fbb 199a f53b 0787 abb9 0a23 983b
000001c0: e62b debc 8424 e93b 4366 e73a a25c cf3a
000001d0: 1b81 11bb f44b ec3a a988 84bb 184d 553b
000001e0: ea52 13b9 78dd 9ebb f403 c7b9 4825 6e3a
000001f0: 84cb 38bb cdf9 c33a e91c 80bb f4cf 2e3a
00000200: 0b35 0dbb 9290 2f3b 9dd3 ffba 03cb d03a
00000210: 915d 81bb 9d12 733b 15d1 17bb 2deb ff37
00000220: 6f0c b13b 5203 8db9 5a3d 873b 8b40 a93b
00000230: 2ce3 4d3b 62b6 99ba f6eb d23b 3f8f 58ba

model.4._shift_and_log_scale.conv2d_1.bias f4 [4]
-0.017704215 0.0014278566 0.01099065 0.012316345
00000000: 6e08 91bc eb26 bb3a 2112 343c 7fca 493c

model.4._shift_and_log_scale.conv2d_2.weight f4 [4, 4, 1, 1]
0.024754442 -0.00033670038 0.0038735184 -0.012488171 -0.031377424 0.0061560147 -0.013977936 -0.0018464363
0.020276334 0.02041812 -0.011783719 -0.020554444 -0.032296386 -0.0087856 -0.0060947887 0.0027467906
00000000: d4c9 ca3c 2987 b0b9 dbda 7d3b 309b 4cbc
00000010: 9d85 00bd 65b8 c93b b603 65bc 1f04 f2ba
00000020: 8e1a a63c e743 a73c 8010 41bc cb61 a8bc
00000030: 3749 04bd 7af1 0fbc cbb6 c7bb 8003 343b

model.4._shift_and_log_scale.conv2d_2.bias f4 [4]
-0.0022584035 0.006403024 -0.021858644 -0.008064188
00000000: b901 14bb 75d0 d13b e610 b3bc a81f 04bc

model.4._shift_and_log_scale.net.0.weight f4 [4, 4, 3, 3]
0.008732005 -0.016710835 0.01861217 -0.019474221 -0.107301325 0.00050420774 0.0071529215 -0.015959136
0.013723835 0.0021577023 0.0018978299 0.0030912717 0.0016493609 0.008935589 -0.00068064645 0.0030882226
0.00097048405 0.0019465862 -0.019602116 -0.005783481 -0.009273877 -0.0059833243 -0.0076586297 -0.0055061993
-0.010676519 0.00015583335 -0.005095995 0.0028298246 0.0068891277 0.0011155382 0.0040938235 0.009260176
0.0035443897 0.0029087553 0.0066741225 0.00071704993 -0.0056992252 -0.0108548645 6.830969e-05 0.009861891
0.080362745 -0.0074748816 0.0016292782 0.012198296 -0.0027166316 -0.0018877586 -0.003296049 -0.00066785165
-0.00028248716 -0.012014899 0.0002271703 0.0001716372 -0.0032996528 0.0007913792 -0.0017406618 0.0013981592
-0.0001231883 0.0012767933 0.012422566 -6.2181665e-05 -0.0004056626 0.0032377092 -0.0012111854 -0.0021650202
0.0040967385 -0.0017014296 0.00246229 0.0039232704 0.0022758036 -0.0018937846 0.0048594843 -0.0014225359
-0.017740127 -0.008467135 -0.014036385 -0.009528402 0.036830988 -0.004560304 -0.013883801 -0.002261844
-0.009488678 -0.0018631739 0.0043924605 -0.00265771 0.0024517456 0.005495916 0.003607194 0.00070824
0.008502378 0.00063710543 -0.00594311 -0.012340029 -0.011892666 -0.011197213 -0.016817292 -0.010519148
-0.007394955 -0.008797744 -0.0048456127 -0.0003432678 -0.004130609 -0.0036634114 -0.008437249 -0.006240287
-0.006701151 -0.0013005036 0.0010942279 0.0018555515 -0.00365654 0.0074951765 -0.00032716265 0.004642849
-0.027120542 0.0071149487 0.0017654378 0.0015820453 -0.0022202197 0.0018028007 -0.0040446115 0.0032547172
-0.000140499 -0.0048481785 -0.00037959183 0.0009084535 -0.0028197477 0.0014951766 -0.0039096964 0.00066685607
-0.0021546509 0.0026789051 -0.0019518022 0.0015929643 -0.0039479216 0.0037089952 -0.0023165394 3.0507881e-05
0.0054030935 -0.0002689609 0.0041271867 0.005165165 0.0031415923 -0.0011727328 0.00643682 -0.00082610914
00000000: af10 0f3c 29e5 88bc 8d78 983c 6788 9fbc
00000010: ccc0 dbbd cf2c 043a 0e63 ea3b bcbc 82bc
00000020: f0d9 603c 3d68 0d3b 9bc0 f83a ef96 4a3b
00000030: 5e2f d83a 9466 123c 696d 32ba c763 4a3b
00000040: 1568 7e3a 9824 ff3a 9e94 a0bc 5b83 bdbb
00000050: 76f1 17bc c30f c4bb 3ef5 fabb 596d b4bb
00000060: 91ec 2ebc 3267 2339 4efc a6bb 9474 393b
00000070: 31be e13b 4037 923a 7b25 863b feb7 173c
00000080: fe48 683b d1a0 3e3b 99b2 da3b 68f8 3b3a
00000090: 91c0 babb 9ad8 31bc 7c41 8f38 c593 213c
000000a0: 3995 a43d daef f4bb 818d d53a 5ddb 473c
000000b0: 8409 32bb ab6e f7ba 8702 58bb c412 2fba
000000c0: c91a 94b9 24da 44bc 9034 6e39 83f9 3339
000000d0: fd3e 58bb 8f74 4f3a eb26 e4ba 7042 b73a
000000e0: 1c2c 01b9 135a a73a 0588 4b3c 8767 82b8
000000f0: 1daf d4b9 bf2f 543b a3c0 9eba 03e3 0dbb
00000100: ef3d 863b 8102 dfba 5f5e 213b c78e 803b
00000110: a625 153b de38 f8ba 4f3c 9f3b 6274 baba
00000120: be53 91bc bdb9 0abc def8 65bc 041d 1cbc
00000130: 17dc 163d 9a6e 95bb e278 63bc 723b 14bb
00000140: 6676 1bbc be35 f4ba a1ee 8f3b fa2c 2ebb
00000150: 77ad 203b 1617 b43b ac66 6c3b 2fa9 393a
00000160: 8f4d 0b3c 6c03 273a 6cbe c2bb d52d 4abc
00000170: 75d9 42bc 8474 37bc 6bc4 89bc 8158 2cbc
00000180: 6151 f2bb 6a24 10bc f2c7 9ebb a0f8 b3b9
00000190: 0f5a 87bb d815 70bb 633c 0abc 527b ccbb
000001a0: 5495 dbbb a975 aaba 326c 8f3a fa35 f33a
000001b0: 90a2 6fbb 199a f53b 0787 abb9 0a23 983b
000001c0: e62b debc 8424 e93b 4366 e73a a25c cf3a
000001d0: 1b81 11bb f44b ec3a a988 84bb 184d 553b
000001e0: ea52 13b9 78dd 9ebb f403 c7b9 4825 6e3a
000001f0: 84cb 38bb cdf9 c33a e91c 80bb f4cf 2e3a
00000200: 0b35 0dbb 9290 2f3b 9dd3 ffba 03cb d03a
00000210: 915d 81bb 9d12 733b 15d1 17bb 2deb ff37
00000220: 6f0c b13b 5203 8db9 5a3d 873b 8b40 a93b
00000230: 2ce3 4d3b 62b6 99ba f6eb d23b 3f8f 58ba

model.4._shift_and_log_scale.net.0.bias f4 [4]
-0.017704215 0.0014278566 0.01099065 0.012316345
00000000: 6e08 91bc eb26 bb3a 2112 343c 7fca 493c

model.4._shift_and_log_scale.net.1.weight f4 [4]
1.037638 1.0458009 1.015347 1.0136362
00000000: 52d1 843f cedc 853f e4f6 813f d5be 813f

model.4._shift_and_log_scale.net.1.bias f4 [4]
0.06363314 0.0031032683 -0.011684873 0.09011456
00000000: 1752 823d 3460 4b3b e971 3fbc fc8d b83d

model.4._shift_and_log_scale.net.1.running_mean f4 [4]
-0.026073541 0.0057595577 -0.027097538 0.015913606
00000000: 2e98 d5bc acba bc3b a8fb ddbc 405d 823c

model.4._shift_and_log_scale.net.1.running_var f4 [4]
4.0468178e-05 1.2651046e-05 0.00027614651 8.978949e-06
00000000: 60bc 2938 d43f 5437 c2c7 9039 4ba4 1637

model.4._shift_and_log_scale.net.3.weight f4 [4, 4, 1, 1]
0.024754442 -0.00033670038 0.0038735184 -0.012488171 -0.031377424 0.0061560147 -0.013977936 -0.0018464363
0.020276334 0.02041812 -0.011783719 -0.020554444 -0.032296386 -0.0087856 -0.0060947887 0.0027467906
00000000: d4c9 ca3c 2987 b0b9 dbda 7d3b 309b 4cbc
00000010: 9d85 00bd 65b8 c93b b603 65bc 1f04 f2ba
00000020: 8e1a a63c e743 a73c 8010 41bc cb61 a8bc
00000030: 3749 04bd 7af1 0fbc cbb6 c7bb 8003 343b

model.4._shift_and_log_scale.net.3.bias f4 [4]
-0.0022584035 0.006403024 -0.021858644 -0.008064188
00000000: b901 14bb 75d0 d13b e610 b3bc a81f 04bc

model.4._shift_and_log_scale.net.4.weight f4 [4]
1.0774035 1.1111139 1.1090108 1.0778762
00000000: 5ce8 893f fb38 8e3f 11f4 8d3f d9f7 893f

model.4._shift_and_log_scale.net.4.bias f4 [4]
0.111895554 0.10369061 0.09924917 0.12642473
00000000: 7f29 e53d be5b d43d 2643 cb3d 7c75 013e

model.4._shift_and_log_scale.net.4.running_mean f4 [4]
0.0050260006 -0.009892919 -0.018362537 -0.0248394
00000000: 26b1 a43b e915 22bc 086d 96bc ff7b cbbc

model.4._shift_and_log_scale.net.4.running_var f4 [4]
0.00025370807 0.0006078408 0.00010682021 0.00042519605
00000000: 1f04 8539 8157 1f3a aa04 e038 d9ec de39

model.4._shift_and_log_scale.conv2d_3.weight f4 [4, 5, 3, 3]
-5.5070665e-05 0.0014704352 0.0018935623 0.0016757442 0.005256831 0.0019067778 -0.00029084276 -0.00013757967
-1.3929812e-05 -0.0006243406 -0.00061868236 -0.00063551107 -0.0011545465 -0.0058465367 -0.0004862507 -3.1496736e-05
-0.0012978362 -0.00010451711 -0.0006756497 -0.0011826389 -0.0016212671 -0.0002649709 -0.011921116 -0.0023177029
-0.00023937944 0.0014426446 -0.00021220035 -0.00012282707 0.0013018983 -0.00027294442 0.00033338417 0.0068765036
0.0014232233 -0.0006291823 0.00070122065 8.307126e-05 0.0044479733 0.0036769838 0.004011514 0.0066636153
0.0 0.0003132306 0.0019099398 0.0020118044 -0.00082826853 -0.000597314 0.0009958302 0.00069085247
0.0011804162 0.010137003 0.0019528131 -0.0012912689 0.0011883563 -0.0010479927 -0.0001305153 -0.0017306786
-8.518304e-05 -0.0032725874 -0.0074200905 -0.0017330945 0.0009194644 -0.002287513 0.0009398689 -0.0002301596
-0.0009349982 -6.484743e-05 -0.0005201737 -0.0022219445 -0.0015526883 0.00065502344 0.0004344469 0.0006559149
0.0007798836 0.001032079 0.00068035396 0.0017836948 0.004263832 0.0014325063 -0.00010831462 0.0014039123
0.00016250066 -8.1525955e-05 -0.0039222087 -0.008275831 -0.002286918 0.0 -0.013242702 0.0018244415
0.00026859806 -0.004578387 0.06373707 0.09791411 0.044673022 0.10258053 0.16889335 0.059786305
0.053500917 0.07286896 0.021668792 0.09969507 0.07665997 0.09691391 0.097876154 0.06718712
0.104150206 0.11612166 0.10303035 0.119170085 0.028340787 0.042279996 0.01788287 0.06022505
0.084066406 0.030980289 0.030933274 0.052257866 0.004151254 0.1348785 0.13073006 0.13055255
0.124202855 0.10845733 0.13365158 0.13817872 0.13151373 0.14854676 0.06697916 0.0746222
0.08347547 0.06286856 0.0 0.092714176 0.07463181 0.083985396 0.08645394 0.16549712
0.1659147 0.17873435 0.16304824 0.17215665 0.17490055 0.17288095 0.17068785 0.1773438
0.17083374 0.16431564 0.16304345 0.16297255 0.15810935 0.15612967 0.16016929 0.15580675
0.16025701 0.10608737 0.10588007 0.11688775 0.10457766 0.11631509 0.11012791 0.10721194
0.108206 0.11643899 0.16935015 0.16951181 0.1659775 0.166909 0.16349262 0.16388153
0.15870118 0.15855579 0.15687683 0.083491035 0.08239884 0.08266417 0.08617297 0.0
0.08397572 0.1192845 0.14303936 0.116126314
00000000: adfb 66b8 9ebb c03a 6831 f83a a5a4 db3a
00000010: 7f41 ac3b d9ec f93a 417c 98b9 4343 10b9
00000020: 16b4 69b7 caaa 23ba 122f 22ba 6d98 26ba
00000030: 2754 97ba 4e94 bfbb 77ef feb9 5d1b 04b8
00000040: 281c aaba 3230 dbb8 151e 31ba c702 9bba
00000050: b280 d4ba cbeb 8ab9 c950 43bc 9ae4 17bb
00000060: ee01 7bb9 1f17 bd3a 1982 5eb9 24cb 00b9
00000070: 75a4 aa3a fb19 8fb9 11ca ae39 4b54 e13b
00000080: 738b ba3a b6ef 24ba 1fd2 373a 8b36 ae38
00000090: 4ec0 913b 8df9 703b 0573 833b 755a da3b
000000a0: 0000 0000 1939 a439 f256 fa3a 7ad8 033b
000000b0: 2920 59ba 1095 1cba 8486 823a 531a 353a
000000c0: 32b8 9a3a ac15 263c 89f5 ff3a cb3f a9ba
000000d0: 9fc2 9b3a cd5c 89ba efda 08b9 f0d7 e2ba
000000e0: 4ca4 b2b8 e878 56bb 3b24 f3bb 0029 e3ba
000000f0: 3608 713a 1aea 15bb 8961 763a ff56 71b9
00000100: ab1a 75ba b3fe 87b8 445c 08ba 0b9e 11bb
00000110: 9383 cbba e1b5 2b3a 7ac6 e339 b4f1 2b3a
00000120: 1a71 4c3a d346 873a c859 323a deca e93a
00000130: 9db7 8b3b efc2 bb3a f826 e3b8 7b03 b83a
00000140: f064 2a39 eaf8 aab8 df85 80bb 5a97 07bc
00000150: 1ee0 15bb 0000 0000 ebf7 58bc 1922 ef3a
00000160: 9fd2 8c39 4b06 96bb 9588 823d 3187 c83d
00000170: 0ffb 363d be15 d23d 61f2 2c3e 7ce2 743d
00000180: c723 5b3d 523c 953d c082 b13c ee2c cc3d
00000190: e7ff 9c3d cd7a c63d 4b73 c83d 6799 893d
000001a0: b44c d53d 31d1 ed3d 9301 d33d 720f f43d
000001b0: f02a e83c ca2d 2d3d 197f 923c 8bae 763d
000001c0: 022b ac3d 60ca fd3c c767 fd3c 580c 563d
000001d0: 3e07 883b 971d 0a3e 1ade 053e 91af 053e
000001e0: 115e fe3d e01e de3d f6db 083e b97e 0d3e
000001f0: 89ab 063e a41c 183e 5f2c 893d 86d3 983d
00000200: 30f5 aa3d 3bc1 803d 0000 0000 eee0 bd3d
00000210: 90d8 983d 8900 ac3d c30e b13d 1478 293e
00000220: 8be5 293e 2306 373e 1ef6 263e d549 303e
00000230: 2119 333e b407 313e ccc8 2e3e 9d99 353e
00000240: 0aef 2e3e 5c42 283e ddf4 263e 47e2 263e
00000250: 6be7 213e 75e0 1f3e 6b03 243e ce8b 1f3e
00000260: 6a1a 243e 5644 d93d a6d7 d83d d862 ef3d
00000270: d02c d63d 9b36 ee3d be8a e13d ef91 db3d
00000280: 1b9b dd3d 9177 ee3d 206a 2d3e 8194 2d3e
00000290: 01f6 293e 31ea 2a3e 9c6a 273e 8fd0 273e
000002a0: 9082 223e 735c 223e 52a4 203e 59fd aa3d
000002b0: b9c0 a83d d54b a93d 747b b03d 0000 0000
000002c0: 76fb ab3d 6f4b f43d e978 123e a2d3 ed3d

model.4._shift_and_log_scale.conv2d_3.bias f4 [4]
-0.00025987212 -0.0040231203 0.07968431 0.20717603
00000000: 723f 88b9 61d4 83bb 8731 a33d f425 543e

model.4._encoder.initial_layer.weight f4 [5, 10]
0.29023045 0.11216398 -0.15449992 0.027954008 0.18326528 -0.031463627 0.30685917 -0.07627002
0.11083771 -0.22907355 -0.41069102 -0.16051422 0.29061675 -0.08509186 -0.0008634187 -0.15321094
0.090947606 0.30885023 -0.23849475 -0.25635633 -0.036257792 -0.0015250815 -0.0806077 -0.20698552
-0.11342209 0.059745185 0.038214732 0.07007055 -0.07251605 -0.15323238 -0.14246085 0.26002088
-0.21379504 0.014683847 -0.116614595 0.3103163 -0.48593163 -0.30315527 0.31160608 -0.20007414
0.26749548 -0.027292384 -0.06661559 -0.07062877 0.20094396 0.015114727 -0.101016104 -0.18668827
-0.10780214 0.15913099
00000000: 1699 943e 3bb6 e53d 3a35 1ebe ceff e43c
00000010: e5a9 3b3e 01e0 00bd a51c 9d3e 7533 9cbd
00000020: e2fe e23d 4292 6abe 1846 d2be d75d 24be
00000030: b8cb 943e a444 aebd 0c57 62ba 54e3 1cbe
00000040: bd42 ba3d 9e21 9e3e f837 74be 2341 83be
00000050: 0d83 14bd 3ee5 c7ba a615 a5bd 03f4 53be
00000060: d749 e8bd 5eb7 743d 0d87 1c3d 2681 8f3d
00000070: 4b83 94bd f3e8 1cbe 42e1 11be 7521 853e
00000080: 16ed 5abe 8594 703c a2d3 eebd c7e1 9e3e
00000090: 08cc f8be 2b37 9bbe d58a 9f3e 3ce0 4cbe
000000a0: 2bf5 883e 4794 dfbc c16d 88bd d1a5 90bd
000000b0: 41c4 4d3e c3a3 773c 88e1 cebd 362b 3fbe
000000c0: 5ec7 dcbd 3cf3 223e

model.4._encoder.initial_layer.bias f4 [5]
0.005978486 0.07343781 0.13300826 -0.2426886 0.45465043
00000000: 2de7 c33b 9066 963d 5133 083e 5c83 78be
00000010: f1c7 e83e

model.4._encoder.blocks.0.batch_norm_layers.0.weight f4 [5]
1.0 1.0 1.0 1.0 1.0
00000000: 0000 803f 0000 803f 0000 803f 0000 803f
00000010: 0000 803f

model.4._encoder.blocks.0.batch_norm_layers.0.bias f4 [5]
0.0 0.0 0.0 0.0 0.0
00000000: 0000 0000 0000 0000 0000 0000 0000 0000
00000010: 0000 0000

model.4._encoder.blocks.0.batch_norm_layers.0.running_mean f4 [5]
0.60316545 -0.24645588 0.13512652 -0.8712829 0.6212832
00000000: 0d69 1a3f ee5e 7cbe 9b5e 0a3e 650c 5fbf
00000010: 6a0c 1f3f

model.4._encoder.blocks.0.batch_norm_layers.0.running_var f4 [5]
6e-45 6e-45 6e-45 6e-45 6e-45
00000000: 0400 0000 0400 0000 0400 0000 0400 0000
00000010: 0400 0000

model.4._encoder.blocks.0.batch_norm_layers.1.weight f4 [5]
1.0 1.0 1.0 1.0 1.0
00000000: 0000 803f 0000 803f 0000 803f 0000 803f
00000010: 0000 803f

model.4._encoder.blocks.0.batch_norm_layers.1.bias f4 [5]
0.0 0.0 0.0 0.0 0.0
00000000: 0000 0000 0000 0000 0000 0000 0000 0000
00000010: 0000 0000

model.4._encoder.blocks.0.batch_norm_layers.1.running_mean f4 [5]
0.19775379 0.19494611 -0.38696265 0.4140622 0.42358375
00000000: f87f 4a3e f49f 473e f81f c6be f6ff d33e
00000010: f8df d83e

model.4._encoder.blocks.0.batch_norm_layers.1.running_var f4 [5]
6e-45 6e-45 6e-45 6e-45 6e-45
00000000: 0400 0000 0400 0000 0400 0000 0400 0000
00000010: 0400 0000

model.4._encoder.blocks.0.linear_layers.0.weight f4 [5, 5]
0.22477299 0.37929094 0.25868818 -0.13566399 -0.2967139 -0.033274055 0.37013075 -0.15009373
-0.41473246 0.18332557 0.43534964 -0.12731421 -0.3703034 -0.40564942 0.11207145 -0.033862885
-0.22583716 0.09039612 0.16983332 0.35567746 0.34720868 -0.06694059 -0.39433825 -0.40411252
0.41755867
00000000: e42a 663e 6c32 c23e c772 843e 80eb 0abe
00000010: e2ea 97be 604a 08bd c781 bd3e 2cb2 19be
00000020: d057 d4be b3b9 3b3e 26e6 de3e a85e 02be
00000030: 6898 bdbe 48b1 cfbe b785 e53d cfb3 0abd
00000040: db41 67be 9a21 b93d c9e8 2d3e 5b1b b63e
00000050: 56c5 b13e 2618 89bd b4e6 c9be d6e7 cebe
00000060: 40ca d53e

model.4._encoder.blocks.0.linear_layers.0.bias f4 [5]
0.19769311 0.1949437 -0.3869386 0.4141268 0.42366472
00000000: 1070 4a3e 529f 473e d11c c6be 6e08 d43e
00000010: 95ea d83e

model.4._encoder.blocks.0.linear_layers.1.weight f4 [5, 5]
-6.286335e-05 0.00062801293 0.00025980044 0.00031620444 9.287322e-05 0.00037281873 -0.000243652 -0.00039780024
-0.0009347085 -0.00075333694 0.00043340257 -0.0005921134 0.00014346647 0.00031919146 7.0803886e-05 -0.0006483498
0.0009563284 -0.0005814995 0.0008225006 -0.0007955083 -0.0002405485 0.0005439688 -0.00040858067 0.000840043
-0.0006881565
00000000: 81d5 83b8 3ca1 243a d335 8839 3ec8 a539
00000010: eec4 c238 e276 c339 d67c 7fb9 d88f d0b9
00000020: 3a07 75ba 967b 45ba 4f3a e339 0f38 1bba
00000030: 7d6f 1639 2759 a739 8c7c 9438 05f6 29ba
00000040: 1db2 7a3a c56f 18ba 159d 573a a989 50ba
00000050: bf3b 7cb9 2199 0e3a c536 d6b9 5536 5c3a
00000060: 6765 34ba

model.4._encoder.blocks.0.linear_layers.1.bias f4 [5]
0.20978083 -0.22519033 0.20360295 -0.1849853 0.2063905
00000000: c9d0 563e 4b98 66be 4b7d 503e c96c 3dbe
00000010: 0858 533e

model.4._encoder.blocks.1.batch_norm_layers.0.weight f4 [5]
1.0 1.0 1.0 1.0 1.0
00000000: 0000 803f 0000 803f 0000 803f 0000 803f
00000010: 0000 803f

model.4._encoder.blocks.1.batch_norm_layers.0.bias f4 [5]
0.0 0.0 0.0 0.0 0.0
00000000: 0000 0000 0000 0000 0000 0000 0000 0000
00000010: 0000 0000

model.4._encoder.blocks.1.batch_norm_layers.0.running_mean f4 [5]
0.8129584 -0.47179762 0.33879435 -1.0563048 0.8278261
00000000: 0b1e 503f 758f f1be 7476 ad3e ff34 87bf
00000010: 69ec 533f

model.4._encoder.blocks.1.batch_norm_layers.0.running_var f4 [5]
6e-45 6e-45 6e-45 6e-45 6e-45
00000000: 0400 0000 0400 0000 0400 0000 0400 0000
00000010: 0400 0000

model.4._encoder.blocks.1.batch_norm_layers.1.weight f4 [5]
1.0 1.0 1.0 1.0 1.0
00000000: 0000 803f 0000 803f 0000 803f 0000 803f
00000010: 0000 803f

model.4._encoder.blocks.1.batch_norm_layers.1.bias f4 [5]
0.0 0.0 0.0 0.0 0.0
00000000: 0000 0000 0000 0000 0000 0000 0000 0000
00000010: 0000 0000

model.4._encoder.blocks.1.batch_norm_layers.1.running_mean f4 [5]
0.19958484 0.30566373 -0.07086175 -0.37060538 0.2215575
00000000: f85f 4c3e f57f 9c3e f71f 91bd fdbf bdbe
00000010: f8df 623e

model.4._encoder.blocks.1.batch_norm_layers.1.running_var f4 [5]
6e-45 6e-45 6e-45 6e-45 6e-45
00000000: 0400 0000 0400 0000 0400 0000 0400 0000
00000010: 0400 0000

model.4._encoder.blocks.1.linear_layers.0.weight f4 [5, 5]
0.1599362 -0.11211959 -0.096983775 0.32883766 -0.34658423 0.047500044 0.42056376 -0.061452597
0.34723368 -0.13772248 0.35999003 -0.43260327 -0.064454064 -0.07855147 0.14493522 0.17545415
0.34337816 -0.06662855 -0.017734295 0.3062569 -0.121003985 0.3920425 -0.29776025 -0.048392914
-0.024020262
00000000: 51c6 233e f59e e5bd 6e9f c6bd 695d a83e
00000010: 7d73 b1be 688f 423d 2254 d73e b8b5 7bbd
00000020: 9dc8 b13e 1f07 0dbe 9d50 b83e 2d7e ddbe
00000030: 7e00 84bd 98df a0bd e669 143e 41aa 333e
00000040: 43cf af3e 8d74 88bd 8347 91bc b4cd 9c3e
00000050: f0d0 f7bd cbb9 c83e 0874 98be a637 46bd
00000060: 24c6 c4bc

model.4._encoder.blocks.1.linear_layers.0.bias f4 [5]
0.19955114 0.30574927 -0.07088504 -0.37050778 0.22159086
00000000: 2257 4c3e 2b8b 9c3e 2d2c 91bd 32b3 bdbe
00000010: b7e8 623e

model.4._encoder.blocks.1.linear_layers.1.weight f4 [5, 5]
0.0008534742 0.0008110172 -0.0007408832 -0.00016021682 -0.0005917377 -0.0005713518 0.00023720706 0.000938648
-0.000801104 0.0006052045 -0.00051846675 -0.00019477429 0.00079377095 -0.00022617032 9.105576e-05 -0.00069903256
0.00085124094 -0.00012926984 -0.0007313905 0.00029281032 -0.0007110174 -0.0007935074 6.091917e-05 0.00079284364
-0.00028298402
00000000: afbb 5f3a 719a 543a d437 42ba e0ff 27b9
00000010: d81e 1bba c5c6 15ba c9ba 7839 9a0f 763a
00000020: 2e01 52ba 96a6 1e3a b7e9 07ba 533c 4cb9
00000030: 1115 503a 2228 6db9 30f5 be38 483f 37ba
00000040: d025 5f3a 9c8c 07b9 c9ba 3fba 5684 9939
00000050: 9263 3aba 6103 50ba 7683 7f38 d6d6 4f3a
00000060: 795d 94b9

model.4._encoder.blocks.1.linear_layers.1.bias f4 [5]
0.21109127 -0.2238801 0.20410454 -0.1864306 0.20675828
00000000: 4f28 583e d340 65be c800 513e aae7 3ebe
00000010: 71b8 533e

model.4._encoder.blocks.2.batch_norm_layers.0.weight f4 [5]
1.0 1.0 1.0 1.0 1.0
00000000: 0000 803f 0000 803f 0000 803f 0000 803f
00000010: 0000 803f

model.4._encoder.blocks.2.batch_norm_layers.0.bias f4 [5]
0.0 0.0 0.0 0.0 0.0
00000000: 0000 0000 0000 0000 0000 0000 0000 0000
00000010: 0000 0000

model.4._encoder.blocks.2.batch_norm_layers.0.running_mean f4 [5]
1.0241535 -0.69561344 0.54306513 -1.2428285 1.034558
00000000: 7617 833f b913 32bf 5106 0b3f 0115 9fbf
00000010: 666c 843f

model.4._encoder.blocks.2.batch_norm_layers.0.running_var f4 [5]
6e-45 6e-45 6e-45 6e-45 6e-45
00000000: 0400 0000 0400 0000 0400 0000 0400 0000
00000010: 0400 0000

model.4._encoder.blocks.2.batch_norm_layers.1.weight f4 [5]
1.0 1.0 1.0 1.0 1.0
00000000: 0000 803f 0000 803f 0000 803f 0000 803f
00000010: 0000 803f

model.4._encoder.blocks.2.batch_norm_layers.1.bias f4 [5]
0.0 0.0 0.0 0.0 0.0
00000000: 0000 0000 0000 0000 0000 0000 0000 0000
00000010: 0000 0000

model.4._encoder.blocks.2.batch_norm_layers.1.running_mean f4 [5]
0.27734357 -0.28515616 0.44531232 -0.26513654 0.44653302
00000000: faff 8d3e fdff 91be faff e33e fabf 87be
00000010: fa9f e43e

model.4._encoder.blocks.2.batch_norm_layers.1.running_var f4 [5]
6e-45 6e-45 6e-45 6e-45 6e-45
00000000: 0400 0000 0400 0000 0400 0000 0400 0000
00000010: 0400 0000

model.4._encoder.blocks.2.linear_layers.0.weight f4 [5, 5]
-0.14073135 -0.3596147 0.00018477945 0.33649918 0.3767844 0.04172534 0.1015725 -0.19360845
0.3375758 -0.18608937 -0.31065816 0.06886798 0.2680533 -0.403204 0.40426654 0.16087663
-0.31332356 -0.09633316 0.38799354 -0.34311777 -0.13071035 0.14667724 -0.39179713 0.2451617
0.23279597
00000000: e11b 10be 6b1f b8be 5bc1 4139 9f49 ac3e
00000010: e3e9 c03e 31e8 2a3d 3e05 d03d 4b41 46be
00000020: bcd6 ac3e 368e 3ebe 960e 9fbe a80a 8d3d
00000030: 483e 893e c170 cebe 06fc ce3e d8bc 243e
00000040: f26b a0be 524a c5bd 17a7 c63e 22ad afbe
00000050: efd8 05be 8f32 163e a299 c8be ab0b 7b3e
00000060: 1162 6e3e

model.4._encoder.blocks.2.linear_layers.0.bias f4 [5]
0.27736434 -0.28511974 0.44542518 -0.265091 0.44647142
00000000: b302 8e3e 37fb 91be c50e e43e 02ba 87be
00000010: e797 e43e

model.4._encoder.blocks.2.linear_layers.1.weight f4 [5, 5]
0.000118122705 -0.0004688517 -0.0003454949 0.000270854 -0.00069536525 0.00016499568 0.00043272474 -0.00039407017
0.0008306412 -6.581045e-05 0.0004537127 0.0009903064 -0.00030566836 0.00054340815 -0.00028602924 -0.00014607298
-0.00016947115 -6.2125923e-06 -0.00037776842 0.00023438693 3.768039e-05 0.0006338898 -0.00020240534 0.00010028017
-0.00037199035
00000000: a5b8 f738 36d0 f5b9 8a23 b5b9 6901 8e39
00000010: 2c49 36ba b102 2d39 55df e239 349b ceb9
00000020: 63bf 593a b703 8ab8 4ae0 ed39 2bcd 813a
00000030: 1d42 a0b9 8173 0e3a 32f6 95b9 2b2b 19b9
00000040: 11b4 31b9 c375 d0b6 380f c6b9 c3c5 7539
00000050: 030b 1e38 a02b 263a c53c 54b9 824d d238
00000060: b307 c3b9

model.4._encoder.blocks.2.linear_layers.1.bias f4 [5]
0.20978315 -0.22433475 0.20356926 -0.18630654 0.2065298
00000000: 65d1 563e 02b8 65be 7674 503e 24c7 3ebe
00000010: 8c7c 533e

model.4._encoder.final_layer.weight f4 [1, 5]
0.33438691 -0.17307997 0.37847653 -0.19959418 0.39515907
00000000: c334 ab3e e03b 31be adc7 c13e 6b62 4cbe
00000010: 4a52 ca3e

model.5.log_s f4 [3]
-0.06569506 0.17707992 0.23130277
00000000: 228b 86bd 7054 353e a2da 6c3e

model.5.u f4 [3, 3]
0.0 -0.3742651 0.444035 0.0 0.0 -0.23809426 0.0 0.0
0.0
00000000: 0000 0000 ad9f bfbe 8e58 e33e 0000 0000
00000010: 0000 0000 fbce 73be 0000 0000 0000 0000
00000020: 0000 0000

model.5.sign_s f4 [3]
-1.0 1.0 -1.0
00000000: 0000 80bf 0000 803f 0000 80bf

model.6._shift_and_log_scale.logs f4 [1, 4, 1, 1]
-0.022075048 -0.011457507 0.09137212 0.0903841
00000000: bbd6 b4bc 44b8 3bbc 4e21 bb3d 4d1b b93d

model.6._shift_and_log_scale.conv2d_1.weight f4 [4, 4, 3, 3]
-0.0020643426 -0.0018888129 0.0004942494 0.0049021533 0.013112998 -0.0019311499 -0.005382328 0.0031326902
0.0010655697 -0.0016976787 0.005060236 -0.003517195 0.0031910478 0.018733248 0.000615941 -0.0029703244
0.006768815 -0.003871504 0.0036119109 0.0078739 -0.010926532 4.211793e-05 0.0053043975 -0.015899966
0.0021664854 0.009933299 -0.00684021 0.0038032227 -0.0038702008 -0.0018543438 -0.0072884425 -0.00784196
-0.0111370925 -0.0044111465 -0.002132055 0.00051967555 0.007526914 -0.012452156 -0.0095653245 0.0011115675
0.05698393 -0.003036503 -0.0071810666 0.011381701 -0.0012110618 -0.004094468 -0.0006433835 -0.0051393113
0.0022897655 -0.018134216 0.00083872216 -0.00065237 0.0021353785 -0.00031736662 -0.0032367783 0.0046297386
-0.0017659998 0.0023829944 0.016593216 0.0033311702 -0.0034209064 0.0053892056 -0.0021094882 -0.0043631983
0.0027012066 -0.004893374 0.0010290529 0.005448041 0.001335569 -0.0008956612 0.004686656 -0.0028125732
-0.015820405 0.013306383 -0.009288912 -0.058062773 0.07951527 0.009544269 0.04533044 -0.05893856
-0.0137845 -0.0019939942 -0.00014101046 0.0009977268 -0.0015885201 0.001802774 -0.000390464 0.00024418236
-0.00094525836 -0.00011509864 0.0005421314 0.00023664541 0.00068761344 0.00026709627 -0.0006793895 -0.0014687949
0.0010057639 0.00050931243 0.00032699748 0.00017223945 -0.0020673159 0.0011420138 0.0008176274 0.0010009913
-0.00013610901 -0.0006660327 0.0008344074 0.00021271806 0.011713483 0.0019512171 0.007570999 0.0030244146
-0.109251745 -0.0006463869 0.00408927 0.0069286563 0.020065963 0.0032525682 -0.008568642 0.0033893893
-0.003094502 -0.014660342 -0.0024891105 0.0032277044 -0.006286375 0.0036121854 0.00067151943 0.003787969
0.0012155944 0.0007551366 0.003973593 0.0027041913 0.0002893459 -0.00040985254 0.00078504236 -0.0015015353
-0.00053368474 -0.0015559999 -0.00046662445 0.007441905 -0.0019685933 -0.0015064259 -7.945806e-05 -0.003163117
00000000: ec49 07bb 0b92 f7ba 8490 013a 3ea2 a03b
00000010: e6d7 563c a31e fdba 3d5e b0bb d24d 4d3b
00000020: 96aa 8b3a a584 deba 56d0 a53b bd80 66bb
00000030: e620 513b 7876 993c 1a77 213a c6a9 42bb
00000040: f0cc dd3b 0fb9 7dbb cfb5 6c3b 8801 013c
00000050: 3205 33bc c8a7 3038 83d0 ad3b a540 82bc
00000060: 98fb 0d3b 47bf 223c d723 e0bb 7d3f 793b
00000070: 32a3 7dbb 740d f3ba e3d3 eebb 907b 00bc
00000080: 5a78 36bc 618b 90bb f2b9 0bbb d63a 083a
00000090: 55a4 f63b 2104 4cbc e1b7 1cbc 04b2 913a
000000a0: fb67 693d 1100 47bb 274f ebbb 507a 3a3c
000000b0: 7ebc 9eba e32a 86bb bca8 28ba ab67 a8bb
000000c0: e40f 163b 358e 94bc b1dd 5b3a cf03 2bba
000000d0: b5f1 0b3b 3a64 a6b9 2120 54bb 10b5 973b
000000e0: 1f79 e7ba 032c 1c3b 7fee 873c c34f 5a3b
000000f0: 4931 60bb ef97 b03b 573f 0abb 29f9 8ebb
00000100: ba06 313b 9958 a0bb 49e1 863a 7b85 b23b
00000110: 420e af3a ceca 6aba 8592 993b 2653 38bb
00000120: cb99 81bc 0403 5a3c 8530 18bc 3bd3 6dbd
00000130: e7d8 a23d 915f 1c3c 69ac 393d 8f69 71bd
00000140: 62d8 61bc acad 02bb 35dc 13b9 28c6 823a
00000150: e435 d0ba 0f4b ec3a 31b7 ccb9 9a05 8039
00000160: 37cb 77ba 1d61 f1b8 d31d 0e3a 0524 7839
00000170: f540 343a 0e09 8c39 0f19 32ba 9484 c0ba
00000180: d6d3 833a 6183 053a dc70 ab39 2d9b 3439
00000190: ce7b 07bb a0af 953a 0c56 563a b233 833a
000001a0: 7cb8 0eb9 b398 2eba 22bc 5a3a 120d 5f39
000001b0: e9e9 3f3c fbbf ff3a 2516 f83b 4235 463b
000001c0: 61bf dfbd 4a72 29ba 48ff 853b c809 e33b
000001d0: 6061 a43c 0a29 553b 7d63 0cbc 8420 5e3b
000001e0: 21cd 4abb ee31 70bc 5820 23bb e587 533b
000001f0: f0fd cdbb 6aba 6c3b e808 303a 933f 783b
00000200: 9454 9f3a 5cf4 453a ea34 823b cd38 313b
00000210: 59b3 9739 7ae1 d6b9 4dcb 4d3a 2acf c4ba
00000220: fae6 0bba b1f2 cbba 46a5 f4b9 39db f33b
00000230: 8403 01bb 4473 c5ba b9a2 a6b8 4c4c 4fbb

model.6._shift_and_log_scale.conv2d_1.bias f4 [4]
-0.023346897 -0.0030389326 0.01203868 -0.008735125
00000000: fe41 bfbc d428 47bb e23d 453c c51d 0fbc

model.6._shift_and_log_scale.conv2d_2.weight f4 [4, 4, 1, 1]
-0.031727772 -0.00060982537 -0.0065780752 -0.008200711 -0.007628496 0.032941844 0.005388959 -0.019322237
0.003401818 0.0047538425 -0.04547513 -0.0050226357 -0.0026581956 -0.014344036 -0.0059760604 -0.023764476
00000000: fbf4 01bd b0dc 1fba e58c d7bb 465c 06bc
00000010: 76f8 f9bb 07ee 063d dd95 b03b ab49 9ebc
00000020: 09f1 5e3b 1fc6 9b3b 2144 3abd ec94 a4bb
00000030: 1f35 2ebb 3f03 6bbc d4d2 c3bb b8ad c2bc

model.6._shift_and_log_scale.conv2d_2.bias f4 [4]
-0.008672253 0.014322782 -0.00495679 -0.0045428127
00000000: 1116 0ebc 1aaa 6a3c 916c a2bb e0db 94bb

model.6._shift_and_log_scale.net.0.weight f4 [4, 4, 3, 3]
-0.0020643426 -0.0018888129 0.0004942494 0.0049021533 0.013112998 -0.0019311499 -0.005382328 0.0031326902
0.0010655697 -0.0016976787 0.005060236 -0.003517195 0.0031910478 0.018733248 0.000615941 -0.0029703244
0.006768815 -0.003871504 0.0036119109 0.0078739 -0.010926532 4.211793e-05 0.0053043975 -0.015899966
0.0021664854 0.009933299 -0.00684021 0.0038032227 -0.0038702008 -0.0018543438 -0.0072884425 -0.00784196
-0.0111370925 -0.0044111465 -0.002132055 0.00051967555 0.007526914 -0.012452156 -0.0095653245 0.0011115675
0.05698393 -0.003036503 -0.0071810666 0.011381701 -0.0012110618 -0.004094468 -0.0006433835 -0.0051393113
0.0022897655 -0.018134216 0.00083872216 -0.00065237 0.0021353785 -0.00031736662 -0.0032367783 0.0046297386
-0.0017659998 0.0023829944 0.016593216 0.0033311702 -0.0034209064 0.0053892056 -0.0021094882 -0.0043631983
0.0027012066 -0.004893374 0.0010290529 0.005448041 0.001335569 -0.0008956612 0.004686656 -0.0028125732
-0.015820405 0.013306383 -0.009288912 -0.058062773 0.07951527 0.009544269 0.04533044 -0.05893856
-0.0137845 -0.0019939942 -0.00014101046 0.0009977268 -0.0015885201 0.001802774 -0.000390464 0.00024418236
-0.00094525836 -0.00011509864 0.0005421314 0.00023664541 0.00068761344 0.00026709627 -0.0006793895 -0.0014687949
0.0010057639 0.00050931243 0.00032699748 0.00017223945 -0.0020673159 0.0011420138 0.0008176274 0.0010009913
-0.00013610901 -0.0006660327 0.0008344074 0.00021271806 0.011713483 0.0019512171 0.007570999 0.0030244146
-0.109251745 -0.0006463869 0.00408927 0.0069286563 0.020065963 0.0032525682 -0.008568642 0.0033893893
-0.003094502 -0.014660342 -0.0024891105 0.0032277044 -0.006286375 0.0036121854 0.00067151943 0.003787969
0.0012155944 0.0007551366 0.003973593 0.0027041913 0.0002893459 -0.00040985254 0.00078504236 -0.0015015353
-0.00053368474 -0.0015559999 -0.00046662445 0.007441905 -0.0019685933 -0.0015064259 -7.945806e-05 -0.003163117
00000000: ec49 07bb 0b92 f7ba 8490 013a 3ea2 a03b
00000010: e6d7 563c a31e fdba 3d5e b0bb d24d 4d3b
00000020: 96aa 8b3a a584 deba 56d0 a53b bd80 66bb
00000030: e620 513b 7876 993c 1a77 213a c6a9 42bb
00000040: f0cc dd3b 0fb9 7dbb cfb5 6c3b 8801 013c
00000050: 3205 33bc c8a7 3038 83d0 ad3b a540 82bc
00000060: 98fb 0d3b 47bf 223c d723 e0bb 7d3f 793b
00000070: 32a3 7dbb 740d f3ba e3d3 eebb 907b 00bc
00000080: 5a78 36bc 618b 90bb f2b9 0bbb d63a 083a
00000090: 55a4 f63b 2104 4cbc e1b7 1cbc 04b2 913a
000000a0: fb67 693d 1100 47bb 274f ebbb 507a 3a3c
000000b0: 7ebc 9eba e32a 86bb bca8 28ba ab67 a8bb
000000c0: e40f 163b 358e 94bc b1dd 5b3a cf03 2bba
000000d0: b5f1 0b3b 3a64 a6b9 2120 54bb 10b5 973b
000000e0: 1f79 e7ba 032c 1c3b 7fee 873c c34f 5a3b
000000f0: 4931 60bb ef97 b03b 573f 0abb 29f9 8ebb
00000100: ba06 313b 9958 a0bb 49e1 863a 7b85 b23b
00000110: 420e af3a ceca 6aba 8592 993b 2653 38bb
00000120: cb99 81bc 0403 5a3c 8530 18bc 3bd3 6dbd
00000130: e7d8 a23d 915f 1c3c 69ac 393d 8f69 71bd
00000140: 62d8 61bc acad 02bb 35dc 13b9 28c6 823a
00000150: e435 d0ba 0f4b ec3a 31b7 ccb9 9a05 8039
00000160: 37cb 77ba 1d61 f1b8 d31d 0e3a 0524 7839
00000170: f540 343a 0e09 8c39 0f19 32ba 9484 c0ba
00000180: d6d3 833a 6183 053a dc70 ab39 2d9b 3439
00000190: ce7b 07bb a0af 953a 0c56 563a b233 833a
000001a0: 7cb8 0eb9 b398 2eba 22bc 5a3a 120d 5f39
000001b0: e9e9 3f3c fbbf ff3a 2516 f83b 4235 463b
000001c0: 61bf dfbd 4a72 29ba 48ff 853b c809 e33b
000001d0: 6061 a43c 0a29 553b 7d63 0cbc 8420 5e3b
000001e0: 21cd 4abb ee31 70bc 5820 23bb e587 533b
000001f0: f0fd cdbb 6aba 6c3b e808 303a 933f 783b
00000200: 9454 9f3a 5cf4 453a ea34 823b cd38 313b
00000210: 59b3 9739 7ae1 d6b9 4dcb 4d3a 2acf c4ba
00000220: fae6 0bba b1f2 cbba 46a5 f4b9 39db f33b
00000230: 8403 01bb 4473 c5ba b9a2 a6b8 4c4c 4fbb

model.6._shift_and_log_scale.net.0.bias f4 [4]
-0.023346897 -0.0030389326 0.01203868 -0.008735125
00000000: fe41 bfbc d428 47bb e23d 453c c51d 0fbc

model.6._shift_and_log_scale.net.1.weight f4 [4]
1.0227278 1.0367099 1.0245639 1.0217476
00000000: bfe8 823f e9b2 843f e924 833f a0c8 823f

model.6._shift_and_log_scale.net.1.bias f4 [4]
0.0161667 -0.013890145 0.06039301 0.07376798
00000000: 0770 843c 7e93 63bc a95e 773d ab13 973d

model.6._shift_and_log_scale.net.1.running_mean f4 [4]
-0.030048138 0.00059837085 0.012913403 -0.01048103
00000000: 8327 f6bc fddb 1c3a bd92 533c a0b8 2bbc

model.6._shift_and_log_scale.net.1.running_var f4 [4]
4.0769424e-05 1.5032854e-05 8.867181e-06 1.8354232e-05
00000000: d6ff 2a38 9e35 7c37 41c4 1437 6af7 9937

model.6._shift_and_log_scale.net.3.weight f4 [4, 4, 1, 1]
-0.031727772 -0.00060982537 -0.0065780752 -0.008200711 -0.007628496 0.032941844 0.005388959 -0.019322237
0.003401818 0.0047538425 -0.04547513 -0.0050226357 -0.0026581956 -0.014344036 -0.0059760604 -0.023764476
00000000: fbf4 01bd b0dc 1fba e58c d7bb 465c 06bc
00000010: 76f8 f9bb 07ee 063d dd95 b03b ab49 9ebc
00000020: 09f1 5e3b 1fc6 9b3b 2144 3abd ec94 a4bb
00000030: 1f35 2ebb 3f03 6bbc d4d2 c3bb b8ad c2bc

model.6._shift_and_log_scale.net.3.bias f4 [4]
-0.008672253 0.014322782 -0.00495679 -0.0045428127
00000000: 1116 0ebc 1aaa 6a3c 916c a2bb e0db 94bb

model.6._shift_and_log_scale.net.4.weight f4 [4]
1.1152635 1.1109115 1.1081014 1.0934119
00000000: f4c0 8e3f 5932 8e3f 44d6 8d3f ecf4 8b3f

model.6._shift_and_log_scale.net.4.bias f4 [4]
0.11888978 0.1284389 0.122207634 0.123456545
00000000: 7c7c f33d 7d85 033e ff47 fa3d c9d6 fc3d

model.6._shift_and_log_scale.net.4.running_mean f4 [4]
-0.023290634 0.016036224 -0.017290343 -0.019822393
00000000: 00cc bebc 665e 833c 7aa4 8dbc 9262 a2bc

model.6._shift_and_log_scale.net.4.running_var f4 [4]
0.00033820933 0.00041647154 0.00036337253 0.00015524667
00000000: b051 b139 dd59 da39 0983 be39 b6c9 2239

model.6._shift_and_log_scale.conv2d_3.weight f4 [4, 5, 3, 3]
0.0001455474 0.0011754335 0.0024941585 0.0024113022 -0.0012620271 0.0015011776 -9.406271e-05 0.00238705
-0.0013514622 -0.0013824475 -0.0002441877 0.000679636 -0.0011018176 -0.0040944437 -0.0012038576 -0.00032734266
-0.0005259784 -0.0010274886 0.0026270568 0.002717341 -0.0024976197 -0.0032693432 -0.006735503 0.0010836234
-0.0012733303 -0.0023232799 0.00023977294 -0.0018161879 -0.0010284858 -0.00025428823 -0.0010482185 -0.0020448614
-0.0008183191 -0.0015722906 -0.0012471582 -0.0012137106 0.013447934 0.010056819 0.012563081 0.0041705985
0.0 0.0154880285 0.0065737385 -0.00265086 0.011641682 0.00057020807 0.0011689576 -0.0023476107
-0.0038473639 -0.00030387632 -0.0001437986 -9.706848e-05 -0.0025262604 0.0013427016 0.0007088527 0.0018674654
0.0006754184 0.0017106555 0.012067066 0.00096935977 -0.00087130745 -0.00011244031 0.0015262238 -0.0043241936
-0.005241191 0.0035876867 0.006203947 0.005344186 -0.005645696 0.0039928886 0.0056857057 -0.0039730407
0.001883913 0.0021518406 -0.00015748423 0.00056197285 0.0016340849 0.0020454058 0.0001696185 0.00015848842
0.001206737 0.0024823449 0.0011265242 0.00075077376 0.002900984 0.0 -0.0045797345 0.00045058725
0.00040645513 -0.004351383 0.098359354 0.12770253 0.060957994 0.12383457 0.13128482 0.10968911
0.08227461 0.119910315 0.07403602 0.00714982 -0.009318792 -0.0047337273 -0.010523426 0.06349406
-0.03511311 0.0029871024 -0.021431243 -0.006809963 0.04678658 0.108236715 0.026240554 0.0542377
0.034223378 0.12523668 0.03278071 0.086216606 0.057333257 0.031087233 0.09811233 0.032830972
0.07882426 0.049600545 0.09818774 0.032395966 0.102181576 0.029748313 0.0141373295 0.020319525
0.016450005 0.020106982 0.0 0.018693486 0.03530443 0.05591634 0.03488226 0.13145776
0.10705757 0.052490715 0.1415249 0.16683811 0.08927335 0.11443156 0.11721233 0.09288355
0.0058743204 0.019442864 -0.010719953 0.029544564 0.0265393 -0.018402644 -0.011906896 0.018722313
-0.01923102 0.063653156 0.059900966 0.052898984 0.07008032 0.10725706 0.0635914 0.06061848
0.06527057 0.06832902 0.04744653 0.043520004 0.03375578 0.053847536 0.07382951 0.050616197
0.046268094 0.049966995 0.05358826 0.05159539 0.04012871 0.053445943 0.069187924 0.0
0.067346804 0.062755756 0.05708538 0.05982517
00000000: 159e 1839 0111 9a3a 0975 233b f006 1e3b
00000010: 9a6a a5ba 29c3 c43a 8843 c5b8 0e70 1c3b
00000020: 8c23 b1ba 3e33 b5ba 5106 80b9 9a29 323a
00000030: dd6a 90ba af2a 86bb c2ca 9dba 309f abb9
00000040: d0e1 09ba ccac 86ba b32a 2c3b 6b15 323b
00000050: 1baf 23bb 7a42 56bb 7fb5 dcbb 5e08 8e3a
00000060: e0e5 a6ba 2b42 18bb 8f6b 7b39 270d eeba
00000070: 42ce 86ba fd51 85b9 6064 89ba 1503 06bb
00000080: 7784 56ba 5115 ceba af77 a3ba 5f15 9fba
00000090: b954 5c3c 5bc5 243c 62d5 4d3c 84a9 883b
000000a0: 0000 0000 80c1 7d3c 8468 d73b 0dba 2dbb
000000b0: c1bc 3e3c 047a 153a b537 993a 5fda 19bb
000000c0: 0e24 7cbb 9751 9fb9 a5c8 16b9 3e91 cbb8
000000d0: 9e8f 25bb 97fd af3a 4dd2 393a bec5 f43a
000000e0: 900e 313a 1338 e03a f1b4 453c a21c 7e3a
000000f0: 7468 64ba efcd ebb8 930b c83a f7b1 8dbb
00000100: 4cbe abbb 651f 6b3b 7b4a cb3b 481e af3b
00000110: 88ff b8bb c7d6 823b 284f ba3b 4830 82bb
00000120: a1ed f63a e505 0d3b 5a22 25b9 5c51 133a
00000130: ca2e d63a 370c 063b 9fdb 3139 e92f 2639
00000140: 602b 9e3a d6ae 223b e1a7 933a 93cf 443a
00000150: 6f1e 3e3b 0000 0000 9911 96bb cc3c ec39
00000160: 7c19 d539 0c96 8ebb a170 c93d 74c4 023e
00000170: 17af 793d fb9c fd3d 876f 063e afa4 e03d
00000180: 977f a83d 8a93 f53d 32a0 973d 0a49 ea3b
00000190: d9ad 18bc 621d 9bbb 736a 2cbc 2c09 823d
000001a0: c4d2 0fbd 43c3 433b 9390 afbc 1c26 dfbb
000001b0: 49a3 3f3d 36ab dd3d 6ef6 d63c 5a28 5e3d
000001c0: d02d 0c3d 0b3e 003e 1145 063d 5592 b03d
000001d0: 47d6 6a3d a7aa fe3c 1eef c83d c579 063d
000001e0: 9d6e a13d f129 4b3d a716 c93d a2b1 043d
000001f0: 9344 d13d bcb2 f33c 42a0 673c 2275 a63c
00000200: 29c2 863c 66b7 a43c 0000 0000 1523 993c
00000210: 619b 103d 8808 653d b3e0 0e3d dd9c 063e
00000220: 0041 db3d 8100 573d e7eb 103e 9cd7 2a3e
00000230: f2d4 b63d 185b ea3d 050d f03d bb39 be3d
00000240: 5f7d c03b a446 9f3c bea2 2fbc 7107 f23c
00000250: f268 d93c 24c1 96bc 2415 43bc 895f 993c
00000260: 5f8a 9dbc 965c 823d b75a 753d 9bac 583d
00000270: 4586 8f3d 97a9 db3d 353c 823d 154b 783d
00000280: 94ac 853d 16f0 8b3d 4b57 423d 0842 323d
00000290: 8043 0a3d 3c8f 5c3d ed33 973d ee52 4f3d
000002a0: 9d83 3d3d 31aa 4c3d 5d7f 5b3d b055 533d
000002b0: 015e 243d 22ea 5a3d 66b2 8d3d 0000 0000
000002c0: 1fed 893d 1786 803d 5cd2 693d 3d0b 753d

model.6._shift_and_log_scale.conv2d_3.bias f4 [4]
0.00410815 -0.0012822774 0.020382386 0.053448614
00000000: a99d 863b 1712 a8ba f6f8 a63c efec 5a3d

model.6._encoder.initial_layer.weight f4 [5, 10]
-0.32764456 0.11960765 0.06680223 0.17432866 0.30051735 -0.19795513 -0.051568132 0.1057986
0.16683169 0.14994647 -0.33444065 -0.24993253 0.25310388 -0.18032433 0.202173 -0.30125234
-0.27085698 0.0033516658 0.05471486 0.025561323 -0.13102935 -0.035210248 0.077445574 0.31293404
-0.20461582 -0.017265018 -0.35138628 0.2774676 0.27070358 -0.008623292 -0.32802075 -0.19538644
0.22627348 -0.021776592 0.29782632 0.18033266 0.05838963 0.250112 -0.20549816 0.09256056
-0.34935445 0.1586683 -0.028431972 0.027375808 -0.21870591 -0.28262085 -0.099145055 0.073486716
0.02746843 0.21478018
00000000: 07c1 a7be dbf4 f43d 9ccf 883d 3683 323e
00000010: 69dd 993e c0b4 4abe 1b39 53bd f0ac d83d
00000020: edd5 2a3e 918b 193e ce3b abbe 50ee 7fbe
00000030: d596 813e f1a6 38be 7006 4f3e bf3d 9abe
00000040: c4ad 8abe 9fa7 5b3b b01c 603d fb65 d13c
00000050: 8f2c 06be 9f38 10bd c99b 9e3d e438 a03e
00000060: cf86 51be 5e6f 8dbc e7e8 b3be 3c10 8e3e
00000070: a999 8a3e b548 0dbc 56f2 a7be 6213 48be
00000080: 3cb4 673e d364 b2bc b17c 983e 20a9 383e
00000090: f729 6f3d ae0e 803e 1c6e 52be 6490 bd3d
000000a0: 96de b2be f179 223e 2bea e8bc 3b43 e03c
000000b0: 71f4 5fbe aeb3 90be 900c cbbd 3480 963d
000000c0: 7905 e13c 56ef 5b3e

model.6._encoder.initial_layer.bias f4 [5]
-0.35144696 -0.10389296 -0.40484098 -0.15288353 -0.29042202
00000000: dbf0 b3be d5c5 d4bd 5147 cfbe 808d 1cbe
00000010: 32b2 94be

model.6._encoder.blocks.0.batch_norm_layers.0.weight f4 [5]
1.0 1.0 1.0 1.0 1.0
00000000: 0000 803f 0000 803f 0000 803f 0000 803f
00000010: 0000 803f

model.6._encoder.blocks.0.batch_norm_layers.0.bias f4 [5]
0.0 0.0 0.0 0.0 0.0
00000000: 0000 0000 0000 0000 0000 0000 0000 0000
00000010: 0000 0000

model.6._encoder.blocks.0.batch_norm_layers.0.running_mean f4 [5]
-0.7307166 -0.7090394 -0.88719463 -0.42256004 -0.739103
00000000: 3e10 3bbf 9b83 35bf 301f 63bf ca59 d8be
00000010: db35 3dbf

model.6._encoder.blocks.0.batch_norm_layers.0.running_var f4 [5]
6e-45 6e-45 6e-45 6e-45 6e-45
00000000: 0400 0000 0400 0000 0400 0000 0400 0000
00000010: 0400 0000

model.6._encoder.blocks.0.batch_norm_layers.1.weight f4 [5]
1.0 1.0 1.0 1.0 1.0
00000000: 0000 803f 0000 803f 0000 803f 0000 803f
00000010: 0000 803f

model.6._encoder.blocks.0.batch_norm_layers.1.bias f4 [5]
0.0 0.0 0.0 0.0 0.0
00000000: 0000 0000 0000 0000 0000 0000 0000 0000
00000010: 0000 0000

model.6._encoder.blocks.0.batch_norm_layers.1.running_mean f4 [5]
-0.42480445 -0.39453095 0.44018543 -0.21325666 -0.080688395
00000000: f87f d9be f6ff c9be fc5f e13e f45f 5abe
00000010: f53f a5bd

model.6._encoder.blocks.0.batch_norm_layers.1.running_var f4 [5]
6e-45 6e-45 6e-45 6e-45 6e-45
00000000: 0400 0000 0400 0000 0400 0000 0400 0000
00000010: 0400 0000

model.6._encoder.blocks.0.linear_layers.0.weight f4 [5, 5]
0.31319562 0.39108047 0.3884156 0.020117555 0.26371875 -0.44682825 -0.26233292 0.07992745
0.002494096 -0.3510953 -0.19794191 -0.20887296 -0.44308227 0.042651106 0.30486283 0.18150763
-0.21248591 -0.41066068 -0.36080164 0.008295456 0.3076442 -0.18110923 -0.24334903 -0.23856898
-0.038714703
00000000: 2d5b a03e b33b c83e 69de c63e 92cd a43c
00000010: 2506 873e acc6 e4be 8050 86be 01b1 a33d
00000020: fd73 233b c3c2 b3be 49b1 4abe cbe2 55be
00000030: aedb e2be edb2 2e3d fb16 9c3e 23dd 393e
00000040: e895 59be 1e42 d2be feba b8be aae9 073c
00000050: 8a83 9d3e b374 39be 7d30 79be 6d4b 74be
00000060: 4f93 1ebd

model.6._encoder.blocks.0.linear_layers.0.bias f4 [5]
-0.4246985 -0.39464116 0.44023287 -0.21328335 -0.08066108
00000000: 1572 d9be 680e cabe 3466 e13e f366 5abe
00000010: a331 a5bd

model.6._encoder.blocks.0.linear_layers.1.weight f4 [5, 5]
0.0009982185 0.0009166135 -0.0005175395 -0.0008509027 -0.0009012883 -0.00048155978 0.0008407866 0.00033584965
0.0009648532 0.0007412209 1.4497638e-05 -0.00061977544 0.0009765007 0.00080217124 0.000432943 -0.0005462635
0.00078777934 9.1015936e-05 0.0006612339 0.00041736677 0.0005310084 -0.000877476 -0.0005544812 0.0005997715
-0.00020833588
00000000: a8d6 823a e448 703a 7dab 07ba 1d0f 5fba
00000010: 6f44 6cba dc79 fcb9 3c68 5c3a fa14 b039
00000020: 34ee 7c3a 7e4e 423a e23a 7337 6d78 22ba
00000030: dafb 7f3a cd48 523a a0fc e239 1f33 0fba
00000040: fa82 4e3a cfdf be38 a856 2d3a 05d2 da39
00000050: 5f33 0b3a 6b06 66ba 9a5a 11ba fc39 1d3a
00000060: bd74 5ab9

model.6._encoder.blocks.0.linear_layers.1.bias f4 [5]
-0.22026847 -0.21523814 -0.23069623 -0.21759938 -0.21900961
00000000: 0f8e 61be 6367 5cbe a23b 6cbe 5fd2 5ebe
00000010: 0e44 60be

model.6._encoder.blocks.1.batch_norm_layers.0.weight f4 [5]
1.0 1.0 1.0 1.0 1.0
00000000: 0000 803f 0000 803f 0000 803f 0000 803f
00000010: 0000 803f

model.6._encoder.blocks.1.batch_norm_layers.0.bias f4 [5]
0.0 0.0 0.0 0.0 0.0
00000000: 0000 0000 0000 0000 0000 0000 0000 0000
00000010: 0000 0000

model.6._encoder.blocks.1.batch_norm_layers.0.running_mean f4 [5]
-0.9509308 -0.9243618 -1.1181425 -0.6400524 -0.95799196
00000000: 3370 73bf faa2 6cbf 4b1f 8fbf 79da 23bf
00000010: f63e 75bf

model.6._encoder.blocks.1.batch_norm_layers.0.running_var f4 [5]
6e-45 6e-45 6e-45 6e-45 6e-45
00000000: 0400 0000 0400 0000 0400 0000 0400 0000
00000010: 0400 0000

model.6._encoder.blocks.1.batch_norm_layers.1.weight f4 [5]
1.0 1.0 1.0 1.0 1.0
00000000: 0000 803f 0000 803f 0000 803f 0000 803f
00000010: 0000 803f

model.6._encoder.blocks.1.batch_norm_layers.1.bias f4 [5]
0.0 0.0 0.0 0.0 0.0
00000000: 0000 0000 0000 0000 0000 0000 0000 0000
00000010: 0000 0000

model.6._encoder.blocks.1.batch_norm_layers.1.running_mean f4 [5]
-0.09661862 -0.04150388 -0.1618651 0.38183576 -0.06603998
00000000: fcdf c5bd f9ff 29bd f7bf 25be fa7f c33e
00000010: f83f 87bd

model.6._encoder.blocks.1.batch_norm_layers.1.running_var f4 [5]
6e-45 6e-45 6e-45 6e-45 6e-45
00000000: 0400 0000 0400 0000 0400 0000 0400 0000
00000010: 0400 0000

model.6._encoder.blocks.1.linear_layers.0.weight f4 [5, 5]
0.15397288 -0.16845135 -0.18819435 -0.093275234 -0.16553429 0.24505523 -0.08497018 0.33908525
0.10204661 -0.069101326 -0.25831032 -0.4095014 -0.13046217 -0.4141339 -0.08285556 0.007309397
-0.028820155 -0.21967888 0.3103947 0.2518617 -0.110183194 -0.1766967 0.28115878 0.3890867
-0.409486
00000000: 11ab 1d3e 837e 2cbe 05b6 40be 1607 bfbd
00000010: d281 29be c2ef 7a3e d904 aebd 959c ad3e
00000020: d0fd d03d ff84 8dbd 4041 84be 2baa d1be
00000030: e097 05be 5c09 d4be 2db0 a9bd ab83 ef3b
00000040: 3f18 ecbc 80f3 60be 0eec 9e3e 04f4 803e
00000050: baa7 e1bd fbef 34be 0bf4 8f3e 5f36 c73e
00000060: 26a8 d1be

model.6._encoder.blocks.1.linear_layers.0.bias f4 [5]
-0.09662461 -0.04150239 -0.16191855 0.3817903 -0.06605855
00000000: 20e3 c5bd 69fe 29bd facd 25be 057a c33e
00000010: b449 87bd

model.6._encoder.blocks.1.linear_layers.1.weight f4 [5, 5]
-0.00042496802 -0.0009781506 0.0005417048 -0.0005674093 -0.00016694774 -0.00083848194 -0.00056415825 0.00041715993
-0.000931727 -0.0005702397 0.0007497303 -0.0005128488 -0.00041615596 -0.00028077376 0.00042745913 -0.00065596966
0.00010026539 0.0004084027 -7.259322e-05 0.00018081868 -0.0007628476 0.00045209946 0.00037372948 -0.00012543214
-0.0008268704
00000000: 3ece deb9 4a35 80ba 3201 0e3a 32be 14ba
00000010: b10e 2fb9 92cd 5bba 05e4 13ba 42b6 da39
00000020: 243f 74ba 237c 15ba 8c89 443a b370 06ba
00000030: 822f dab9 d134 93b9 981c e039 61f5 2bba
00000040: 9245 d238 e21e d639 303d 98b8 259a 3d39
00000050: d6f9 47ba c307 ed39 1ff1 c339 6f86 03b9
00000060: 55c2 58ba

model.6._encoder.blocks.1.linear_layers.1.bias f4 [5]
-0.21899852 -0.21549499 -0.23084952 -0.21793473 -0.21785735
00000000: 2641 60be b8aa 5cbe d163 6cbe 482a 5fbe
00000010: ff15 5fbe

model.6._encoder.blocks.2.batch_norm_layers.0.weight f4 [5]
1.0 1.0 1.0 1.0 1.0
00000000: 0000 803f 0000 803f 0000 803f 0000 803f
00000010: 0000 803f

model.6._encoder.blocks.2.batch_norm_layers.0.bias f4 [5]
0.0 0.0 0.0 0.0 0.0
00000000: 0000 0000 0000 0000 0000 0000 0000 0000
00000010: 0000 0000

model.6._encoder.blocks.2.batch_norm_layers.0.running_mean f4 [5]
-1.1699088 -1.1397451 -1.3486241 -0.85783947 -1.175775
00000000: 92bf 95bf 2be3 91bf b79f acbf 5e9b 5bbf
00000010: cc7f 96bf

model.6._encoder.blocks.2.batch_norm_layers.0.running_var f4 [5]
6e-45 6e-45 6e-45 6e-45 6e-45
00000000: 0400 0000 0400 0000 0400 0000 0400 0000
00000010: 0400 0000

model.6._encoder.blocks.2.batch_norm_layers.1.weight f4 [5]
1.0 1.0 1.0 1.0 1.0
00000000: 0000 803f 0000 803f 0000 803f 0000 803f
00000010: 0000 803f

model.6._encoder.blocks.2.batch_norm_layers.1.bias f4 [5]
0.0 0.0 0.0 0.0 0.0
00000000: 0000 0000 0000 0000 0000 0000 0000 0000
00000010: 0000 0000

model.6._encoder.blocks.2.batch_norm_layers.1.running_mean f4 [5]
-0.04922484 -0.34741202 -0.0016260138 0.00063466973 -0.3864745
00000000: fc9f 49bd fddf b1be f81f d5ba f75f 263a
00000010: fcdf c5be

model.6._encoder.blocks.2.batch_norm_layers.1.running_var f4 [5]
6e-45 6e-45 6e-45 6e-45 6e-45
00000000: 0400 0000 0400 0000 0400 0000 0400 0000
00000010: 0400 0000

model.6._encoder.blocks.2.linear_layers.0.weight f4 [5, 5]
-0.17887093 -0.031045718 0.4451736 0.0021113157 -0.35603276 -0.032614533 0.22248548 -0.14598109
-0.2341984 0.36840484 0.23658124 -0.07597841 0.022847664 -0.047298525 0.1038276 0.015893752
-0.27062458 0.08285716 0.011696762 0.02891393 -0.1704277 0.114586234 -0.36163753 0.13368249
0.24234207
00000000: f129 37be 9753 febc cbed e33e 005e 0a3b
00000010: ed49 b6be d196 05bd 3cd3 633e 117c 15be
00000020: b5d1 6fbe 8f9f bc3e 5a42 723e 929a 9bbd
00000030: 062b bb3c 19bc 41bd 91a3 d43d 9d33 823c
00000040: 4e8f 8abe 04b1 a93d c7a3 3f3c e8dc ec3c
00000050: 9984 2ebe 30ac ea3d 8e28 b9be 10e4 083e
00000060: 8528 783e

model.6._encoder.blocks.2.linear_layers.0.bias f4 [5]
-0.04921728 -0.3473956 -0.0016256965 0.00063483947 -0.38648412
00000000: 0f98 49bd d6dd b1be 5315 d5ba 5b6b 263a
00000010: 3fe1 c5be

model.6._encoder.blocks.2.linear_layers.1.weight f4 [5, 5]
-0.0007161185 -0.000658662 0.00046886972 0.00076037686 8.140707e-05 -0.000502285 0.00048287443 0.00017440546
-0.00087547937 -0.000648045 0.00021887686 0.00061877444 -0.0003212638 0.0004835335 -0.0006193128 0.00095693365
0.00071254413 0.00018730725 0.00044489256 0.0003481568 -0.0005900972 -8.719921e-06 0.00026666047 -0.00022571422
0.0009589454
00000000: e6b9 3bba 0faa 2cba a1d2 f539 0754 473a
00000010: 17b9 aa38 c7ab 03ba 4f2a fd39 9ce0 3639
00000020: 6d80 65ba 90e1 29ba 4f82 6539 4035 223a
00000030: 4c6f a8b9 c582 fd39 6159 22ba bbda 7a3a
00000040: 07ca 3a3a e867 4439 7840 e939 d188 b639
00000050: c1b0 1aba c74b 12b7 90ce 8b39 b3ad 6cb9
00000060: bd61 7b3a

model.6._encoder.blocks.2.linear_layers.1.bias f4 [5]
-0.21978411 -0.21704063 -0.23115067 -0.21933416 -0.21740396
00000000: 160f 61be e63f 5ebe c3b2 6cbe 2299 60be
00000010: 259f 5ebe

model.6._encoder.final_layer.weight f4 [1, 5]
-0.43815488 -0.5524797 -0.28156525 -0.47999793 -0.4704229
00000000: d655 e0be 4f6f 0dbf 5229 90be 4ac2 f5be
00000010: 45db f0be

model.7.log_scale f4 [25, 3]
0.0 0.0 0.0 0.11311146 0.126359 0.10327047 0.0 0.0
0.0 0.0 0.0 0.0 0.0 0.0 0.0 0.0
0.0 0.0 0.0 0.0 0.0 0.0 0.0 0.0
0.0 0.0 0.0 0.0 0.0 0.0 0.0 0.0
0.0 0.0 0.0 0.0 0.0 0.0 0.0 0.0
0.0 0.0 0.0 0.0 0.0 0.0 0.0 0.0
0.0 0.0 0.0 0.0 0.0 0.0 0.0 0.0
0.0 0.0 0.0 0.0 0.0 0.0 0.0 0.0
0.0 0.0 0.0 0.0 0.0 0.0 0.0 0.0
0.0 0.0 0.0
00000000: 0000 0000 0000 0000 0000 0000 fba6 e73d
00000010: 4164 013e 787f d33d 0000 0000 0000 0000
00000020: 0000 0000 0000 0000 0000 0000 0000 0000
00000030: 0000 0000 0000 0000 0000 0000 0000 0000
00000040: 0000 0000 0000 0000 0000 0000 0000 0000
00000050: 0000 0000 0000 0000 0000 0000 0000 0000
00000060: 0000 0000 0000 0000 0000 0000 0000 0000
00000070: 0000 0000 0000 0000 0000 0000 0000 0000
00000080: 0000 0000 0000 0000 0000 0000 0000 0000
00000090: 0000 0000 0000 0000 0000 0000 0000 0000
000000a0: 0000 0000 0000 0000 0000 0000 0000 0000
000000b0: 0000 0000 0000 0000 0000 0000 0000 0000
000000c0: 0000 0000 0000 0000 0000 0000 0000 0000
000000d0: 0000 0000 0000 0000 0000 0000 0000 0000
000000e0: 0000 0000 0000 0000 0000 0000 0000 0000
000000f0: 0000 0000 0000 0000 0000 0000 0000 0000
00000100: 0000 0000 0000 0000 0000 0000 0000 0000
00000110: 0000 0000 0000 0000 0000 0000 0000 0000
00000120: 0000 0000 0000 0000 0000 0000
